mlops_project/models/checkpoint1.pth (torch_old, 445854 bytes, 8 tensors)

fc1.weight f4 [128, 784]
0	0xbc9690ae	-0.018379536
1	0xbce6b231	-0.02816114
2	0x3b4d9b80	0.0031373203
3	0xbcfe2a95	-0.031026164
4	0xbc57c73c	-0.01317006
5	0x3cc459dc	0.02396863
6	0x3cecc6ce	0.028903391
7	0x3d0bd47d	0.03413819
8	0x3d0f408f	0.034973677
9	0x3ca7499e	0.020420846
10	0x3c6c2ee0	0.014415473
11	0xbc06c1b8	-0.008224897
12	0x3b89e058	0.004207652
13	0xbccd94d0	-0.025095373
14	0x3caef24c	0.02135577
15	0x3ceef3d6	0.029169004
16	0x3bc9cb70	0.006158285
17	0xbd4b43d8	-0.049625248
18	0xbd9c51b5	-0.07632772
19	0xbd07d1d9	-0.03315911
20	0x3c606bb1	0.013697551
21	0x3baf5e28	0.0053518005
22	0xbc3d10cc	-0.011539649
23	0x3c848804	0.016178139
24	0xbc5c2e6e	-0.013438804
25	0x3c8d57a8	0.017253712
26	0xbc27b8a6	-0.010236895
27	0xbc5fe718	-0.013665937
28	0xbcb805a5	-0.022463629
29	0x3cb55880	0.022136927
30	0xbc955d77	-0.018233044
31	0x3cae0c3c	0.021246068
32	0xbcb8321a	-0.022484828
33	0x3b5cc080	0.0033684075
34	0x3bf77088	0.0075512566
35	0x3cb910ac	0.022590958
36	0x3cf68c22	0.030096117
37	0x3c9bc51c	0.019014888
38	0xbd18a924	-0.03727068
39	0xbd0d9256	-0.034563385
40	0xbd2b5c0d	-0.041835833
41	0xbdb283cf	-0.08716547
42	0x3d9d051e	0.07666992
43	0x3ca03203	0.019555097
44	0xbda6a7fa	-0.08137508
45	0xbdd0e879	-0.10200591
46	0xbd9b9caf	-0.075982444
47	0xbd3f2c94	-0.046673372
48	0xbd1fff7b	-0.039062005
49	0xbd1f3ce9	-0.038876448
50	0xbd1c1310	-0.038104117
51	0xbd0a57d6	-0.033775173
52	0x3c5b569c	0.0133873485
53	0xbcfa61f5	-0.030564288
54	0x3cb2b6ba	0.021815646
55	0x3c28afdc	0.010295834
56	0x3cb5a786	0.022174608
57	0x3cc2317c	0.023705237
58	0xbcec3a61	-0.028836431
59	0x3b04e8d0	0.0020280369
60	0x3c6ae094	0.01433577
61	0xbd34f273	-0.04417653
62	0xbbd37c19	-0.0064540026
63	0xbca02b9b	-0.019552043
64	0xbd9947eb	-0.074844204
65	0xbcafb56f	-0.021448819
66	0xbcb6c686	-0.02231146
67	0xbdae1e02	-0.08501817
68	0xbdb9da5e	-0.09074853
69	0xbd6b2f5d	-0.057418216
70	0x3d19d69e	0.03755819
71	0xbde3f0c5	-0.111299075
72	0x3cb76af8	0.022389874
73	0x3c989f49	0.01863064
74	0xbd84c3bb	-0.06482645
75	0xbcbf6873	-0.023365235
76	0x3cc06294	0.023484506
77	0x3c581c75	0.013190378
78	0x3cac2f9d	0.021018798
79	0x3dc4b8c5	0.096055545
80	0x3b18d620	0.0023320988
81	0x3d08ff17	0.033446398
82	0x3c731440	0.014836371
83	0xbba33664	-0.004980849
84	0xbcd93660	-0.026515186
85	0xbd03a9f7	-0.032144513
86	0x3cbd21dc	0.023087434
87	0xbbcd24d4	-0.006260494
88	0xbc842be5	-0.016134212
89	0xbc858213	-0.016297376
90	0xbd637353	-0.055529904
91	0xbdd8030a	-0.10547455
92	0xbdb63fd2	-0.088988915
93	0xbdea0143	-0.11426022
94	0xbbef5f9b	-0.007305098
95	0x3d383bce	0.04497891
96	0x3aaf1727	0.001335834
97	0x3dc2b3a0	0.09506917
98	0xbcdee981	-0.027210953
99	0xbd830cca	-0.06398924
100	0x3bd16e11	0.0063912948
101	0x3ba5c53e	0.0050589135
102	0xbbda90ef	-0.0066701095
103	0x3d1f6888	0.03891805
104	0x3c35475c	0.011064377
105	0xbd42925b	-0.047502857
106	0x3dcbf77a	0.09959312
107	0xbd44b155	-0.04802068
108	0xbd05e23d	-0.03268646
109	0x3c4d925a	0.0125471
110	0x3d2fd893	0.04293115
111	0x3c40b4c8	0.011761852
112	0xbbd38c78	-0.006455954
113	0x3cb0041e	0.021486338
114	0xbc0d57db	-0.008626903
115	0xbc8f9582	-0.017527346
116	0xbca42118	-0.020035312
117	0xbc8afda6	-0.016966652
118	0xbdce432b	-0.10071405
119	0xbe1a67a1	-0.15078594
120	0xbe2a24ea	-0.16615644
121	0xbd189425	-0.037250657
122	0xbc0048b2	-0.007829832
123	0xbcb37404	-0.021905906
124	0x3c92a737	0.017902
125	0x3c3efb8d	0.011656654
126	0xbb882aae	-0.0041554784
127	0x3cb36b88	0.02190186
128	0x3db2931b	0.087194644
129	0x3d20e595	0.039281446
130	0xbcb25753	-0.021770155
131	0x3d8d4cc3	0.06899407
132	0x3ce1ec76	0.027578574
133	0xbd00bed8	-0.031432003
134	0xbd3cc1e6	-0.046083353
135	0x3d4c2111	0.049836222
136	0xbc5881c9	-0.013214537
137	0xbd0ac78d	-0.033881713
138	0xbd32325f	-0.04350507
139	0x3d05d44f	0.032673176
140	0x3d0cc12b	0.034363907
141	0x3ce0b29e	0.027428921
142	0x3bc3cb10	0.0059751347
143	0xbc5da5f5	-0.013528337
144	0xbc088ded	-0.008334619
145	0xbd90c2ba	-0.07068391
146	0xbd4c1140	-0.04982114
147	0x3c46c1d9	0.012131178
148	0x3c99554d	0.018717432
149	0xbce8f149	-0.028435366
150	0xbc23e613	-0.010003584
151	0x3d0afb7f	0.03393125
152	0x3cca1249	0.024666922
153	0x3d485eef	0.04891866
154	0x3cdfd901	0.027325155
155	0x3cf987c5	0.030460248
156	0x3d8cebce	0.06880914
157	0x3ccde6a2	0.025134388
158	0x3cac95e5	0.021067569
159	0x3d0197eb	0.03163902
160	0x3d4a10f8	0.04933259
161	0x3a82590d	0.0009944752
162	0x3d9e46e9	0.07728369
163	0xbabc4412	-0.0014363548
164	0x3e00d0b0	0.12579608
165	0xbc7f2fe0	-0.015575379
166	0xbda2cb00	-0.079488754
167	0xbbcd1238	-0.0062582754
168	0x3c8d6ccc	0.017263792
169	0xbce9f9dc	-0.028561525
170	0xbb9b8d8e	-0.0047470992
171	0x3daad4f2	0.08341397
172	0xbd88fa16	-0.06688325
173	0xbd2221aa	-0.039582886
174	0xbd89ae64	-0.067227155
175	0x3c57a35a	0.013161505
176	0xbd9b7523	-0.075907014
177	0xbc6d105e	-0.014469234
178	0x3d65e79b	0.05612908
179	0x3d92b466	0.071633145
180	0x3d79137e	0.060809605
181	0x3d6b940c	0.057514235
182	0x3c104b8c	0.008807074
183	0x3c099435	0.008397152
184	0xbc09f31f	-0.008419781
185	0xbcbb0e28	-0.022833899
186	0x3d7b6e58	0.06138453
187	0x3ca7d58d	0.020487571
188	0x3cb375a9	0.02190669
189	0x3c56f8bb	0.013120825
190	0x3ceeeb2f	0.029164879
191	0x3db91e2f	0.0903896
192	0x3e6deb35	0.23234256
193	0x3d9d0aa0	0.07668042
194	0x3e1115b0	0.1416843
195	0xbccf3d38	-0.025297746
196	0x3c2f891c	0.010713842
197	0x3cbedb29	0.023297863
198	0xbe00a5eb	-0.12563293
199	0xbb8b29e4	-0.004246937
200	0xbcd75301	-0.026284697
201	0xbd3f375c	-0.046683654
202	0xbcbff381	-0.023431541
203	0x3d2dbf16	0.042418562
204	0xbcb75afc	-0.022382252
205	0x3c0a8e3a	0.008456761
206	0x3d962e79	0.07333083
207	0x3ba9c0f1	0.005180471
208	0x3d902e5f	0.070400946
209	0x3d0b58a1	0.03402007
210	0x3ba3f5ed	0.005003682
211	0x3b87d18a	0.004144852
212	0xbd8a3743	-0.067488216
213	0xbbd19f21	-0.0063971435
214	0x3d885a76	0.06657879
215	0x3d9bddbc	0.07610652
216	0x3c97afbe	0.018516418
217	0x3c0fb36c	0.008770805
218	0x3d25b6c7	0.040457513
219	0x3dc6633c	0.09686896
220	0x3e4593f1	0.19294716
221	0x3dc38809	0.09547431
222	0x3d2a3fc2	0.04156471
223	0xbc2ab82e	-0.010419888
224	0xbce4f553	-0.027949011
225	0xbc34d068	-0.011036016
226	0xbdc21def	-0.09478366
227	0xbb81afb3	-0.0039577126
228	0xbdbe76b1	-0.09299982
229	0xbda5f271	-0.08102883
230	0xbd2d8992	-0.042367525
231	0x3d92450a	0.071420744
232	0xbc7cfd42	-0.015441241
233	0x3c2ba640	0.010476649
234	0x3d8305ea	0.063976124
235	0x3d114d7e	0.035474293
236	0x3c7f809f	0.0155946305
237	0x3d35a76e	0.044349127
238	0xbc03a753	-0.008035499
239	0x3d1805a9	0.037114773
240	0xbce9eeec	-0.02855631
241	0x3bfa00a6	0.007629472
242	0x3da682d8	0.08130425
243	0x3d747c38	0.059688777
244	0x3d8e69c6	0.069537684
245	0x3ce3726f	0.027764527
246	0x3d7b87f6	0.06140896
247	0xbc86baac	-0.016446434
248	0xbd1aa4a5	-0.037754674
249	0xbd5e11a1	-0.05421603
250	0xbcfcf9e3	-0.030880874
251	0xbd071744	-0.032981172
252	0xbe1a29e5	-0.15055044
253	0x3d26d2c0	0.04072833
254	0xbd80b3d4	-0.062842995
255	0xbd845516	-0.06461541

fc1.bias f4 [128]
0	0x3d6ce958	0.05783972
1	0x3d46152d	0.04836004
2	0xbcf8db90	-0.030378133
3	0x3da43b2a	0.08019097
4	0x3cd1498c	0.025547765
5	0x3d5c7a44	0.05382754
6	0x3ce2fca1	0.027708353
7	0x3c3ff964	0.011717174
8	0x3d2c09cb	0.042001527
9	0x3ca55584	0.020182379
10	0x3cba0f37	0.022712333
11	0xbcbd33c9	-0.023095982
12	0x3c5cf6d3	0.013486582
13	0x3d58c177	0.052918877
14	0x3d706ca4	0.058697358
15	0x3ccdbc2f	0.025114147
16	0xbdb2edb8	-0.087367475
17	0x3da02124	0.07818821
18	0x3dc1b8d7	0.094590835
19	0x3d45e1dd	0.048311103
20	0x3dd03f40	0.10168314
21	0x3d898fe9	0.06716902
22	0x3e085d60	0.1331687
23	0x3dbced67	0.092249684
24	0x3d41e001	0.047332767
25	0x3d3d5dd7	0.04623207
26	0xbd2ab7cf	-0.0416792
27	0x3d6a982d	0.057274032
28	0x3dd89be5	0.105766095
29	0x3cd4a581	0.025957825
30	0x3c7f4c11	0.0155821005
31	0x3d141719	0.03615484
32	0x3d8c3e1c	0.06847784
33	0x3d1f6a78	0.038919896
34	0x3d23fbf7	0.040035214
35	0x3dbbba73	0.09166422
36	0x3d53ef38	0.05174181
37	0x3d502e49	0.05082539
38	0xbbe7c19c	-0.0070726406
39	0x3b95b76a	0.004568984
40	0x3bb0e821	0.0053987657
41	0x3da2f5db	0.079570495
42	0xbca9dae3	-0.020734256
43	0x3ca277d6	0.019832533
44	0x3d03d041	0.03218103
45	0x3d81d15d	0.06338761
46	0xbd2caf8d	-0.042159606
47	0xbd0fbb25	-0.035090584
48	0x3d1f482c	0.038887188
49	0x3c8964fa	0.016771782
50	0xbc1cf6cc	-0.009580325
51	0x3dc95c9a	0.098321155
52	0x3d8992ed	0.06717477
53	0xbcc50ea0	-0.024054825
54	0x3d0338e9	0.032036696
55	0x3d2ee982	0.04270316
56	0xba82fab2	-0.0009992926
57	0x3d7b7d6d	0.061398912
58	0x3d184524	0.037175313
59	0xbd4822a4	-0.04886116
60	0x3dd1f779	0.1025228
61	0x3da21f0d	0.07916079
62	0x3d3880a6	0.045044564
63	0x3d9dbffd	0.077026345
64	0xbc2224a1	-0.009896428
65	0x3d7e639c	0.062106714
66	0x3bffea3e	0.0078099063
67	0x3d848c8c	0.0647212
68	0x3c1f745f	0.009732335
69	0x3bc31d3f	0.005954414
70	0xbd21b677	-0.039480653
71	0x3d6c5023	0.05769361
72	0x3dadd333	0.08487549
73	0x3dbfeaf4	0.093709856
74	0x3dde82aa	0.10864766
75	0x3d23b9eb	0.039972227
76	0xbc138c12	-0.009005563
77	0x3d3afda3	0.045652043
78	0x3d3f5d1e	0.046719663
79	0xbc95ca36	-0.018284898
80	0x3d404bf6	0.046947442
81	0x3cf30517	0.029665513
82	0x3ccb48e2	0.024815027
83	0x3d305c3d	0.043056715
84	0x3c947ac1	0.01812494
85	0x3d905225	0.07046918
86	0x3d37e272	0.04489369
87	0xbd482215	-0.04886063
88	0x3def909b	0.11697503
89	0x3d942579	0.0723371
90	0x3d4f14f9	0.05055711
91	0xbc64753e	-0.013943968
92	0x3d55ff0b	0.05224518
93	0x3cf5a514	0.029985942
94	0xbc83d7e5	-0.016094157
95	0x3c627a79	0.013823145
96	0x3d24c60b	0.04022793
97	0x3b6bf96d	0.0036006824
98	0x3d893ff3	0.067016505
99	0xbb982ebb	-0.0046442426
100	0x3dc8262b	0.09772905
101	0x3ccadfd1	0.024764927
102	0x3cdd8d29	0.02704485
103	0x3c5d03b8	0.013489656
104	0x3db6565c	0.089031905
105	0x3d92e162	0.071718946
106	0x3d73b948	0.05950287
107	0x3df30250	0.118656754
108	0xbccd87a6	-0.025089096
109	0x3d11ad17	0.035565462
110	0x3db2fc2b	0.087395035
111	0x3d016c65	0.031597514
112	0x3d9bac86	0.076012656
113	0x3a1c8a63	0.0005971549
114	0xbd507577	-0.050893273
115	0x3c60c54a	0.013718912
116	0x3d2b3b58	0.04180464
117	0x3ddeb53b	0.10874411
118	0x3ccfa232	0.025345895
119	0xbad22c73	-0.0016034975
120	0x3da15f53	0.0787951
121	0x3d383d92	0.044980593
122	0x3e1b264d	0.1515133
123	0x3cc60ec3	0.02417696
124	0xbca315e3	-0.019907897
125	0xbd5cb6ed	-0.05388539
126	0x3d6d7ab5	0.05797835
127	0x3d98d326	0.07462148

fc2.weight f4 [64, 128]
0	0x3d506cbb	0.050884943
1	0xbd76ef4b	-0.0602868
2	0xbde751a7	-0.11294871
3	0xbd7645e2	-0.06012524
4	0xbc0ee669	-0.008721926
5	0xbc719210	-0.014744297
6	0x3d5f2cb0	0.054485977
7	0x3dd59cde	0.10430311
8	0xbc99f350	-0.018792778
9	0xbde03c2d	-0.109489776
10	0x3e195c8c	0.1497671
11	0xbd98bd24	-0.07457951
12	0x3e6f4255	0.23365147
13	0x3dcef6b0	0.10105646
14	0x3e17d13f	0.14825915
15	0xbe13b3f4	-0.14424115
16	0x3d0b9630	0.034078777
17	0x3d52ced1	0.051466767
18	0xbd9b4934	-0.07582322
19	0xbdeee40f	-0.116645925
20	0xbd6c4952	-0.05768711
21	0xbe38a014	-0.18029815
22	0x3daf0b80	0.08547115
23	0x3d0c4e7e	0.034254543
24	0x3e67eaf8	0.22648227
25	0x3c7dce06	0.015491014
26	0x3e28826a	0.16455999
27	0x3dceec10	0.10103619
28	0xbc592718	-0.01325395
29	0x3d6e78d7	0.05822071
30	0x3e8cdd52	0.27512604
31	0xbcce0162	-0.025147144
32	0xbdbb0894	-0.091324955
33	0x3d670307	0.05639937
34	0x3d0ce0dc	0.03439413
35	0xbd516746	-0.05112388
36	0xbe187eed	-0.14892168
37	0xbd91f28b	-0.071263395
38	0xbd9f8d3d	-0.07790611
39	0xbd9bc004	-0.076049834
40	0x3e07b479	0.13252439
41	0x3e3efb5a	0.1865057
42	0xbd5e8595	-0.054326613
43	0x3ce70867	0.028202249
44	0x3dc446a1	0.09583784
45	0xbd01a851	-0.03165466
46	0x3e866b61	0.262538
47	0x3da6d826	0.08146696
48	0xbdf94473	-0.12171259
49	0x3db86beb	0.09004959
50	0x3ccf603b	0.025314441
51	0x3c04ffbd	0.008117613
52	0xbe37f23e	-0.17963502
53	0x3dd348ed	0.10316644
54	0x3da4abae	0.08040558
55	0xbd25e5da	-0.040502407
56	0x3d6d9330	0.058001697
57	0xbdc741f1	-0.09729374
58	0x3df440d0	0.119264245
59	0x3dcd06d5	0.10011069
60	0x3c2afb89	0.010435947
61	0xbcc1fce3	-0.023680156
62	0x3e137ff2	0.14404276
63	0x3e12629d	0.1429543
64	0x3d8413cf	0.06449091
65	0x3ddbcca9	0.10732395
66	0x3cb359ed	0.021893466
67	0x3db6ff0c	0.08935365
68	0xbbac2351	-0.0052532335
69	0xbd732a09	-0.05936626
70	0x3dd1db67	0.10246926
71	0x3d388427	0.045047905
72	0x3c0806d2	0.008302407
73	0x3da23cf3	0.079217814
74	0xbdf7adc4	-0.1209369
75	0xbb0eb81a	-0.0021777214
76	0xbd8dce75	-0.06924144
77	0xbca91019	-0.020637559
78	0xbe184f63	-0.14874034
79	0x3d844bc4	0.06459764
80	0xbd58ca8c	-0.05292754
81	0xbd836f91	-0.06417764
82	0xbd5dbe57	-0.0541366
83	0x3e1707c6	0.14749059
84	0x3d8c05e4	0.06837061
85	0x3d6c65bc	0.05771421
86	0xbdaf1162	-0.085482374
87	0xbcb3a396	-0.02192859
88	0x3d41e628	0.047338635
89	0xbc16092c	-0.00915746
90	0xbd8115fa	-0.0630302
91	0xbdfad14b	-0.12246951
92	0x3d68887a	0.05677078
93	0xbdcd5752	-0.10026421
94	0xbd0dd41b	-0.034626108
95	0xbc8de8c5	-0.017322907
96	0x3dc94fe0	0.09829688
97	0xbd682e87	-0.056684997
98	0xbcaa38f5	-0.020779112
99	0x3dc516ac	0.09623465
100	0xbcc5d46b	-0.02414914
101	0x3d8eace2	0.069665685
102	0xbdf1c4ed	-0.11805139
103	0x3c85e1b4	0.016342975
104	0xbca3256c	-0.019915305
105	0x3edf10e6	0.4356758
106	0x3da75156	0.081698105
107	0xbd1643a8	-0.036685616
108	0x3c8fe6b8	0.01756607
109	0xbdd075f4	-0.10178748
110	0xbd13a73b	-0.036048155
111	0x3d395a87	0.04525235
112	0x3d1ad8e1	0.037804488
113	0x3dd10d7f	0.10207652
114	0xbd81c9df	-0.06337332
115	0x3e1c26db	0.15249197
116	0x3d935846	0.07194571
117	0x3c233f05	0.0099637555
118	0xbd05b2ea	-0.03264133
119	0x3b947ba1	0.0045313393
120	0x3e604a3a	0.21903315
121	0x3d6d99a3	0.058007848
122	0x3e130767	0.14358293
123	0x3d8ab8ac	0.067735046
124	0x3e5859e2	0.21128038
125	0x3db74a3f	0.08949708
126	0x3e0d7062	0.13812402
127	0x3cb1b8b1	0.021694513
128	0x3dedf43a	0.11618848
129	0x3d9ca3df	0.076484434
130	0x3c0ca8a1	0.008585126
131	0x3df61832	0.12016334
132	0x3dca2e21	0.0987208
133	0xbdcbb6ec	-0.09946999
134	0xbd4c7960	-0.04992044
135	0xbd247b11	-0.040156428
136	0x3d1542e0	0.03644073
137	0x3de3cfc3	0.11123612
138	0xbe91b04b	-0.28454813
139	0x3e549c08	0.20762646
140	0xbe0705d7	-0.13185821
141	0xbdf18624	-0.117931634
142	0xbd7d148d	-0.061787177
143	0x3dda0c08	0.10646826
144	0x3d59cc41	0.053173307
145	0x3d2295eb	0.039693754
146	0x3d9105d9	0.070811935
147	0x3d1022f5	0.035189588
148	0x3d6ff3da	0.058582164
149	0xbd4ddd60	-0.050259948
150	0xbd62bf26	-0.055358075
151	0xbddba2a3	-0.1072438
152	0xbe0982cb	-0.134288
153	0x3dcead44	0.100916415
154	0xbb66f0ff	-0.003523886
155	0x3d8ca91f	0.06868195
156	0x3c03496f	0.008013113
157	0x3dec2455	0.11530367
158	0xbe138abe	-0.14408395
159	0xbd0b3070	-0.03398174
160	0x3e354a0d	0.1770403
161	0xbd60b19b	-0.054856878
162	0xbd1db35f	-0.03850114
163	0xbb78505f	-0.0037889702
164	0x3d90f1cf	0.07077371
165	0x3e468b98	0.19389188
166	0x3cc05689	0.023478763
167	0x3e02a483	0.12758069
168	0xbec9f902	-0.3944779
169	0x3cb4cc69	0.022070127
170	0x39bb0830	0.0003567352
171	0xbd8c5965	-0.06852988
172	0x3dec6773	0.11543169
173	0xbdad0a28	-0.08449203
174	0xbe7318c9	-0.23739924
175	0x3de51f46	0.111876056
176	0x3b204fba	0.0024461583
177	0xbe7486a5	-0.23879488
178	0x3dad6e13	0.084682606
179	0xbd04809a	-0.032349207
180	0xbe5b7209	-0.2143022
181	0x3e10b9f0	0.1413343
182	0xbdf195e1	-0.11796165
183	0x3e0f140f	0.13972495
184	0x3e4f6c3a	0.20256129
185	0x3da4a7c1	0.08039809
186	0xbe676150	-0.22595716
187	0x3d239e8e	0.03994613
188	0x3d33f1c0	0.043931723
189	0xbe013713	-0.12618665
190	0x3d5f010d	0.05444436
191	0xbcc66f17	-0.024222894
192	0x3b95cfe7	0.004571903
193	0x3b68b904	0.0035510669
194	0x3df0c49d	0.11756251
195	0xbd93f99e	-0.07225345
196	0x3e23a99e	0.15982673
197	0x3da87bb8	0.082267225
198	0x3daaf9fe	0.083484635
199	0xbcef439d	-0.029207045
200	0x3bfc614a	0.0077020274
201	0x3c41e2ca	0.011833856
202	0x3db6ee3e	0.0893216
203	0xbedc0714	-0.4297415
204	0x3d9f22cd	0.077703096
205	0xbd902966	-0.07039146
206	0xbd9f46ae	-0.07777153
207	0x3d674db5	0.05647059
208	0xbc3e614c	-0.011619877
209	0xbc2a1487	-0.010380871
210	0x3a52bbda	0.00080388563
211	0xbd8eea5b	-0.069782935
212	0xbcc2e0a1	-0.023788752
213	0xbc6d1608	-0.014470585
214	0x3e17a71d	0.14809842
215	0x3dfb6a47	0.1227613
216	0xbd2a217e	-0.041535847
217	0xbd0c4811	-0.034248415
218	0xbce6b240	-0.028161168
219	0xbc311608	-0.010808475
220	0x3d149f31	0.03628463
221	0xbda478b9	-0.080308385
222	0x3e1da2ee	0.15394184
223	0x3c6d9e4f	0.014503076
224	0x3deb9c11	0.11504377
225	0x3e1d5fa5	0.15368517
226	0x3d96467b	0.07337662
227	0xbdb08f1b	-0.08621045
228	0x3d64819e	0.055787675
229	0x3da41ef2	0.08013715
230	0xbdb8075b	-0.08985778
231	0x3e1ee3ea	0.1551663
232	0x3d881e7e	0.06646441
233	0xbeabfc1f	-0.3359079
234	0x3d0d4173	0.034486245
235	0x3c901600	0.017588615
236	0x3bda280a	0.006657605
237	0xbd0ce094	-0.034393862
238	0x3d5dac70	0.054119527
239	0xbc3bed0e	-0.011470092
240	0xbe24147d	-0.1602344
241	0x3ce180e9	0.02752729
242	0x3e3a60a7	0.18200932
243	0xbe8d9fe1	-0.2766104
244	0x3d58cc51	0.052929226
245	0x3dbfe2d4	0.09369436
246	0x3e066f3f	0.13128375
247	0xbdb63ae6	-0.08897953
248	0xbe209a77	-0.15683924
249	0x3e1863e3	0.14881854
250	0xbe814d4a	-0.2525428
251	0xbdea9e43	-0.11455967
252	0xbe73320b	-0.23749559
253	0x3e2577e6	0.16159019
254	0xbda6dba8	-0.08147365
255	0x3dc29fac	0.09503111

fc2.bias f4 [64]
0	0xbd578ab7	-0.052622523
1	0x3c8cc5cf	0.017184166
2	0x3c5a4ff7	0.013324729
3	0x3dc68d2d	0.09694896
4	0xbc1a64ec	-0.009423476
5	0x3cf305f4	0.029665925
6	0x3d94b95e	0.072619185
7	0x3d3bb760	0.045829177
8	0x3e276066	0.16345367
9	0x3c18539a	0.009297276
10	0x3b3d7afe	0.002891242
11	0xbd38f0b5	-0.04515143
12	0x3c3daad7	0.011576376
13	0xbd6fcece	-0.058546834
14	0xbdc6ad2f	-0.09701001
15	0xbd1378b0	-0.03600377
16	0x3d1bb0e5	0.038010497
17	0x3e065031	0.13116528
18	0x3d83ab7d	0.06429193
19	0x3d18656c	0.0372061
20	0x3e2dec10	0.16984582
21	0x3dc9192b	0.098192535
22	0xbd92dfe1	-0.07171608
23	0xbd20fc6d	-0.039303232
24	0xba91a548	-0.001111188
25	0x3d44a5f5	0.04800983
26	0x3d418228	0.047243267
27	0x3e0fcb23	0.14042334
28	0xbd972157	-0.07379406
29	0xbd876dcf	-0.06612741
30	0x3d8f20c4	0.069886714
31	0x3b029663	0.0019926063
32	0x3c0434bd	0.008069214
33	0xbbab985b	-0.005236668
34	0x3d3641aa	0.044496216
35	0x3da0ca99	0.078511424
36	0xbd9fabd3	-0.07796445
37	0x3d86d962	0.06584431
38	0x3d86c8a5	0.06581239
39	0x3b85a4e5	0.004078495
40	0xbd890aac	-0.066914886
41	0x3d25a53b	0.04044078
42	0x3e0e7edc	0.1391558
43	0xbaa601bb	-0.0012665311
44	0x3cca4e00	0.024695396
45	0xbca8e897	-0.02061872
46	0x3bc03a0d	0.005866295
47	0x3ce0562b	0.027384838
48	0x3c692ec8	0.014232345
49	0x3dc7c93e	0.09755181
50	0x3d81ae47	0.06332069
51	0x3e0a2f6e	0.13494655
52	0xbd62b852	-0.055351563
53	0xbdd75bf0	-0.105155826
54	0x3d99cde4	0.07509974
55	0x3da2959f	0.07938694
56	0x3da0cb0a	0.07851227
57	0x3da0082e	0.0781406
58	0x3c349ed4	0.011024196
59	0x3d73808a	0.059448756
60	0xbca6cd59	-0.02036159
61	0xbc7710cd	-0.015079689
62	0xbdb0477b	-0.08607384
63	0x3dc85c06	0.09783177

fc3.weight f4 [32, 64]
0	0x3e9d9362	0.30776507
1	0xbea4ad81	-0.32163623
2	0x3db04353	0.08606591
3	0x3e22f776	0.15914711
4	0xbb5fc326	-0.0034143417
5	0x3c93a492	0.01802281
6	0xbd911f37	-0.07086032
7	0xbd2e5bc0	-0.04256797
8	0x3ce3225c	0.027726345
9	0x3d73e22c	0.059541866
10	0x3f0b1744	0.54332376
11	0xbdc06637	-0.09394496
12	0x3e0f4980	0.13992882
13	0x3e742c0c	0.23844928
14	0xbd8798fb	-0.066209756
15	0xbc04310d	-0.008068335
16	0x3e0c0173	0.13672428
17	0xbe11f55e	-0.14253756
18	0xbd6cf337	-0.057849135
19	0xbb4f3a67	-0.0031620504
20	0x3e7a6fad	0.24456663
21	0x3d959a2d	0.07304797
22	0xbd97b7b1	-0.07408083
23	0x3e50cdae	0.2039096
24	0x3de51148	0.11184937
25	0x3dcfabd4	0.101401955
26	0xbd903c9d	-0.07042811
27	0x3dc28726	0.09498434
28	0x3e33a3ee	0.17543003
29	0xbceb8f92	-0.028754983
30	0x3e710af7	0.23539339
31	0x3d0b0c7f	0.033947464
32	0xbddd111e	-0.107942805
33	0x3ce852ca	0.02835979
34	0x3c608eaf	0.013705893
35	0xbd91069d	-0.070813395
36	0xbd2f9713	-0.042868685
37	0x3d7f6ae5	0.062357802
38	0xbd433990	-0.047662318
39	0xbe3fc5cc	-0.18727797
40	0x3ccc73d7	0.02495758
41	0x3e373203	0.17890172
42	0x3d898b4b	0.06716021
43	0x3e2c34c6	0.16817006
44	0xbcf1ad19	-0.029501485
45	0x3afa1780	0.001908049
46	0xbc972823	-0.018451756
47	0x3d05481a	0.032539465
48	0x3d9cbe3b	0.07653471
49	0xbdda2428	-0.106514275
50	0xb9c08ac5	-0.00036724485
51	0x3e88499e	0.26618665
52	0xbddd89df	-0.108173124
53	0xbc237083	-0.009975555
54	0xbd2f85af	-0.0428521
55	0x3d8cf138	0.06881946
56	0xbbd15591	-0.006388374
57	0xbe0dea01	-0.13858797
58	0xbc47630e	-0.012169613
59	0xbdae5f49	-0.08514268
60	0xbda5a47e	-0.08088015
61	0x3db862ba	0.090032056
62	0x3d9e5bab	0.07732328
63	0x3e8c79b3	0.274366
64	0x3c8d806b	0.017273149
65	0xbddae728	-0.10688621
66	0x3e185d6f	0.14879392
67	0xbd761fda	-0.06008897
68	0x3d4a1946	0.04934051
69	0x3d2ea849	0.042640958
70	0xbdd8a24a	-0.10577829
71	0xbe16d85b	-0.1473097
72	0x3c6c3b05	0.014418368
73	0x3e132a6f	0.14371656
74	0x3e1e2461	0.15443565
75	0x3db71a53	0.08940568
76	0xbc0cc2cc	-0.008591365
77	0x3d1f5a86	0.03890469
78	0x3e3d2f22	0.18475011
79	0x3d0c122a	0.03419701
80	0xbe11990d	-0.1421854
81	0x3c8d105c	0.017219715
82	0x3e7aab7e	0.24479482
83	0xbd7b7c6c	-0.061397955
84	0x3cade37f	0.021226643
85	0xbdad2809	-0.08454902
86	0xbe6112af	-0.21979783
87	0x3dc46c10	0.09590924
88	0x3de8d219	0.11368198
89	0x3e1f3afc	0.15549845
90	0x3dda3f32	0.10656585
91	0xbc4d4017	-0.012527487
92	0xbdb5f8e8	-0.08885366
93	0x3e13eac3	0.14445023
94	0x3da9ed64	0.08297232
95	0x3d847e8d	0.0646945
96	0x3e0a09b3	0.13480262
97	0xbd98e5a0	-0.074656725
98	0xbda4e6c8	-0.080518305
99	0x3d5bab25	0.053630013
100	0x3eaf9499	0.3429306
101	0xbd23b100	-0.039963722
102	0x3db65af5	0.089040674
103	0xbe2d8c9d	-0.16948171
104	0x3d96da25	0.073658265
105	0x3d8f5c39	0.07000012
106	0xbdf1e440	-0.11811113
107	0xbcdc6003	-0.02690125
108	0x3e68db06	0.22739801
109	0xbc950e38	-0.018195257
110	0xbc84aa01	-0.016194345
111	0x3df04632	0.11732139
112	0x3e1f7806	0.15573129
113	0xbdf734cb	-0.12070616
114	0x3e35969a	0.17733231
115	0xbde55f28	-0.1119979
116	0xbddf3c0a	-0.109001234
117	0x3dc8aca6	0.09798555
118	0x3c3330ad	0.010936898
119	0xbcdf0f96	-0.027229112
120	0xbdc9875e	-0.09840272
121	0xbe1a93bd	-0.1509542
122	0x3e088bef	0.1333463
123	0xbd118f9c	-0.035537347
124	0xbdc17603	-0.09446337
125	0xbd8e5b95	-0.06951062
126	0x3e1067b8	0.14102066
127	0xbda99630	-0.08280599
128	0xbc75402b	-0.014968912
129	0x3ded68fa	0.11592288
130	0xbe6ebf7f	-0.23315237
131	0x3dd52076	0.10406582
132	0xbd9f2d94	-0.07772365
133	0xbcd0e5ad	-0.025500143
134	0xbdf58024	-0.119873315
135	0x3e5486ab	0.20754497
136	0x3b185d08	0.002324881
137	0xbe07abfe	-0.13249204
138	0xbe6610e2	-0.22467378
139	0xbde56a76	-0.112019464
140	0xbe8d39f6	-0.27583283
141	0xbd88f7d4	-0.066878945
142	0xbe1c8d48	-0.1528827
143	0x3c58347f	0.01319611
144	0x3dd9ea49	0.106403895
145	0x3b8f4083	0.004371704
146	0x3e81745c	0.25284088
147	0x3eb2da91	0.34932378
148	0xbd5d5825	-0.05403914
149	0x3d8a7a54	0.067616135
150	0xbd38baa2	-0.045099862
151	0x3c704630	0.0146651715
152	0x3e5ec221	0.21753742
153	0x3db35e1f	0.087581865
154	0xbde4418c	-0.111453146
155	0x3e30c640	0.17263126
156	0xbdccaee6	-0.09994297
157	0x3e32ba52	0.17453888
158	0x3df9354b	0.12168368
159	0x3e88427a	0.26613218
160	0x3c5a380f	0.0133190295
161	0xbdf01220	-0.11722207
162	0x3e2e472c	0.17019337
163	0x3e163f70	0.14672637
164	0xbe052055	-0.13000615
165	0x3e30c3cf	0.17262195
166	0x3d12d522	0.03584779
167	0x3e90a4bd	0.28250685
168	0x3d8bf4ac	0.06833777
169	0xbe9e7626	-0.30949515
170	0x3e9dc776	0.3081624
171	0xbe914e82	-0.2838021
172	0xbe80dab1	-0.25166848
173	0xbd8f1620	-0.06986642
174	0xbd29623c	-0.04135345
175	0xbe2ea538	-0.17055213
176	0x3e62965f	0.22127675
177	0x3e9594eb	0.29215178
178	0x3e634c42	0.22197059
179	0xbdf18a0b	-0.11793908
180	0x3bb2285d	0.0054369406
181	0x3c7eefb4	0.015560079
182	0x3e0fa717	0.14028583
183	0x3e9ac198	0.30225825
184	0x3dcc0dc7	0.09963565
185	0x3b7b1ec5	0.00383179
186	0x3d13315a	0.035935737
187	0x3d83087c	0.06398103
188	0xbcd4bd3b	-0.025969138
189	0xbe27a1ac	-0.16370267
190	0xbd75c72d	-0.060004402
191	0x3e032e57	0.12810646
192	0x3dbba2ce	0.09161912
193	0x3df44c60	0.1192863
194	0xba078700	-0.0005169958
195	0x3d51b140	0.05119443
196	0xbd0c06ec	-0.03418629
197	0x3dfe6c0e	0.124229535
198	0x3d8ff5aa	0.070292786
199	0x3dbd1904	0.09233287
200	0xbdf1eadc	-0.11812374
201	0x3d253a18	0.040338606
202	0x3d677aa8	0.05651346
203	0xbdd0c6a4	-0.10194138
204	0x3d4bf62c	0.049795315
205	0xbdd50d6a	-0.10402949
206	0x3dafc562	0.0858257
207	0xbd3e6d44	-0.046490923
208	0x3da310aa	0.07962163
209	0xbc91f248	-0.017815724
210	0xbd86e8e4	-0.06587389
211	0xbcaf2640	-0.021380544
212	0xbd730470	-0.059330404
213	0xbcdbd1d0	-0.026833445
214	0xbd3b8ee8	-0.045790583
215	0xbd7199ec	-0.058984682
216	0x3d4f4584	0.050603405
217	0x3c0f32e0	0.008740157
218	0x3d25a840	0.04044366
219	0xbd08f4e4	-0.03343667
220	0xbdfb77f0	-0.12278736
221	0x3dadb2d8	0.08481377
222	0xbdc5683a	-0.0963902
223	0xbdb6a47e	-0.08918093
224	0xbdc04e72	-0.09389962
225	0xbdf1de48	-0.11809975
226	0xbde68d82	-0.11257459
227	0xbccbbd78	-0.02487062
228	0xbc808a38	-0.015690908
229	0xbda319f2	-0.07963933
230	0xbdffb7b0	-0.124862075
231	0x3c799ef0	0.015235648
232	0xbdf545e8	-0.11976224
233	0x3d5e1dfc	0.054227814
234	0x3d5accb4	0.053417876
235	0x3c5eb2e0	0.013592452
236	0xbcb16af0	-0.021657437
237	0x3cb5c138	0.02218686
238	0xbdf63434	-0.12021676
239	0x3da5d156	0.08096568
240	0x3d7a2b48	0.061076432
241	0xbd0e0020	-0.034668088
242	0x3dafe8d4	0.0858933
243	0x3dde15fa	0.108440354
244	0xbd9f4d8a	-0.07778461
245	0xbd7192c4	-0.058977857
246	0x3cdb6ec8	0.026786223
247	0xbdbb147e	-0.09134768
248	0xbdce6450	-0.10077727
249	0xbc168d00	-0.00918889
250	0xbdb9f834	-0.09080544
251	0x3d80df48	0.062925875
252	0xbd490d88	-0.04908517
253	0x3d899388	0.067175925
254	0x3c1b18c0	0.00946635
255	0x3da38e9c	0.07986185

fc3.bias f4 [32]
0	0xbd832d2d	-0.06405101
1	0xbda98b69	-0.082785435
2	0xbdca8268	-0.09888154
3	0xbdc21a02	-0.09477617
4	0xbdacb622	-0.084331766
5	0x3d7aa236	0.061189853
6	0x3c3a4617	0.01136925
7	0xbd59fa81	-0.053217415
8	0xbde9ee63	-0.11422422
9	0x3d89a89f	0.06721615
10	0x3d228064	0.039673224
11	0xbd81e94c	-0.06343326
12	0x3d9e44d6	0.07727973
13	0xbc8fdbdc	-0.017560892
14	0x3d48f921	0.049065713
15	0x3da9d233	0.082920454
16	0xbb704dbb	-0.0036667425
17	0xbde6e3cf	-0.1127392
18	0x3e1a8b7e	0.15092275
19	0xbd739a98	-0.059473604
20	0x3dd27ba3	0.10277488
21	0x3daa698c	0.08320913
22	0xbcfa76b2	-0.030574176
23	0xbd511d03	-0.05105306
24	0x3e02917b	0.12750809
25	0xbe036f4a	-0.12835422
26	0xbce7ff45	-0.028319964
27	0x3e0b5776	0.13607582
28	0xbcbf44cd	-0.023348236
29	0xbc41b397	-0.011822603
30	0x3d9eccdd	0.07753918
31	0xbd8776b9	-0.066144414

fc4.weight f4 [10, 32]
0	0xbd88de2f	-0.06683003
1	0x3d1a2ff2	0.03764338
2	0x3d8ecc6b	0.069725834
3	0x3e236567	0.1595665
4	0xbe3e5578	-0.18587291
5	0xbe56b13c	-0.20966047
6	0xbc9221ac	-0.017838322
7	0xbe27b76f	-0.16378568
8	0xbe28b3fb	-0.16474907
9	0x3d75ad26	0.05997958
10	0x3e309cc2	0.17247298
11	0x3bcef7b9	0.006316152
12	0x3e847785	0.25872436
13	0x3e5aec1f	0.21379136
14	0xbeae1bbe	-0.3400554
15	0xbbedc680	-0.007256329
16	0x3de38fd2	0.11111416
17	0x3d71c084	0.059021488
18	0xbd882ef7	-0.06649583
19	0x3e386023	0.18005423
20	0x3e7a9ea6	0.24474582
21	0xbe86395a	-0.2621563
22	0xbe3c968b	-0.18416803
23	0x3e78d367	0.24299394
24	0x3db21140	0.086946964
25	0x3de8ed7a	0.1137342
26	0x3e1ea649	0.1549312
27	0xbe67bf9b	-0.22631685
28	0x3e5b2e16	0.21404299
29	0xbde6d642	-0.11271335
30	0xbe57661a	-0.21035042
31	0xbe28b103	-0.16473775
32	0xbe82d178	-0.25550437
33	0x3d95b688	0.07310206
34	0xbe0980fe	-0.13428113
35	0xbcc8b798	-0.024501607
36	0xbe77d38d	-0.24201794
37	0x3c8d9285	0.01728178
38	0xbe9180e8	-0.2841866
39	0xbe305d27	-0.17223035
40	0x3d9a6277	0.07538312
41	0x3e5219cd	0.20517655
42	0xbea7ee32	-0.32798916
43	0x3e7ac605	0.24489601
44	0x3dc8de7a	0.09808059
45	0xbe006f24	-0.12542397
46	0x3ddc867b	0.107678376
47	0xbe4551fc	-0.19269556
48	0xbe3bc519	-0.18336906
49	0xbc25421d	-0.010086563
50	0x3e8ada53	0.27119693
51	0x3d7e47e4	0.06208028
52	0xbe2c7b40	-0.16843891
53	0x3d33e90a	0.043923415
54	0x3e29f5bc	0.16597646
55	0x3dbce244	0.09222844
56	0x3e8f0095	0.27930132
57	0xbc5f796e	-0.013639791
58	0xbe34d26c	-0.17658395
59	0xbde6ce6f	-0.11269843
60	0xbe61be36	-0.22045216
61	0xbdfaddb0	-0.12249315
62	0x3e670b02	0.22562793
63	0xbe318913	-0.17337446
64	0x3c5a2ea0	0.01331678
65	0x3e526f6d	0.20550318
66	0xbe111c92	-0.14171055
67	0xbdc75769	-0.09733469
68	0x3e26337b	0.16230576
69	0x3cc5c5a7	0.0241421
70	0xbe6c4a88	-0.23075306
71	0x3deedae2	0.11662842
72	0xbd8fa774	-0.07014361
73	0xbeb1a115	-0.34693208
74	0xbd3b3bc3	-0.04571129
75	0x3e74b162	0.23895791
76	0xbeb5eb4c	-0.3553108
77	0x3d926e97	0.071499996
78	0x3c80def4	0.015731312
79	0x3e278533	0.16359405
80	0x3db8609f	0.09002804
81	0xbd7fc42c	-0.062442943
82	0xbe18b361	-0.14912178
83	0x3e85bbfa	0.26119977
84	0xbe75d165	-0.24005659
85	0xbe1c2258	-0.15247476
86	0xbe6c1f6c	-0.23058861
87	0x3e53783a	0.20651332
88	0xbe4ba10c	-0.19885653
89	0xbd95ac45	-0.073082484
90	0xbe339e38	-0.17540824
91	0x3e462f91	0.19354083
92	0xbe37714d	-0.17914315
93	0x3e0b4300	0.13599777
94	0x3e4b2b49	0.1984073
95	0x3d67fe75	0.056639154
96	0xbe7333d8	-0.23750246
97	0x3d830785	0.063979186
98	0x3d9d3221	0.07675577
99	0x3d8fc712	0.070203915
100	0x3de8a5cb	0.113597475
101	0x3dc5ccf5	0.09658233
102	0x3df7a2ba	0.120915845
103	0x3e1a24e6	0.15053138
104	0x3e41ecef	0.18938039
105	0xbe9b74e4	-0.30362618
106	0xbe7e1dce	-0.24816057
107	0x3e200d0a	0.15629974
108	0xbe9fbf21	-0.31200507
109	0x3e7bfe20	0.2460866
110	0x3e3ed2f8	0.18635166
111	0x3da2f4b8	0.07956833
112	0xbe861629	-0.26188782
113	0x3d65f2ab	0.05613963
114	0xbe85ae25	-0.26109424
115	0xbd362ed8	-0.044478267
116	0x3e62807e	0.22119328
117	0x3e789503	0.24275593
118	0xbd17d281	-0.037065987
119	0xbe5670eb	-0.20941512
120	0xbdf3d565	-0.11905936
121	0xbe0470f7	-0.12933718
122	0xbbe436c6	-0.0069645373
123	0xbe6559c6	-0.22397527
124	0x3e16cc9b	0.14726488
125	0x3e393fd5	0.18090756
126	0xbe5db4de	-0.21651027
127	0xbdb5fe2b	-0.08886369
128	0x3de2aef3	0.11068525
129	0xbe95177c	-0.2911948
130	0xbdd597da	-0.10429354
131	0x3db6722a	0.08908494
132	0x3e6427bf	0.22280787
133	0xbe81347a	-0.2523535
134	0x3e3ed738	0.18636787
135	0xbddc5aad	-0.107594825
136	0x3cee0c71	0.029058667
137	0xbcb13f3b	-0.021636596
138	0x3d0eb97b	0.034844857
139	0xbe05ec41	-0.13078405
140	0xbe4c060a	-0.19924179
141	0xbe6e545a	-0.23274365
142	0x3c1a3ae6	0.009413457
143	0xbe7ec385	-0.24879272
144	0x3e90a0a6	0.28247565
145	0xbddee0a7	-0.10882693
146	0x3da83579	0.08213324
147	0xbe990cf0	-0.29892683
148	0xbea06dfd	-0.31333914
149	0x3d2f8730	0.042853534
150	0x3ce93b33	0.028470611
151	0xbeb43c8c	-0.35202444
152	0xbe4eeb64	-0.20206982
153	0xbdceaf01	-0.10091973
154	0x3de83cd6	0.113397285
155	0x3e59a3a6	0.21253833
156	0xbd318fac	-0.043349907
157	0x3e59ac59	0.21257152
158	0xbd491330	-0.049090564
159	0x3e04f9b0	0.12985873
160	0x3cb106e9	0.02160974
161	0xbe1947a2	-0.14968732
162	0x3e912ea4	0.28355896
163	0x3d54b8a8	0.051933914
164	0x3bc5f181	0.0060407524
165	0x3e47f10f	0.1952555
166	0xbdf83f96	-0.12121503
167	0x3cc1b4f6	0.02364586
168	0xbeb565be	-0.35429186
169	0xbe5d930f	-0.2163813
170	0x3e52ffd8	0.20605409
171	0xbe4b8e52	-0.1987851
172	0x3d93aaa5	0.07210282
173	0xbd93d807	-0.07218938
174	0xbdcdcace	-0.100484475
175	0x3d9f17d5	0.077682175
176	0x3e8739e8	0.26411366
177	0xbda19efe	-0.078916535
178	0xbe8de5b9	-0.27714327
179	0xbec30504	-0.38089764
180	0x3c95997d	0.018261665
181	0x3e47f5ac	0.1952731
182	0xbdbb4cff	-0.09145545
183	0xbeab0816	-0.33404607
184	0x3d96688d	0.0734416
185	0x3d4aa489	0.04947332
186	0x3e10c113	0.14136152
187	0xbb992a1a	-0.0046742084
188	0x3c151312	0.009098785
189	0x3d94b80f	0.07261669
190	0xbea40a21	-0.32038978
191	0x3e12b7a8	0.14327872
192	0x3e419a41	0.189065
193	0x3dfbc32f	0.12293088
194	0x3cd57499	0.026056575
195	0x3cf3cfe0	0.029762208
196	0xbe0ba055	-0.1363538
197	0xbd3efcae	-0.046627693
198	0xbe72a809	-0.23696913
199	0x3dc5c4e4	0.096566945
200	0xbdc1f489	-0.094704695
201	0x3e02300e	0.12713644
202	0x3e80e382	0.25173575
203	0xbd8f226d	-0.06988988
204	0xbcd63350	-0.026147515
205	0x3e617a2b	0.2201926
206	0x3e5db049	0.21649279
207	0xbd80d334	-0.06290284
208	0xbd5d0c9a	-0.053967096
209	0xbde82a0e	-0.11336146
210	0x3e99187b	0.2990149
211	0x3e211bc5	0.1573325
212	0x3d1eb191	0.03874356
213	0xbed977a5	-0.42474094
214	0xbd218c67	-0.03944054
215	0xbea8f16b	-0.32996687
216	0xbe6df2b3	-0.23237114
217	0xbe2ed2f4	-0.1707266
218	0xbdfa61ce	-0.12225686
219	0xbe5e0b14	-0.21683913
220	0x3cb735dc	0.02236455
221	0xbe87ccbe	-0.26523393
222	0x3e55921f	0.20856522
223	0x3c89f44a	0.016840119
224	0x3e2e846a	0.170427
225	0xbd97f04e	-0.07418881
226	0xbec88579	-0.39164332
227	0xbe1b9408	-0.15193188
228	0xbe48732c	-0.19575185
229	0xbe6b654f	-0.22987865
230	0x3cc720fc	0.02430772
231	0xbdb6afcd	-0.0892025
232	0xbe317bd5	-0.17332394
233	0x3e0e04a5	0.13868959
234	0x3e35562f	0.17708658
235	0x3ea711f5	0.32630888
236	0xbe8fb844	-0.2807027
237	0xbd664a1a	-0.056223013
238	0x3e32cd26	0.1746107
239	0x3e558c54	0.20854312
240	0x3d8e794b	0.069567285
241	0x3e274591	0.16335131
242	0xbea5fb02	-0.32418066
243	0x3e7a3ab9	0.24436463
244	0x3da88af8	0.08229631
245	0x3d6d3a6c	0.057917044
246	0x3e41c901	0.18924333
247	0x3ddb757f	0.1071577
248	0xbda5dcd6	-0.08098762
249	0xbe11a6dc	-0.14223808
250	0x3d0f5773	0.034995507
251	0x3d64de41	0.05587602
252	0xbed1eb33	-0.40999755
253	0x3d833c2d	0.06407962
254	0xbe62eb36	-0.22160038
255	0x3c4df8b0	0.012571499

fc4.bias f4 [10]
0	0xbe1595ef	-0.14607976
1	0x3e7adf14	0.2449916
2	0x3e05eb7a	0.13078108
3	0xbd2a2fbb	-0.041549426
4	0x3e5f2c3d	0.2179422
5	0x3e19e8ff	0.15030287
6	0x3d4b30b9	0.049607012
7	0x3d102651	0.03519279
8	0xbdd05ee0	-0.10174346
9	0x3ddab5cd	0.10679207
