mlops_project/models/checkpoint3.pth (torch, 446799 bytes, 8 tensors)

fc1.weight f4 [128, 784]
000000 a0 6e aa bc be c8 0b 3d 4a 7f 00 bd 25 ad 21 3c
       -0.020804703 0.03412699 -0.031371392 0.009867941
000010 b1 ce ee 3c 8a 7a 90 bc 9e 15 94 bc ae dd cb bb
       0.029151293 -0.017636556 -0.018076714 -0.0062214946
000020 3a e1 ea 3c d5 e3 8b 3c 21 c7 fe 3c 85 fa b7 bc
       0.02867185 0.017076412 0.031100811 -0.022458324
000030 07 93 9e bc 07 cd a9 3c 60 17 24 bc 30 9c 8c bc
       -0.019357217 0.020727647 -0.010015339 -0.01716432
000040 37 80 8d 3d 1c 67 01 bc 25 31 10 b9 4b 74 00 3d
       0.06909221 -0.007898118 -0.00013751218 0.031360906
000050 7c ca e4 3c 6a d8 35 3c e9 30 1b 3e 77 a8 94 3c
       0.027928583 0.01109896 0.15155376 0.018146737
000060 6a d8 0f 3c 07 fa d3 bc 8c c8 b2 bc 80 4a 8f 3b
       0.0087796245 -0.025876058 -0.021824144 0.0043728948
000070 5c fb b7 3c 93 02 f8 3c 01 44 e0 39 33 47 ff 3c
       0.022458725 0.030274665 0.00042775276 0.03116188
000080 65 c9 25 3c 8e 83 9f bc 41 71 6c bc 1c dd f7 bb
       0.010118817 -0.01947191 -0.014431299 -0.0075642
000090 ea 51 82 3c 0c 16 88 3c 8f 97 98 3d 25 e6 b2 3d
       0.0159082 0.016612075 0.074507825 0.08735303
0000a0 3a 95 9a 3d 9f da 8b 3d 02 30 f3 3d 7f d7 08 3e
       0.07547994 0.06828808 0.11874391 0.13363455
0000b0 0f 4d 78 3e 9c c3 8c 3d 0c d9 03 3e e2 57 ea 3d
       0.24248146 0.06873247 0.12875766 0.114425436
0000c0 9b b7 f1 3d 06 32 0b 3e 49 b9 08 3e 40 01 9e bb
       0.11802598 0.13593301 0.1335193 -0.0048219264
0000d0 53 04 ca 3c 37 a0 88 bb 6e 58 9e bc 73 e8 f5 3c
       0.024660265 -0.0041694897 -0.019329276 0.030018067
0000e0 c1 b4 d3 3c 28 80 11 3d 81 32 59 3b 77 ab 08 3c
       0.025843026 0.03552261 0.0033141675 0.008341662
0000f0 13 a1 52 bb f6 cf b2 bd 49 99 10 3b ec a9 ab ba
       -0.0032139465 -0.08731072 0.0022064021 -0.0013096905
000100 25 59 49 3d eb 1a 2e 3d e8 56 b7 bd 8d 51 3f 3d
       0.04915728 0.04250614 -0.08952123 0.046708632
000110 4a bd 78 3e 44 6b 4d 3e 40 69 18 3e 90 66 94 3e
       0.24290958 0.2006045 0.148839 0.289845
000120 6c 3f a3 3b ce a2 88 3c ec 06 bc bc 48 96 f6 3c
       0.0049819257 0.016679194 -0.02295252 0.030100957
000130 08 79 99 bc 04 94 37 bd 62 a1 a8 bd ea 4b bb bd
       -0.01873447 -0.044818893 -0.08233906 -0.09145339
000140 6c 04 0a bd 41 37 ea 3b 65 54 ce 3c 2e 13 be bb
       -0.033695623 0.0071477 0.025186727 -0.0058006262
000150 ba 59 02 bd 53 4c 19 bc 9c df f7 bc 4a 23 4c 3c
       -0.03182385 -0.009356576 -0.030257992 0.012459585
000160 21 ab 26 bd 49 47 65 3c 64 75 9b bb ec cd f0 3c
       -0.040690545 0.0139940465 -0.0047442187 0.029395066
000170 7d 12 ee 3d d1 15 7e 3d 3b 28 c3 bc 8c 20 1c 3c
       0.1162462 0.062032524 -0.023822894 0.009529244
000180 c1 8d d8 bc 89 45 25 bc 5f 0b 31 3d f3 d8 2c 3c
       -0.026434781 -0.010087379 0.043223735 0.010549772
000190 92 f2 94 bd fa 5b 22 3d ca f4 89 3d 2b 58 c1 3d
       -0.07272829 0.039638497 0.06736143 0.09440645
0001a0 35 1b e6 bd a4 60 98 be 70 bb 3c be 80 e5 b7 3d
       -0.11235658 -0.2976123 -0.18430877 0.089793205
0001b0 35 3f ab 3d 4a 52 4b bb ca fa c6 3c 41 d4 ea 3c
       0.08361665 -0.003102439 0.024289507 0.028665664
0001c0 93 23 6b 3c 25 a1 61 3c 5c 0f 67 3c 8c 5b 1c bd
       0.014351743 0.01377133 0.014102783 -0.038173243
0001d0 1f 89 59 bd bf 20 ee 3d d6 5f fa 3d 0e b6 9f 3e
       -0.053109284 0.116273396 0.122253105 0.31193584
0001e0 8f 1b 4e 3e 92 59 c5 3d e1 7a fc 3d e7 9f 14 3e
       0.201277 0.09636225 0.12328125 0.14514123
0001f0 93 27 03 3e a3 6f 01 3e 80 a2 20 3d eb 2b ee bc
       0.12808065 0.12640242 0.039217472 -0.029073676
000200 5e 77 0d 3d b2 ce 3b 3d f1 a4 d7 3d 6e b9 3f bc
       0.034537666 0.045851417 0.10529507 -0.011701925
000210 53 36 21 3d 4d 8d ed ba 22 e7 84 be 87 ca 88 bd
       0.03935845 -0.0018123776 -0.2595759 -0.06679254
000220 a7 bb 8f 3d e0 bd e4 3d d8 22 2b 3e d3 d8 b0 3b
       0.07018214 0.11169028 0.1671251 0.005396941
000230 1c 62 ce bb 37 d9 20 3c ae fe c9 3b 21 04 37 bc
       -0.0062983166 0.009817413 0.0061643934 -0.011170418
000240 7a 09 87 be 33 96 bc bd cd ea a3 bc be 75 db 3d
       -0.26374418 -0.09208336 -0.020009423 0.10715817
000250 44 f3 60 3e 4a cc 26 3e cf 4d 3c 3e 12 26 69 3e
       0.21967798 0.16288868 0.18389057 0.22768429
000260 8c e7 2d 3e 3b df a6 3d fa c7 cf 3b 4c ed 2c 3e
       0.1698286 0.081480466 0.0063409777 0.16887397
000270 c8 c1 52 3d 4d a3 48 bd 9e ea 98 3d cf a9 e5 3d
       0.051454335 -0.04898386 0.07466625 0.11214029
000280 8e cc 18 3d 71 96 c7 bd 6e 9c 34 be 30 0f ec bd
       0.037304454 -0.09745491 -0.17637798 -0.11526334
000290 36 e4 95 bc 0e b1 d9 3d 2f fa 4d 3e 9a a5 c7 bc
       -0.018297296 0.106294736 0.20114969 -0.024370957
0002a0 b7 cf 15 3a cb ac 08 3d b0 8b a4 bc 2a 31 17 be
       0.0005714851 0.033367913 -0.02008614 -0.14764848
0002b0 55 2d d0 3c f2 c9 25 3e 6b 2f 13 3e 70 33 09 3d
       0.025412241 0.16190317 0.14373557 0.03349632
0002c0 eb d3 df 3d 10 50 23 3e 2d 4c 3d 3d bc 33 71 3d
       0.10929092 0.1594851 0.046215225 0.05888723
0002d0 98 d2 91 3d a7 56 93 bd b1 48 0f be 61 17 a9 bd
       0.07120246 -0.07194262 -0.13992573 -0.08256412
0002e0 a9 f3 b9 bd 50 3e 8b 3d 16 c3 5e 3d 62 a6 39 3d
       -0.090796776 0.067989945 0.054385267 0.04532469
0002f0 36 6f dc 3d 78 59 eb 3a 98 20 69 be 45 f6 24 be
       0.10763399 0.0017955741 -0.2276634 -0.1610957
000300 67 ed 08 be e0 6b 7c 3b 86 54 89 3d 35 35 97 bc
       -0.13371812 0.0038516447 0.06705575 -0.018457988
000310 ae bd c6 bc c2 33 77 3d 79 8f c0 3d bc 54 1e 3d
       -0.024260368 0.060352094 0.09402365 0.038655028
000320 1a 1e c8 bd 72 fc 2a 3d 29 a1 4b 3e 27 aa c1 bd
       -0.097713664 0.041744657 0.19885696 -0.09456282
000330 85 18 16 3d 89 9e ed 3c 2d 03 1c 3d c8 31 9b bc
       0.036644477 0.02900626 0.038088966 -0.018944636
000340 29 01 9e bd b2 07 7f be cb 81 af be 0e 66 86 be
       -0.07715065 -0.2490528 -0.34278712 -0.26249737
000350 18 df 15 be 73 d1 13 3d 33 79 6c bd ab 3c 88 bd
       -0.14635885 0.03608842 -0.057732772 -0.066521965
000360 38 e4 a3 3c 8e 6e e7 bc 74 4e 54 be c8 78 eb bc
       0.020006284 -0.028250959 -0.20733052 -0.028744116
000370 18 4f 27 bd 49 6a 0b be 4c ce 12 3d d3 d3 be bc
       -0.040846914 -0.13614763 0.03584127 -0.023294365
000380 c1 8b c1 bc e5 7e d7 3d ce e5 45 3d c1 83 0c 3e
       -0.02362621 0.1052225 0.048314862 0.13722135
000390 6d d0 4e be 57 55 a9 bd ba a0 fa 3d 97 b6 48 be
       -0.20196696 -0.082682304 0.122376874 -0.19600902
0003a0 f4 ac 67 be 79 1e bf bd e7 c0 8d bd df 1d cd bd
       -0.2262457 -0.09331984 -0.06921559 -0.10015463
0003b0 c8 5a 3e be c5 5e 6c be 55 30 82 be 85 91 7a be
       -0.18589318 -0.23083027 -0.254275 -0.24469574
0003c0 18 71 90 3d 61 1b 8a 3d 0c 53 ba bd 63 23 89 bd
       0.07052821 0.06743503 -0.09097871 -0.066962026
0003d0 7b f2 10 3d 2c 50 66 bd 92 1b 0f be 02 d8 37 3d
       0.035387497 -0.0562288 -0.13975361 0.044883735
0003e0 2f 8b f7 3b 71 a7 c1 bd 93 96 45 3a 3c 84 fe bc
       0.007554434 -0.09455765 0.0007537391 -0.031068914
0003f0 0a 64 0b 3c 41 02 a7 3d a0 2b 9f bc 53 49 90 3d
       0.008507738 0.08154727 -0.019429982 0.070452355

fc1.bias f4 [128]
000000 4c 91 93 3d 3a e1 80 3b 64 de 23 bc 8a b1 e9 bc
       0.072054476 0.003933099 -0.0100017525 -0.02852704
000010 a7 5e a5 3d 6e 9c 0c be d8 25 76 bc 36 e6 a8 bd
       0.08074694 -0.13731548 -0.015023671 -0.08247034
000020 20 17 37 3d f1 b4 ea 3c 1b dd 09 3e 43 d7 00 3d
       0.044699788 0.028650733 0.13463251 0.03145529
000030 40 5a 13 3d b9 01 b7 bd 17 8f 98 bd 95 10 c2 bd
       0.03597474 -0.089358754 -0.07449167 -0.09475819
000040 72 a7 f3 ba 71 ab 91 bc 0e db 36 bd e9 e5 38 bd
       -0.0018589331 -0.017781945 -0.0446425 -0.045141134
000050 40 41 87 3c eb aa c7 bd d6 b9 1a bd 4c b4 aa 3d
       0.016510606 -0.09749397 -0.037774883 0.0833517
000060 10 d5 44 bd 8f 93 43 3d c3 e2 e9 3d c7 1d e5 bd
       -0.048054755 0.047748145 0.114202045 -0.1118732
000070 3e cf 98 bd 50 66 7f bd f9 8a 9e 3d 2a 75 89 3c
       -0.07461403 -0.062353432 0.07741351 0.016779501
000080 47 d1 9d 3d 1b 17 bf bc 9a 90 71 bd 1e 77 89 bd
       0.07705932 -0.023326447 -0.058975793 -0.06712173
000090 38 8a 0b 3e 28 a7 40 bd ef f4 bd 3c 61 b6 a4 3d
       0.13626945 -0.047034413 0.023188083 0.080425985
0000a0 d8 e7 12 bd 5f 99 7d bd 5c ca c1 3d 59 c0 86 3c
       -0.035865635 -0.061913844 0.09462425 0.01644914
0000b0 c0 09 94 bd a0 a8 4f be b1 d7 0a 3e 1e 99 7d bd
       -0.07228422 -0.20279169 0.13558842 -0.061913602
0000c0 83 8e 15 3d 08 98 ab bd 05 4d 0b 3c c1 bd 6e bd
       0.036512863 -0.08378607 0.00850225 -0.058286432
0000d0 96 90 d2 bc 8b 24 6d bd a2 3d bf 3c 8b ee da bd
       -0.02570371 -0.05789618 0.023344819 -0.1069003
0000e0 f8 54 ef bc 60 2a 04 3e c2 ab 5d bd e8 db a1 bc
       -0.029215321 0.1290679 -0.05411888 -0.01975818
0000f0 aa d2 96 bc 34 0f 6a bd 76 6c a0 3d a9 69 04 3e
       -0.018411 -0.057143405 0.07833187 0.12930931
000100 47 67 3f bc 93 1e cd 3d 6d 86 7c 3d d6 8d 13 be
       -0.011682338 0.10015597 0.061651636 -0.14409575
000110 d4 56 b0 bd 6f 0f 6f bd 16 76 7c 3d 34 3d 27 bd
       -0.08610311 -0.058364328 0.061636053 -0.040829852
000120 a6 8f 48 3b ab ee 97 bd c5 6f a6 bd fa f8 e5 3d
       0.00306032 -0.07418569 -0.08126787 0.11229129
000130 88 b8 17 be e5 7f 13 3d ef e7 1c bd 31 16 68 bd
       -0.14816487 0.03601064 -0.038307127 -0.05666179
000140 76 a2 93 3b c4 0f 16 3d 34 15 11 bd 38 e8 c6 bd
       0.004505451 0.03663613 -0.03542061 -0.09712261
000150 74 7e 5a be e9 0e 12 3c e3 58 25 3e 3b be 04 be
       -0.213373 0.008914688 0.16147189 -0.12963192
000160 a3 91 cb 3d f2 6c 35 3d 10 5d 51 be 14 e3 a3 bd
       0.099398874 0.04429335 -0.20445657 -0.08002296
000170 a3 e5 2a bd 62 ae 10 3d 5e 79 cd bc d2 8f a1 bd
       -0.041722905 0.035322554 -0.025082286 -0.0788876
000180 c3 0a c1 bc 05 86 7f 3d 2b 18 7d 3d ec 7e 30 be
       -0.023564702 0.06238367 0.061790626 -0.17235917
000190 9d c0 7b bd 07 81 a2 3d 23 3e 92 ba 1c c7 62 bd
       -0.061462987 0.07934766 -0.0011157434 -0.055365667
0001a0 2f d9 72 bd c0 b6 12 bd 18 e4 a5 bd 12 20 30 be
       -0.059289154 -0.035818815 -0.08100146 -0.17199734
0001b0 ea 8a 97 bd d8 42 72 bd 34 86 6d 3d 47 fd 10 bd
       -0.07399543 -0.05914578 0.057989314 -0.035397794
0001c0 c0 04 17 ba 4e 49 0c bd 8a 0a 19 be 82 85 a2 bd
       -0.00057609007 -0.034249596 -0.14945427 -0.07935621
0001d0 a4 fb c9 3c df 53 24 be 6f b1 a8 bd 9a e2 23 3e
       0.024656124 -0.1604762 -0.08236968 0.1600441
0001e0 cf 38 8f bc fe 64 48 bd e4 f2 36 be fd d3 a8 bd
       -0.017483143 -0.04892444 -0.17866093 -0.082435586
0001f0 70 8c 5d bd 74 78 ce 3d 70 e4 38 be 1b 1b c0 bd
       -0.05408901 0.10081568 -0.18055892 -0.0938017

fc2.weight f4 [64, 128]
000000 4a ca 08 3e aa ea 2a 3e 1d 6f 96 3d a7 96 ce be
       0.13358417 0.1669108 0.07345412 -0.40349314
000010 0c 7f 68 be b8 1f db bd 5a aa b3 3e cc cb 53 bd
       -0.22704715 -0.10699409 0.35090905 -0.051708028
000020 55 1d 54 3d 91 a9 3c 3c a6 a9 ce bd ca 8e 16 3e
       0.051785786 0.011515037 -0.100909516 0.14702907
000030 d8 4e 6f bd ef 86 c2 bb 77 ab 1b be 22 0c e8 bd
       -0.0584248 -0.0059364955 -0.15202127 -0.11330439
000040 e1 5d d1 bd 46 92 09 3b d4 e9 01 3e 9b c1 01 be
       -0.10222984 0.0020991727 0.12686855 -0.12671511
000050 63 71 8d 3c 1f 3d f7 3d b2 56 3a bd a9 3e ab 3c
       0.017265981 0.12072205 -0.045492835 0.020903902
000060 5e de 03 be d1 3c 34 3e 8e 27 f8 3c 22 3e 73 bd
       -0.12877795 0.17601325 0.030292299 -0.059385426
000070 07 39 67 bc 82 29 19 3e f0 26 92 bc 65 22 33 3e
       -0.0141127175 0.1495724 -0.017840832 0.17493589
000080 7f c5 2b 3e 31 4e 86 3d a5 6e 3d 3d c5 2d ca bd
       0.16774558 0.065578826 0.046248097 -0.09872011
000090 0d 15 34 3e c3 a8 03 bd 0e f1 5d 3d 6e ef 2d 3e
       0.17586155 -0.032143366 0.054184966 0.16985866
0000a0 b5 c6 e4 3d 12 fe 58 be 30 e8 e7 3d cb e2 c5 3c
       0.11170713 -0.2119067 0.11323583 0.024155995
0000b0 79 7b d3 bd 33 6b 38 bc 3c 74 db 3d 72 34 5b 3e
       -0.10326285 -0.011256027 0.10715529 0.21406725
0000c0 38 b1 b1 bd 71 25 f6 3d a1 de 0a 3d df e3 fe bd
       -0.0867638 0.1201886 0.03390372 -0.12445807
0000d0 24 6a 78 bd da d6 e2 bd 43 74 40 3c 1c 2f d7 3d
       -0.0606481 -0.11076136 0.011746469 0.10507032
0000e0 b4 b6 4c 3c d2 75 08 bd 3d 63 d2 bc 67 e6 96 bc
       0.012494732 -0.033315487 -0.025682086 -0.018420411
0000f0 e6 fa a5 bd f6 31 63 bd b3 0c 9e 3d b3 59 3d 3e
       -0.08104496 -0.05546757 0.07717266 0.18491249
000100 ce a9 2e 3e 2c 9b 91 3e ed 94 05 bb 5b 94 45 3d
       0.17056963 0.284387 -0.0020382956 0.048237186
000110 53 83 49 3e 08 f6 87 bc d9 27 32 3e d2 2b 94 3d
       0.19679002 -0.016596809 0.17398013 0.072349206
000120 c1 3c 33 3f 46 f8 46 3c 45 85 5b 3d 79 3c 16 3f
       0.7001458 0.012144154 0.053593893 0.58686024
000130 40 e4 5f be bd ad 0e be 9b 73 26 3e 02 bb 01 3e
       -0.21864414 -0.13933463 0.16255037 0.12668994
000140 16 4a 41 3d 72 dc 1f be 74 bd b1 bd eb 40 11 bc
       0.047189794 -0.15611437 -0.086787134 -0.008865575
000150 01 62 1f bd a5 0b 0e 3e ec 86 60 3d 0e f7 d1 be
       -0.038911823 0.1387163 0.05481617 -0.410088
000160 51 a8 2c bd 5b 94 bf 3e b3 54 80 bd 29 19 98 3d
       -0.042152707 0.37417874 -0.06266155 0.07426674
000170 10 56 52 3c 98 d0 8c 3d e7 7c 3d be 20 0e 09 3e
       0.012837902 0.068757236 -0.18504678 0.13384295
000180 bc 98 96 be 96 4f 50 bd ee 0c 3d 3e 71 2c b7 bd
       -0.29413402 -0.05085715 0.18461964 -0.089440234
000190 6f 10 5d 3c 7a 1f 96 bd 31 3b 8e bd ef 1d 15 3e
       0.013492688 -0.073302224 -0.069448836 0.145622
0001a0 3e 00 8c 3c 84 9f 9f bc b9 0a 19 be 8a ac 18 3d
       0.01708996 -0.019485243 -0.14945497 0.03727392
0001b0 b5 4b 41 3d 62 14 c3 3e 6f 8a 9a be f9 6e 66 bc
       0.04719134 0.38101488 -0.3018374 -0.014064544
0001c0 27 35 2e 3e 24 83 72 3e 49 1c 6f be fc f8 0b 3d
       0.17012464 0.23682839 -0.23350634 0.034172997
0001d0 8b 31 20 be f5 50 45 be 7c b7 6b 3c 38 d4 b4 bd
       -0.15643899 -0.19269164 0.014387008 -0.0882954
0001e0 78 b2 f1 bc dd 4d 91 3c 9f 49 bd bd 2b d1 27 be
       -0.029504046 0.017737323 -0.09242558 -0.16388385
0001f0 b8 bb 83 bd a3 51 7c 3e 9c ec 8f 3d 91 f1 81 bc
       -0.06432289 0.24640517 0.070275515 -0.015862258
000200 d9 be 47 bd 36 21 8d 3d a2 74 3e be 2e 4a af be
       -0.04876599 0.068911 -0.1859918 -0.34236282
000210 f5 81 22 bf d7 44 7e be 6f f2 aa 3e 48 b3 9a be
       -0.6347955 -0.24830948 0.33388087 -0.30214906
000220 60 2a 64 bd e1 d3 e9 bd 0a bb f2 be 57 e6 5f 3b
       -0.055704474 -0.11417366 -0.47408324 0.0034164393
000230 81 bb 79 3d 12 02 04 bc 2e c0 c2 3c f3 5b 85 bc
       0.060969833 -0.008057134 0.023773279 -0.016279196
000240 54 c1 72 3c 90 64 a9 3d 54 cd 27 bc 15 7f 1b bc
       0.014816601 0.08271134 -0.010241825 -0.009490748
000250 11 57 25 3d 85 f5 89 3d 38 68 d9 bc ec b2 58 be
       0.040366236 0.06736282 -0.026538953 -0.21162003
000260 dc 86 62 3a 05 c4 36 bd a8 1a a6 3d 5e 5b 84 3d
       0.00086413114 -0.044620533 0.08110553 0.064627394
000270 00 77 ff bd 5c 9e 82 3c 58 69 e8 3e c5 2a cc 3c
       -0.12473869 0.015944652 0.4539287 0.024922738
000280 f7 69 e5 3d e9 9e 94 3a 2d 54 2b 3d 85 d3 c8 3d
       0.11201852 0.0011338863 0.041828323 0.09805969
000290 34 22 a5 bd 46 ab 11 be 52 33 4f 3d d7 9a f2 3d
       -0.08063164 -0.14225492 0.050586052 0.118459396
0002a0 64 b4 a7 bd 03 d9 b6 bd 23 13 0a bf 13 8c 3e bd
       -0.08188704 -0.089281105 -0.5393545 -0.046520304
0002b0 c2 77 5f 3c 28 b3 3f bd ca c7 e4 3d 8b c2 c9 be
       0.013639392 -0.046801716 0.11170919 -0.39406237
0002c0 ae 75 a0 be 6a 2c 62 bc c0 ba ed 3c b2 48 4b be
       -0.31339782 -0.013804534 0.029019713 -0.1985195
0002d0 ef 0a 1d bb 06 a8 98 bd 42 ef 8c 3c 44 47 95 bd
       -0.0023962816 -0.07453923 0.01720393 -0.072889835
0002e0 2c b2 c6 3d eb ae 9e be f3 7a d9 3c ba 8a 3b bd
       0.09701952 -0.30992827 0.026547885 -0.045786597
0002f0 ad c2 2e 3d be 90 75 bc 04 dd ac bc 14 8e 1a bd
       0.042666126 -0.0149881225 -0.021101482 -0.037733153
000300 e0 2e da be bc e6 2c 3e 67 0d cb be 52 38 2b be
       -0.42613888 0.16884893 -0.39658663 -0.16720703
000310 5c 87 c0 3e 82 fb 90 3d 5e ed 57 be 30 42 4c bd
       0.3760327 0.07079221 -0.21086642 -0.04986781
000320 0c 20 08 3f a4 78 0e 3e f6 2c 63 3c 9e 7f 8b 3e
       0.531739 0.13913208 0.0138657 0.27245802
000330 84 dd 59 bd 8e 76 0a bd 85 86 3d 3d c6 f7 0f 3e
       -0.05318977 -0.03380447 0.046270866 0.14059362
000340 30 7d 1a bd 86 f1 50 3e ca 4c 6b be 59 2e c4 3d
       -0.037717044 0.20404634 -0.22978511 0.095791526
000350 43 63 f1 bd eb 33 b1 bc 6b 94 0d be d5 0e 74 be
       -0.11786511 -0.021631202 -0.13826148 -0.23833783
000360 88 16 d6 be 77 bd dc 3d eb 31 73 3d d7 07 d8 bd
       -0.41814065 0.10778325 0.059373777 -0.1054837
000370 95 2d df bd 1a 3a 3c be c5 fc 17 3e a2 20 61 3e
       -0.10897366 -0.18381539 0.14842518 0.21985105
000380 8f 51 83 be 07 07 e1 3c 66 ba 26 be b9 22 25 be
       -0.25648162 0.027469171 -0.16282043 -0.16126527
000390 3d 84 83 bd c6 10 94 bd bd 04 25 be 98 3f c7 bb
       -0.06421707 -0.07229762 -0.16115089 -0.006080579
0003a0 e0 d1 0b 3e 01 74 0c 3d cd 39 a6 bd 74 c9 fc bd
       0.1365428 0.034290317 -0.081164934 -0.12343112
0003b0 18 17 91 bd b4 d7 e5 3d 46 c9 c7 3d ed f3 aa bc
       -0.07084483 0.11222783 0.09755187 -0.020868266
0003c0 61 0c 4f bd bd 49 bc bd 1a e4 c7 bd c0 d1 76 be
       -0.050548915 -0.09193752 -0.09760304 -0.24103451
0003d0 9a 08 72 3d 35 c0 5a 3d 7c 92 2a bc b4 7d b8 3e
       0.059090234 0.05340596 -0.010410901 0.36033404
0003e0 95 8b f4 bd be 2c 12 be 4a f8 17 3c 18 0b 59 be
       -0.11940686 -0.1427488 0.009275505 -0.21195638
0003f0 e8 db 30 3b 3c 81 0e bf a4 e0 87 be 27 11 00 3e
       0.0026986543 -0.55665946 -0.26538575 0.12506543

fc2.bias f4 [64]
000000 3f 2b 41 3e e0 b6 0f 3c 42 23 c3 3d 48 b6 71 bc
       0.18864153 0.008771628 0.09528209 -0.014752932
000010 38 48 f1 bd 6e 9e bd 3d a4 fd bb bd 4c cc 96 bc
       -0.11781353 0.09258734 -0.091792375 -0.018407963
000020 d0 7f 2d 3e cb 93 18 3e 51 2a ac bd f7 2a cf bd
       0.16943288 0.14900129 -0.08406509 -0.10115617
000030 3e c8 ef 3d 03 f3 38 3e 0a c9 08 bd 31 77 6c 3c
       0.11708115 0.18061452 -0.03339485 0.014432714
000040 fe 38 6b 3d 2d 02 37 be aa 93 20 be 17 6d 6e be
       0.0574274 -0.17871924 -0.1568133 -0.23283802
000050 8a 0f 03 be e0 da e9 bc 15 73 55 bd e1 0a ee bc
       -0.12798896 -0.02854675 -0.052111704 -0.029057922
000060 b4 8f 1e bb 7d 0d 1f 3d 86 00 75 3d 80 45 17 be
       -0.002419454 0.038831223 0.059814952 -0.14772606
000070 fc 71 bf bd f9 10 d8 3d eb cc 5e bd a0 14 8b 3c
       -0.09347913 0.10550112 -0.054394644 0.016977608
000080 26 d8 91 3c 52 a2 c9 bd 41 31 6c bd d5 56 60 3c
       0.017803263 -0.09845413 -0.05766416 0.013692577
000090 a6 e9 f0 bb 99 3a 2f bd 10 9f 85 3d 43 67 cb bc
       -0.007352072 -0.042780492 0.065244794 -0.024829512
0000a0 f4 4c cc bd 2a 97 16 3d c9 83 83 bb 0f 1f 07 3d
       -0.09975615 0.036765255 -0.0040135127 0.032988604
0000b0 e6 5c 9c 3d 04 d1 f2 3b ab 6c 1a be b9 e6 06 be
       0.076349065 0.0074101705 -0.15080516 -0.13173951
0000c0 2a f5 07 3e 5b 5d 89 bc c7 2d 54 bd 4f 44 1a 3e
       0.13277116 -0.016768148 -0.05180147 0.1506512
0000d0 40 48 4c 3d a6 c1 18 be 64 f2 36 be 3b 05 a8 bd
       0.04987359 -0.14917621 -0.17865902 -0.08204123
0000e0 fa 90 95 bd 43 f4 47 bd 84 dd 7e be 4d 3d 20 bd
       -0.07303043 -0.04881693 -0.24889189 -0.03912096
0000f0 c2 c8 05 be 92 7d 07 3e ba 92 f4 3d df d3 5a be
       -0.13064864 0.13231495 0.11942048 -0.21369885

fc3.weight f4 [32, 64]
000000 e0 14 85 3c 0a 20 11 3d ed e6 09 be 3c c7 ef 3c
       0.016245306 0.035430945 -0.13466997 0.029269807
000010 d8 ef b8 3c 9b 74 16 3e d2 34 9c bc a4 e2 20 3e
       0.022575304 0.14692919 -0.019068155 0.15711457
000020 d0 bf d6 bd 3b d3 8a be 36 45 41 3d 78 f4 19 3d
       -0.10485804 -0.2711428 0.047185145 0.03758666
000030 0f cd 9b bd b8 fb 14 3e 0b 80 f4 bc 69 b3 9b be
       -0.07607471 0.14549148 -0.029846212 -0.30410317
000040 3a 88 0e be f3 17 05 3e fc 5b 4e 3e 59 64 af 3e
       -0.13919154 0.12997417 0.20152277 0.34256247
000050 eb 98 41 bc 64 c1 f6 3e 7e 41 cb bd c0 ef 22 3d
       -0.011816244 0.4819442 -0.09924601 0.039779425
000060 e6 f9 69 3d 93 88 c0 3d fd f9 83 3d bb d8 ad bd
       0.057123087 0.094010495 0.06444166 -0.08488604
000070 b9 bd 52 3d 17 42 26 be 9e ef 1b be f2 21 3a be
       0.051450465 -0.16236149 -0.15228125 -0.18177012
000080 20 dc 80 3d 4a 56 9a bd e9 62 e7 3d fd 13 bd bc
       0.062919855 -0.075359896 0.112981625 -0.02308082
000090 f8 b7 9f 3d 52 3d 89 3d ec 93 6d 3d 7f 81 d0 bd
       0.07798761 0.06701149 0.058002397 -0.101809494
0000a0 48 4d 3b 3e 45 f8 c1 3d 12 1c 02 be a5 ad 4c 3e
       0.18291199 0.09471182 -0.1270602 0.19988115
0000b0 d5 fa 3c 3e f0 be c6 3d b3 a3 55 bc db b8 aa be
       0.1845506 0.09704387 -0.013039517 -0.3334416
0000c0 50 ff ac bc a2 7f e8 3d f4 8a 34 3e 20 af d8 3d
       -0.021117836 0.11352469 0.17631131 0.105802774
0000d0 59 c4 a4 bd ca a8 ae 3d 15 13 cd 3e c5 82 04 bd
       -0.08045263 0.08528288 0.4005362 -0.032351274
0000e0 c0 27 d3 3d e8 ea fc bb 9b c7 84 3e 45 78 ce 3d
       0.10310316 -0.0077184327 0.25933537 0.10081533
0000f0 85 e6 3a bd 3a 12 a1 3e 94 80 71 bd 0c 5e 45 bd
       -0.045629997 0.31459218 -0.058960512 -0.048185393
000100 e9 2a 4f bd 84 98 14 be be b5 f7 bc 02 d3 39 be
       -0.05057803 -0.14511305 -0.030238029 -0.181469
000110 d3 ab 6a 3d 81 11 70 be e9 92 f6 bd 1f ef bf 3d
       0.05729277 -0.23444177 -0.1203974 0.093717806
000120 e4 5d e5 3d 6e ca 48 3e 65 84 93 be 12 7e 03 bd
       0.11199549 0.19608471 -0.28811947 -0.032102652
000130 58 fc bc 3d 77 80 a9 be 8f 43 44 3d e5 81 36 3e
       0.09227818 -0.33105823 0.04791599 0.17822988
000140 6e 77 1d bd 34 df af 3c cb 44 c5 3d 36 47 71 bc
       -0.038443975 0.021468736 0.09632262 -0.014726451
000150 5d f6 0b 3e e2 33 35 be 69 49 23 3d 1e 1d ae 3c
       0.13668199 -0.17695573 0.03986493 0.021254119
000160 6a 63 b4 3d a0 47 28 be de aa c4 3c c2 16 0d 3c
       0.08808024 -0.16433573 0.024007257 0.008611383
000170 5d 63 0d be f3 33 79 be a6 c0 7e 3e 7e 2d 20 bd
       -0.13807435 -0.24336223 0.24878177 -0.039105885
000180 b0 e8 56 be 20 1a 26 3e 3c ae b2 bd 51 dd 16 3e
       -0.209872 0.16220903 -0.08724639 0.14732863
000190 4c d0 1f 3d 62 dd 22 3d 22 d6 1b be e0 1a f6 bd
       0.039017007 0.03976191 -0.15218404 -0.12016845
0001a0 51 30 72 bc 0f 6e d9 bd cb ca ce 3d a4 7a 3a 3e
       -0.014782027 -0.10616695 0.100972734 0.18210846
0001b0 5a 56 1a 3e 56 af 80 3d a4 1a af 3b 0b 0d f5 bd
       0.15072003 0.06283443 0.005343752 -0.119653784
0001c0 ca 6a 94 be 1a a4 ba 3e 68 09 9e 3d 92 cf 62 bc
       -0.28987724 0.36453325 0.07716638 -0.013843434
0001d0 3f 34 d6 ba a0 42 a5 bc 28 02 0c 3d f3 37 fc bd
       -0.0016342475 -0.02017337 0.034181744 -0.12315359
0001e0 d2 8d 50 be 56 2d 3d 3e b5 0e 8d bb 5a 68 b1 be
       -0.203666 0.18474326 -0.0043047317 -0.34649926
0001f0 d6 4c b9 3d 8a 69 80 be 8f 49 66 3d 64 75 e5 3d
       0.090478584 -0.2508052 0.056222495 0.11204031
000200 70 00 e6 3d f6 77 32 bc 98 03 ea 3d ea 0b a3 3c
       0.11230552 -0.010892859 0.11426467 0.019903142
000210 8a 37 0c 3c af 29 2d bc 79 58 92 3e 24 08 e9 3c
       0.008558163 -0.01056902 0.28583124 0.028446265
000220 f7 71 90 3d d9 17 06 3e 3d 19 37 bd 93 0a 40 3d
       0.07052987 0.13095035 -0.044701803 0.046885084
000230 fb ff 2a 3e 87 f0 96 3c 76 e2 95 3d 22 15 8b bd
       0.16699211 0.01842524 0.073185846 -0.0679114
000240 4f ad 34 3e cd 62 f1 3c df 85 bf 3a 7f 0d 28 3e
       0.17644237 0.029466057 0.001461204 0.16411398
000250 e8 f4 d2 bd a0 a6 a7 bd c7 c9 09 3d 4a 68 3e be
       -0.103006184 -0.08186078 0.033639695 -0.1859447
000260 24 75 18 be 02 83 85 3b d2 09 2a 3e 3c d4 0a be
       -0.14888436 0.0040744552 0.16605309 -0.13557523
000270 3d b9 c4 3d 0f 7f a8 3d 52 67 4b be ac 53 1a 3e
       0.09605644 0.082273595 -0.19863632 0.15070981
000280 c4 c0 75 3e 44 7e 91 3d 98 30 1c bd 5b 06 1c 3e
       0.23999316 0.071041614 -0.03813228 0.152368
000290 a8 b2 d2 3d 15 39 fa 3d bc b3 06 be 7e 21 3a 3e
       0.10287982 0.12217919 -0.131545 0.18176839
0002a0 18 22 13 bc bb dd 43 3e d3 76 06 be 3d 0e ed bd
       -0.008980297 0.19127552 -0.13131265 -0.11574981
0002b0 5d d4 08 be 17 73 04 be cb c9 e1 3c 40 e6 87 bc
       -0.1336226 -0.12934528 0.027562043 -0.016589284
0002c0 00 70 22 3e 2d 50 14 bd 3e 45 a0 bd 1b 05 ce 3d
       0.15863037 -0.036209274 -0.07825707 0.100595675
0002d0 17 e4 2c 3e ad 59 90 3c c6 33 d2 bd 64 45 d0 bd
       0.16883884 0.017620886 -0.10263781 -0.10169485
0002e0 fc 43 76 3d b1 82 cb 3d 56 b4 3a be ce e2 b0 bd
       0.06012343 0.09937037 -0.18232855 -0.086370096
0002f0 cc c7 af 3c 36 6d b6 3d 48 ce 99 bc f0 ba d2 bd
       0.021457575 0.08907549 -0.01877512 -0.10289562
000300 0a 3c da 3d b6 3a e3 bc ab 52 8b 3c 4f 11 73 bd
       0.10655983 -0.027737956 0.017007193 -0.05934268
000310 e5 dc 67 bd ea 76 84 be 2b 5b 09 3e 92 02 a2 3d
       -0.056607146 -0.25871974 0.13413684 0.079106465
000320 16 02 92 3d 7e 43 11 3e f8 5f 9d 3c 57 f2 0c 3e
       0.07129304 0.14185902 0.0192108 0.1376432
000330 d9 14 e9 3d 55 7d d1 be d1 c2 04 be 82 ed e9 bc
       0.113809295 -0.40915933 -0.12964942 -0.028555635
000340 8b 1f 5c be 7f 8e a0 bd b9 c7 e7 3b d3 14 ad 3e
       -0.21496408 -0.07839679 0.0070733693 0.3380495
000350 b7 89 08 3e 90 c8 38 be cb af 9c 3c cc 4a 0f be
       0.13333784 -0.18045259 0.019126793 -0.13993376
000360 3a 71 fd bc 50 02 83 bd 81 18 5b 3d ef b0 46 bd
       -0.03093778 -0.063969254 0.053490166 -0.04850858
000370 8e f6 3d ba f0 12 17 3e 9b 6f d6 3b e3 a4 92 3d
       -0.00072465173 0.14753318 0.006544066 0.07160356
000380 56 4d bf bd 35 59 4d 3e d4 d2 cf bd fd 9f 5a 3d
       -0.093409225 0.20053561 -0.10147634 0.053375233
000390 95 f8 27 bd 60 cd c5 bd 93 a6 51 3c c9 e5 90 be
       -0.04100855 -0.09658313 0.012796062 -0.28300312
0003a0 33 43 f7 3b 5c b2 f0 bd 77 d9 6b be ea a7 9e bd
       0.0075458526 -0.11752769 -0.23032175 -0.07746871
0003b0 52 4b 00 3d c0 3b 27 3e 40 31 5e be e4 2b e8 bd
       0.03132183 0.16331387 -0.21698475 -0.113364965
0003c0 48 c1 81 bd 59 3d 1d bc ed 00 46 be a5 46 e2 3d
       -0.063356936 -0.009597146 -0.1933629 0.110486306
0003d0 1b 76 0a 3d 79 84 8c 3b 79 99 7b 3c e2 45 5d 3e
       0.03380404 0.004288253 0.015356415 0.2160869
0003e0 c6 10 84 bc 0a 86 19 bd f2 92 90 bd 1f 0c d8 3e
       -0.01612128 -0.037481345 -0.070592776 0.42196748
0003f0 51 86 0d be 40 ec f5 bd 41 7b 16 3e 0a 21 ef 3d
       -0.13820769 -0.12007952 0.14695455 0.116762236

fc3.bias f4 [32]
000000 42 15 1c 3e 30 55 f6 3c f3 08 33 3e 3f 4c 4a 3d
       0.15242484 0.030069917 0.17483883 0.04938912
000010 db 69 32 be a3 01 5c 3e 6c 07 a5 3d 19 d9 86 bd
       -0.17423193 0.21485 0.08058056 -0.06584377
000020 49 1c 3e bc 73 f4 66 3e 44 02 41 3c 2e ce ec 3d
       -0.011603423 0.22554187 0.011780325 0.11562763
000030 95 81 46 3e b2 74 67 3d cd 1c c4 bb 88 3a 10 be
       0.19385369 0.056507774 -0.0059848786 -0.14084828
000040 d9 cf aa 3b 80 f7 be 3d f1 1a 2e 3e 4c 29 fd 3b
       0.0052127657 0.09324551 0.17002465 0.0077258702
000050 25 5a 21 3e fe ac 48 3e 9e 66 54 3e 6a af 09 3e
       0.15757044 0.19597241 0.2074227 0.13445821
000060 82 47 e8 bc dc 4c 93 bd 6a 29 d1 bd 39 ff 43 bc
       -0.02835441 -0.07192394 -0.10212977 -0.011962705
000070 55 6c 88 bb 1f 33 ac 3d 4b 49 2b be 87 b2 89 bd
       -0.004163305 0.08408188 -0.16727178 -0.067235045

fc4.weight f4 [10, 32]
000000 11 25 e2 3d f8 b0 64 bd 22 7b 11 be 31 00 ca 3d
       0.11042226 -0.055832833 -0.14207128 0.09863318
000010 56 0a 14 3d c1 02 21 be 72 15 cd 3d b6 ce e6 3d
       0.03614267 -0.15723707 0.10013856 0.11269896
000020 97 13 61 3d 35 33 41 be 6a 98 9c 3d 08 14 46 be
       0.054950323 -0.1886719 0.07646258 -0.19343579
000030 56 25 a6 be d4 53 90 bd 4a b3 72 bd 46 69 fb 3d
       -0.3245036 -0.07047239 -0.059253015 0.12275939
000040 6c 2b 81 3e ae 44 bf bc de 38 e3 bc f4 52 25 3d
       0.2522844 -0.023348179 -0.027737077 0.040362313
000050 97 9a b1 be f7 a7 c5 be 35 9f 85 be cf a7 4b be
       -0.34688255 -0.3860471 -0.26098028 -0.19888233
000060 f9 6e 8d 3e 70 5a 18 bd 69 15 06 be 53 d0 06 be
       0.27623728 -0.037195623 -0.13094105 -0.13165407
000070 05 c9 ec 3d eb 2d 8c be 24 33 65 bd ea 2b 04 be
       0.11561779 -0.27378783 -0.055956975 -0.12907377
000080 aa 95 81 be 78 c5 89 3d 0a 1b 44 3e e0 b0 5e 3d
       -0.25309497 0.06727117 0.1915094 0.0543679
000090 ea 52 a9 38 07 f3 88 be b2 00 9c be fb ee 1b be
       8.073992e-05 -0.26747915 -0.3046928 -0.15227883
0000a0 9c 52 0c bd 00 dc 1e 3e 03 e7 1d 3e 07 8e 13 3b
       -0.03425847 0.15513611 0.15420155 0.0022515075
0000b0 5f ac a9 bd 92 4c 70 be 91 b2 97 3d 6b 8d 16 be
       -0.0828483 -0.2346671 0.07407106 -0.14702384
0000c0 44 ff de bd 25 83 68 bd c2 19 ca bd 07 83 a3 bd
       -0.10888532 -0.056765694 -0.09868194 -0.07983976
0000d0 88 28 3a 3e 24 db 16 3e 4b 5a 91 be e9 a7 5e 3e
       0.18179524 0.14732033 -0.283892 0.2174374
0000e0 fe be 15 be d2 b3 f2 bd 7a 60 6c 3d c9 6a 2b be
       -0.14623639 -0.11850704 0.057709195 -0.16739954
0000f0 30 fa b9 bd 2c a2 5e 3e 90 bb c9 be 4f 79 16 bc
       -0.090809226 0.21741551 -0.3940091 -0.009184196
000100 5b d2 b6 be 3f 25 e5 3c c1 06 75 3e 4b c5 62 3e
       -0.35707363 0.027971862 0.23928358 0.22145574
000110 e5 04 09 be 7e d2 a6 3d 95 ac 89 3e f4 09 5b 3e
       -0.13380773 0.08145617 0.26889482 0.21390516
000120 af 64 f3 3d 7a a3 e4 3b 06 20 da bc 9e be c1 bc
       0.11884438 0.0069774957 -0.026626598 -0.023650464
000130 93 ca 30 3e 93 ab 86 be fd c1 6b 3c 6d 88 48 3d
       0.17264776 -0.26302776 0.014389512 0.04895823
000140 57 f0 e1 3d fa 6c 2e 3e 55 19 a2 be 0f 48 3a bd
       0.11032169 0.17033759 -0.31659952 -0.045478877
000150 f2 71 b4 bd 3a b3 8e bd c3 91 22 be 09 ab 2e bd
       -0.08810796 -0.069677785 -0.15875916 -0.04264358
000160 3f c4 e6 bd 77 52 bc bc cc 4a cc bd 97 c0 05 bd
       -0.112679 -0.022988541 -0.09975204 -0.03265437
000170 47 00 b3 3c 2c 87 e8 bc b0 58 85 be f2 be 0a 3d
       0.021850718 -0.028384767 -0.26044226 0.033873506
000180 a8 19 6a bd 28 e9 e6 bd 4e bb ab 3d da 19 cf 3d
       -0.057153374 -0.1127494 0.08385335 0.10112353
000190 cc 24 5b be 37 e2 c3 bd f3 91 21 3e 85 50 de bd
       -0.21400756 -0.095646314 0.15778331 -0.10855202
0001a0 5c cf 54 3c 6e 65 9d be 2c 5f 87 bd 52 6e 80 3e
       0.012988891 -0.30741447 -0.066099495 0.25084168
0001b0 90 d1 4e 3d b3 ce f2 3d eb a5 f9 3d 13 89 90 3d
       0.050492823 0.11855831 0.121898495 0.07057395
0001c0 d8 32 0d be 54 50 8e 3d 1f bb c7 bd 47 fe 97 3d
       -0.13788927 0.06948915 -0.097524874 0.074215464
0001d0 4a a6 b5 3d db 64 c3 3d 84 b5 f6 3d 71 cb 30 be
       0.08869608 0.09540721 0.1204634 -0.17265107
0001e0 8c 7f d1 bd 7d ea ab bd 34 d0 24 be 3d 82 53 bd
       -0.10229406 -0.083943345 -0.16095048 -0.051637877
0001f0 9d b2 cf bd b3 41 fb bd 98 a4 53 be 82 0e b0 3d
       -0.1014149 -0.122683905 -0.20668256 0.08596517
000200 7b f4 36 3e 2a bc 98 be e9 50 70 3d fd 23 b9 bd
       0.178667 -0.29831058 0.058670912 -0.09040067
000210 bb a4 14 be 1d 4d 8d 3e 84 a3 0e be fa f0 74 bd
       -0.14515965 0.27597895 -0.13929564 -0.059800126
000220 c6 8b 83 3c 15 b4 42 3e f1 21 4b bd b3 f4 65 be
       0.01605786 0.19014008 -0.049592916 -0.22456627
000230 21 bc 94 3e 7c 3c bf bd d1 31 49 3e 37 5a b8 3d
       0.2904978 -0.09337708 0.1964791 0.09001582
000240 89 88 20 3e 37 8f 91 be c8 13 e3 bb a3 c5 05 be
       0.15677084 -0.28429577 -0.0069298483 -0.13063674
000250 a7 ac 7e be e6 c2 42 bd d0 c5 b0 3d 98 9a 8e 3e
       -0.24870549 -0.04754915 0.0863148 0.2785232
000260 21 8c 82 be 36 24 45 bc 2d fc 3e 3c d7 fb 60 bd
       -0.25497535 -0.012032559 0.011656803 -0.054927673
000270 df 41 f4 3d 0f 20 cf bd ee 6e ad 3d 2a fd 1f 3e
       0.119266264 -0.101135366 0.08468424 0.15623918
000280 0f 39 6a 3d 12 8d 9b bd ee 7e 15 be 2f e8 00 3e
       0.05718332 -0.075952664 -0.14599201 0.12588571
000290 5d d2 b6 be 13 61 fe bd e0 2e 4f bd 3e fc 82 be
       -0.3570737 -0.12420859 -0.050581813 -0.2558307
0002a0 f2 ca 24 3e 28 f7 dd 3c b8 b4 15 bd 2e 7c ea bd
       0.16093042 0.027095392 -0.0365493 -0.11449467
0002b0 3d 9f 35 be 75 a7 38 3e 1f fe 04 3e e3 3e b8 3d
       -0.17736526 0.1803263 0.12987565 0.0899637
0002c0 75 40 fb bc 86 21 4f 3e 72 68 9b 3e 46 a7 0d 3e
       -0.030670384 0.20227632 0.30353123 0.13833341
0002d0 db 4e 63 bc 01 c6 95 3d 19 da 3c be e6 e8 d1 bd
       -0.013873781 0.07313157 -0.18442573 -0.102495
0002e0 8e 48 00 3d 12 1f 7c 3d 43 a6 28 be 13 fb c9 3d
       0.031319194 0.06155307 -0.16469674 0.09862342
0002f0 f8 84 fc 3d 4b c1 2e be a0 3c 02 be 1a f9 e9 3d
       0.12330049 -0.17065923 -0.12718439 0.114244655
000300 b2 b6 9e 3d bf 6e 4d be 91 ae f4 3d 6a b8 e9 3c
       0.0774969 -0.20061778 0.119473584 0.028530318
000310 ba 19 08 3e d3 ba 17 3d 03 33 60 be 88 0c 26 3d
       0.13291064 0.037043404 -0.2189446 0.040539294
000320 d2 ba 50 3d 92 0e 90 3e 76 3e cf 3d 4f d3 78 be
       0.050959416 0.28136116 0.10119335 -0.24299358
000330 aa 57 fb be c6 0d 5e bd 71 52 e0 bd 5c 62 0d be
       -0.4909032 -0.054212354 -0.109532245 -0.13807052
000340 25 0b cb 3d 09 50 28 3e 45 9d 15 3e e5 40 41 be
       0.09914235 0.16436781 0.14610775 -0.18872412
000350 c2 61 c0 be 92 84 c5 be 06 f3 de be 42 0b 29 be
       -0.37574583 -0.38577706 -0.43544787 -0.16508201
000360 54 8f f6 bd c3 9e 0d bd 4a 24 35 be ad dc b2 3c
       -0.120390564 -0.034575235 -0.17689624 0.021833742
000370 21 5c 5d bd 5f 3c 4f 3e 36 aa b5 bc 7c a1 51 bd
       -0.05404294 0.20237873 -0.02217589 -0.051179394
000380 e6 c5 52 3d 05 93 ca 3e 62 a2 93 bc 22 18 97 ba
       0.051458262 0.39565292 -0.018021766 -0.0011527578
000390 61 0d 02 bd 0f ff ee bb 72 7b 0e 3e 97 da a9 3d
       -0.03175104 -0.007293589 0.13914278 0.08293646
0003a0 29 91 92 3d bb 98 60 be fd 1c f7 bb 07 d4 68 3d
       0.07156593 -0.21933262 -0.0075412975 0.05684283
0003b0 86 a3 a7 3d 1c 1b c3 be 9b 89 76 bc 6c e8 c6 bd
       0.081854865 -0.3810662 -0.015047456 -0.097123
0003c0 11 5f 35 be a5 b7 c1 bd 33 4c bd 3c 8c cd 3a be
       -0.17712046 -0.094588555 0.023107624 -0.18242472
0003d0 d5 86 04 3e 2c ef 62 be ac c6 dc 3d 7e 0d d5 3d
       0.1294206 -0.2216155 0.10780081 0.10402964
0003e0 b1 17 90 be 84 97 a6 3d 9c 93 5e bc 8f 28 26 3d
       -0.28143075 0.08134368 -0.0135849975 0.040566023
0003f0 af d6 29 bd 2c 30 39 3d 19 4c 70 be 74 f3 2c be
       -0.041464504 0.045211956 -0.23466529 -0.16889745

fc4.bias f4 [10]
000000 ec 69 d4 bc 6a d3 1b 3d b6 8a c4 bd 73 dc 82 bd
       -0.025929414 0.038043417 -0.095967695 -0.063897036
000010 63 9f 0f 3e 29 dd 21 3e 6a ae 6f bd e8 53 52 bc
       0.14025645 0.15807022 -0.058515944 -0.012837388
000020 d8 ed b8 bd b4 71 a7 3c
       -0.0902974 0.02043996
