mlops_project/models/checkpoint1.pth (torch_old, 445854 bytes, 8 tensors)

fc1.weight f4 [128, 784]
000000 d1 50 0b 3d 0e 52 2b bc 75 e6 c2 bc fd 01 10 3d
       0.03401262 -0.010456575 -0.023791531 0.035158146
000010 b0 91 b3 bc d0 0c a1 3b c0 8e 29 3a 32 a7 5a bc
       -0.021920055 0.0049148574 0.000646811 -0.0133455265
000020 48 bd f2 bc 36 ee c7 3c 92 bb e6 3c 24 0c 2a 3c
       -0.029631272 0.02440558 0.028165612 0.010378871
000030 57 c7 02 3d 85 d3 f7 bc 7c b0 97 bc fe 81 aa 3c
       0.031928387 -0.030252228 -0.018516771 0.020813938
000040 8a 07 3b 3c a9 58 95 3c 11 e5 c6 3d f5 a6 8f 3d
       0.011415372 0.018230753 0.0971166 0.070142664
000050 65 ee d3 3c f0 aa f1 bb e2 75 97 3c 88 c2 62 3c
       0.025870511 -0.0073751137 0.018488828 0.013840325
000060 f8 eb b4 bc cc 98 c9 bc e3 02 ed bc 10 3a 07 3b
       -0.022085175 -0.024608992 -0.02893204 0.0020633973
000070 d8 b9 39 3c d4 c4 06 bd e2 ef b2 3c 80 01 0a 3a
       0.0113358125 -0.032902554 0.0218429 0.0005264506
000080 00 be 61 39 10 85 06 bd c6 eb 1b bc 78 a6 2d 3c
       0.00021528453 -0.032841742 -0.009516662 0.010598771
000090 70 0c 69 bb c1 36 11 3d dc 9f 39 3d 78 c3 58 3d
       -0.0035560392 0.035452608 0.04531847 0.05292079
0000a0 21 6f fb 3c 00 b4 bf bc 09 25 05 bd eb 9c 20 3d
       0.030692639 -0.02340126 -0.032506023 0.03921215
0000b0 74 90 0c 3e 5b 57 eb 3d 96 47 ad 3d 09 4f eb 3c
       0.1372698 0.11491271 0.084609196 0.02872421
0000c0 26 07 11 3c a0 af 08 bc fb 23 e5 bb a0 8b 63 bc
       0.008851802 -0.0083426535 -0.0069928146 -0.01388827
0000d0 ca b2 8e 3c 50 bb 06 3b a0 e9 06 bb 48 ec 23 3c
       0.017419238 0.0020558424 -0.0020586029 0.010005064
0000e0 c0 52 94 bb 70 22 95 bc 1a ba d8 bc 80 4d 35 bb
       -0.004526466 -0.018204898 -0.026455928 -0.0027664602
0000f0 18 bb 0c 3c 04 8c 3e 3c 4e 4c 10 3d ce d9 2d 3d
       0.0085895285 0.011630062 0.03522902 0.042444043
000100 9f cb 38 3d 5d 61 84 bd 47 89 a9 bb 81 86 4d 3d
       0.045116063 -0.06463883 -0.0051738354 0.0501771
000110 23 be 94 3d 5b 6c 17 3e 1a 2e 10 3e 0c 98 ce 3d
       0.07262828 0.14787428 0.14080086 0.100875944
000120 05 cc bd 3d 7c 6f b4 3d f0 8b 00 3d e5 f5 b2 3c
       0.09267429 0.088103265 0.031383455 0.021845767
000130 d2 20 50 bc 61 f6 00 bd ba e3 c5 bd f7 a8 78 be
       -0.0127031375 -0.031484965 -0.09662576 -0.24283205
000140 31 60 0e 3d ae 85 ea 3c 05 99 0f bd ce c4 d9 bc
       0.034759704 0.028628197 -0.03505804 -0.026583102
000150 9e 1f fc 3c 56 2b a0 3c 90 33 49 bb c4 31 56 3c
       0.030776795 0.019551914 -0.00307009 0.0130733885
000160 cd 57 88 3c 90 07 49 3d c6 1c 16 3d f2 7e 00 3d
       0.01664343 0.049079478 0.036648534 0.031371064
000170 5a cd 54 3d f7 37 9c 3d 8a 7b 68 3c bf 63 78 3c
       0.05195365 0.07627862 0.01418961 0.0151605
000180 98 03 e4 3c 4c ee 83 bc 0b fa 6d 3d 61 d3 fa 3c
       0.027833745 -0.01610484 0.058099788 0.030618371
000190 5c f5 37 3d 9f fb bd 3d d5 f3 26 3e 7f 32 1d 3e
       0.044911727 0.092765085 0.16303952 0.15351294
0001a0 39 21 c8 3d a5 d8 0e 3d bd f0 33 be df 3d 72 bc
       0.09771962 0.034874577 -0.17572303 -0.014785259
0001b0 74 e9 25 3e 8d d1 65 bd e7 9d 23 bd 32 90 2f bc
       0.16202337 -0.056108046 -0.03994551 -0.010715531
0001c0 10 37 b6 bc 70 18 0f bd 3d c8 b3 3a f0 e0 84 3d
       -0.022243053 -0.034935415 0.0013716292 0.06488216
0001d0 f8 9d 35 bd ac 4d b2 3d d7 1f af 3d 24 36 e4 3d
       -0.044340104 0.08706221 0.08550995 0.11143139
0001e0 f0 f6 d2 3d 93 c7 ad 3d fb 6b 1f be 3f 6e 9b bc
       0.10301006 0.084853314 -0.15568535 -0.018973468
0001f0 50 fa e8 bc bf 90 3a bd b2 a8 fc 3c 1e b7 34 3d
       -0.02843967 -0.045548197 0.030842159 0.044119947
000200 26 ac 3a 3d 52 c4 82 3d 8f 62 9e 3d a9 48 c3 3d
       0.04557433 0.063851014 0.07733642 0.09535343
000210 89 ec e6 bb 23 9c de bc 5d 79 9d bb 78 6c 46 bc
       -0.00704724 -0.027174061 -0.0048057274 -0.012110822
000220 10 f1 df bc 44 1d 2e bd c6 96 0f 3e 88 90 d3 bb
       -0.027336627 -0.04250838 0.14022359 -0.0064564385
000230 88 7d fe bc b8 87 ab bb 08 19 9b 3c 81 dc 7a 3c
       -0.031065717 -0.005234685 0.018932834 0.015311361
000240 58 23 82 3d 43 3c 82 b9 9e ec 3c 3e 54 7a eb 3c
       0.063543975 -0.0002484043 0.18449637 0.028744854
000250 78 18 35 3e 02 31 e3 3d c8 c2 06 bc 2b e8 0b 3d
       0.17685115 0.11093332 -0.00822515 0.03415696
000260 c8 f3 41 3d 0f e6 96 3d 63 21 ca 3c b4 ce 9a bd
       0.04735163 0.07368099 0.024674123 -0.07558957
000270 e2 0f 2d 3d fa d1 6f bd ec 9e 4d bd 65 89 53 3d
       0.042251475 -0.05854986 -0.050200388 0.0516447
000280 53 cf 95 bd ca af 94 bc 49 b4 fb 3c 0b 65 e7 bc
       -0.073149346 -0.018150229 0.030725615 -0.028246423
000290 4c ee 9c bc c5 47 26 bd e8 2d 06 3e c0 13 d8 bb
       -0.019156598 -0.04059579 0.1310345 -0.0065941513
0002a0 78 14 37 bc 87 6c 0a 3d 83 bf e9 bc b1 68 22 3d
       -0.011174314 0.033794906 -0.028533703 0.039650623
0002b0 16 1b 1d 3b 9b 65 22 bd 38 dd 58 bd 4d 59 f1 bc
       0.0023972443 -0.03964768 -0.052945346 -0.029461527
0002c0 7d 67 6d 3d 90 80 35 3d 41 0c 2e 3c ac 38 5f bc
       0.057960022 0.04431206 0.010623039 -0.0136243515
0002d0 05 3a 7f 3c 0f c2 0f bd 19 f8 b9 bc 24 57 9e bd
       0.015577798 -0.035097178 -0.02270131 -0.077314645
0002e0 11 70 c3 bd 88 82 97 bd 31 40 ae bd 12 20 a0 bc
       -0.09542859 -0.07397944 -0.08508337 -0.019546542
0002f0 b7 e5 1e 3d 7e c8 76 bb d5 f1 8a bc 45 08 fc bd
       0.038793292 -0.0037656124 -0.016961018 -0.12306265
000300 01 59 c2 bd b8 2a cb 3c 8f 2d b2 bd bf 06 0b 3d
       -0.094896324 0.024800643 -0.08700096 0.03394198
000310 53 33 a9 bc 8c cf 50 bc 02 0e de bd 97 39 20 bd
       -0.020654356 -0.0127447955 -0.108425155 -0.039117422
000320 f3 16 92 3c de c6 39 bd 7d 69 21 bd 6f 78 af 3d
       0.017833209 -0.04535567 -0.039407242 0.08567893
000330 57 ef 63 3c 27 ce 59 bd b9 c5 dc 3b f2 3a c3 bc
       0.0139120435 -0.053175118 0.0067374376 -0.023831818
000340 30 d7 80 bd ea f3 95 bd fe 1f 90 bd fb 10 23 bd
       -0.06291044 -0.073219135 -0.07037352 -0.039811116
000350 dd 48 50 bd 6d 04 ae bd c2 13 86 bd 39 2d aa bd
       -0.050850738 -0.08496938 -0.06546737 -0.08309407
000360 d0 f5 f0 bb 93 da 2b 3d 6b 3f af bd 83 24 a8 bd
       -0.007353522 0.041956495 -0.08557018 -0.08210089
000370 60 d6 54 bd ee 27 c1 bd 93 ab f3 bc 9c 54 77 bc
       -0.051962256 -0.09431444 -0.029744899 -0.015095856
000380 b2 e9 3b bc 13 17 a2 3b 6f 5b e1 bd 90 73 9a bd
       -0.0114692915 0.0049465983 -0.11003768 -0.07541573
000390 b3 d8 11 bd 62 a7 81 bd 6a 0a be bc ea 7e 0d 3d
       -0.03560705 -0.06330754 -0.023198325 0.034544863
0003a0 8f 3a 5c bc 21 9c 36 bd cf 92 67 3c cc 7c 2a bd
       -0.013441696 -0.04458249 0.014134123 -0.04162292
0003b0 72 f4 33 bc 17 d1 47 bd 79 26 db bd 74 6d 3a bd
       -0.010983573 -0.048783388 -0.107006975 -0.04551454
0003c0 8b a1 0a bd 54 05 1b bd 73 97 8c 3d 56 89 20 3d
       -0.033845466 -0.03784688 0.06864824 0.039193474
0003d0 a7 c1 4a 3c bc 4d be 3c c8 27 25 bd 1b 8c f8 bd
       0.012375272 0.023230426 -0.04032114 -0.12136098
0003e0 66 fe 22 be d2 e2 a4 bd f8 f0 96 3c 30 b0 b1 bb
       -0.15917358 -0.08051075 0.01842545 -0.0054226145
0003f0 44 bd f3 bc 0b c0 c0 bc e2 15 cc bd cf 13 e6 bd
       -0.029753335 -0.023529073 -0.09965111 -0.11234247

fc1.bias f4 [128]
000000 32 f9 77 3d 88 cf 8b bc 19 6b 75 bd 83 0d 39 3d
       0.060540386 -0.017066732 -0.05991659 0.0451789
000010 d4 6f b3 3d 42 b5 0c 3c 5a 6b 9e bc 86 2e 45 3d
       0.08761564 0.008588137 -0.019338299 0.04814007
000020 e3 82 57 3c 97 fc e3 3b 42 a6 0b bd 5d 6b c8 3d
       0.013153764 0.0069576013 -0.034094103 0.09786103
000030 19 72 bb bc 5b fc 44 3d 49 15 ac bc b6 d6 60 3c
       -0.022881554 0.048092227 -0.021006243 0.013723066
000040 66 12 28 3e 7a 46 06 3d 24 24 1f 3d c5 d3 21 3d
       0.16413268 0.032782055 0.038852826 0.0395086
000050 df 1a cb 3d 61 c8 8f bc db 94 41 bd bb 84 58 3d
       0.09917235 -0.017551603 -0.0472611 0.052860957
000060 b0 d1 6e bc a3 5d f5 3d 50 03 5d 3d df 54 65 3c
       -0.014576361 0.119807504 0.053958237 0.013997286
000070 99 3a 8b 3d 81 c2 5e 3d 25 36 c8 3c 9e 65 9a 3d
       0.06798286 0.054384712 0.02443988 0.07538913
000080 13 70 97 3d 80 ba 3b 3c d7 4e 77 bc db 76 95 3d
       0.07394423 0.011458039 -0.0150944805 0.072980605
000090 96 9b 19 3d 51 57 57 bd 54 fa 38 3d 6a c8 25 3c
       0.037501894 -0.052573506 0.045160607 0.010118583
0000a0 4b 46 74 3d 30 bc 85 3c 60 07 2b 3d ca f4 24 3d
       0.05963735 0.016325086 0.04175508 0.04027251
0000b0 36 51 9c 39 2b 6c 01 3d 2e 11 11 3e 6c a3 04 bd
       0.00029815146 0.031597298 0.1416671 -0.032382414
0000c0 8e e6 ae 3b 73 1d 2f 3d 42 0c 6e 3d 3c 76 62 3d
       0.005337543 0.042752694 0.05811716 0.05528854
0000d0 27 16 6e 3d 06 85 06 3d 20 ff 76 bb 28 b8 25 3d
       0.058126595 0.032841705 -0.0037688687 0.04045883
0000e0 bd 24 f2 3c bd c3 2b 3d 20 76 15 bd 3d e9 ab 3d
       0.029558534 0.041934717 -0.036489606 0.08394096
0000f0 46 e5 e3 3c 6f 72 10 3c ef 63 4e 3d a1 2b c1 3c
       0.027819287 0.008816346 0.050388273 0.023580374
000100 fc 1d 22 3d 62 11 91 bb 2d 79 0f 3c 8b 2b 34 3d
       0.039579377 -0.004427121 0.008756918 0.04398684
000110 a1 4e ce bb 31 ee 9d 3d 2e 4f 19 3d f8 02 a1 3c
       -0.0062959944 0.07711447 0.037429027 0.019654736
000120 8e 54 1f 3d 75 7a a7 b9 ba 00 e1 3c 48 b8 41 3d
       0.038898997 -0.0003194396 0.027466167 0.047294885
000130 07 79 75 3d da 4a 04 bd 89 46 56 3d 94 00 ce 3d
       0.059929874 -0.032297947 0.05231336 0.10058704
000140 3c 55 13 3d 8e 55 c0 3d 22 d3 11 3d 4b 73 44 3d
       0.035969958 0.09391318 0.035601743 0.047961514
000150 ad 04 94 bd 86 ed 90 3c 2a 81 e8 bc f7 8d 9c 3d
       -0.07227454 0.017691385 -0.028381903 0.07644265
000160 3f 17 85 3c fa d8 74 3c 5d 0c aa 3d e3 92 96 3d
       0.016246436 0.014944309 0.08303139 0.07352235
000170 2a d8 63 3d 5c be be 3d 1a aa 84 3d 68 e3 14 3b
       0.055626072 0.09313652 0.06477757 0.0022718553
000180 e0 68 96 3c ac a3 40 3d 0a 40 12 3c 80 9d 1a 3d
       0.018360555 0.04703109 0.008926401 0.03774786
000190 47 87 7c bd 63 a1 90 bc 0e f9 bf 3d 91 b4 b9 3d
       -0.061652448 -0.01765508 0.09373675 0.090676434
0001a0 2e ff 9d 3c 3b 44 ce bc 74 66 b5 bc 29 0b 99 3c
       0.019286718 -0.02517902 -0.02214358 0.01868208
0001b0 51 bb 62 3d ad 9b 9f 3d 9d 73 a7 3c 02 67 97 3d
       0.05535442 0.07793365 0.02044087 0.07392694
0001c0 a4 95 e4 3c 3d 61 b7 bc cb a5 43 3d 11 18 17 3c
       0.027903385 -0.022385234 0.047765534 0.0092220465
0001d0 cf f3 eb bc 0a ae 45 3d 95 73 a9 3c 28 13 b5 3c
       -0.02880278 0.04826168 0.020684997 0.022103861
0001e0 36 0b aa 3d e7 94 44 3d 96 65 4f bd cf fb 3d 3b
       0.083029196 0.047993567 -0.05063399 0.00289892
0001f0 0e e4 95 3b ba 62 a4 3d 74 e0 d0 bc 82 fa 26 3d
       0.0045743054 0.08026643 -0.025497653 0.040766247

fc2.weight f4 [64, 128]
000000 0d 9c 0c 3e 2b cb cc bd 6d eb a7 bd a9 48 35 bd
       0.13731404 -0.09999689 -0.08199201 -0.044258747
000010 48 fe 24 3e fa f7 55 3e a2 fb 25 be 96 f1 17 be
       0.16112626 0.20895377 -0.16209272 -0.14838251
000020 ec e0 20 3e a0 fa 32 3e e2 1e a4 3d 10 26 58 bc
       0.15710801 0.17478418 0.08013703 -0.013192669
000030 70 1c 8a 3d bd 14 8b bd 74 b6 a9 3e d0 f8 0c 3d
       0.06743705 -0.06791065 0.33147013 0.034416974
000040 86 74 52 3d 47 2b fe 3d 3c 6d d0 3d 69 f3 52 bc
       0.051380657 0.12410598 0.10177085 -0.012875416
000050 80 db 9f 3e e0 84 91 3e 34 f9 53 bd ca a6 d6 3d
       0.31222153 0.28421688 -0.05175133 0.10481031
000060 7c b6 9d 3d 01 a4 b9 bd b8 a9 da bd f8 e8 33 3e
       0.07700822 -0.090644844 -0.106769025 0.1756934
000070 e6 69 82 3d dd 39 96 3d 10 b2 e3 bb 6a f3 a1 3d
       0.06367855 0.07335255 -0.006948717 0.07907756
000080 8f 75 aa 3c cd 9f 53 3d 3a 50 8a bd a6 ac 2a bb
       0.02080801 0.05166607 -0.06753583 -0.0026042848
000090 d5 d5 a0 bc 26 63 d2 3d 96 11 e6 3d 23 6e 8c bc
       -0.019633213 0.10272817 0.11233823 -0.017142361
0000a0 ff bd bb bd 5b 42 f8 3d 9f 29 03 3e 37 31 4e 3d
       -0.09167098 0.12122031 0.12808846 0.050339904
0000b0 9d 9a 35 be a6 67 81 3e 8e 89 3b 3d 8c bf 39 be
       -0.17734762 0.2527439 0.04578548 -0.18139476
0000c0 16 38 83 3d 5c 65 4e 3e 94 74 12 be a8 f2 80 bd
       0.06407182 0.20155853 -0.14302284 -0.06296283
0000d0 79 f2 06 3e 5b 1f 17 3e e4 88 0f 3d 5b a8 b1 3d
       0.13178433 0.14758055 0.03504266 0.086746894
0000e0 65 c9 91 bd 5d 1d 25 be da 08 fb bb 3f e2 03 bd
       -0.07118491 -0.16124482 -0.0076609673 -0.032198187
0000f0 7a 36 0f 3e 52 91 a5 3d 08 89 cd bc 63 f1 db 3a
       0.13985625 0.08084358 -0.025089756 0.0016780313
000100 4f 89 32 3d fe c1 bb be cd c7 ac 3d 0d cf fb 3d
       0.04358798 -0.36671442 0.084365465 0.12295351
000110 6c d4 28 3b f9 49 f8 bd d0 d4 73 bd b0 3d 0c bd
       0.002576138 -0.12123484 -0.059529126 -0.034238517
000120 43 42 39 bd e5 d2 31 3d 08 61 3b 3d b2 03 fb 3d
       -0.045229208 0.043414015 0.045746833 0.12256564
000130 6d 16 a9 bc bd 9c b1 3d 61 21 a1 bd 6b 8a 82 3e
       -0.020640576 0.086724736 -0.07867695 0.2549623
000140 fd c9 61 3d 15 a1 be bd 82 aa 24 b9 9b f0 57 be
       0.05512427 -0.09308068 -0.00015703778 -0.21087877
000150 b5 5e 91 bd 74 42 d5 3d 14 e0 85 3d 31 1a 84 3d
       -0.07098142 0.104130656 0.0653688 0.06450308
000160 b8 d6 39 3d ac 7f 83 3c 25 87 ab bd 13 f8 ef bd
       0.045370787 0.01605209 -0.08375386 -0.11717238
000170 13 93 45 3c 52 07 6e 3d c4 6b 80 3d 4c b3 7f bd
       0.012058991 0.05811245 0.06270555 -0.06242685
000180 86 f8 e9 3d 48 24 8d 3c bb 04 0d 3e 36 c1 80 3d
       0.11424355 0.017229214 0.13771336 0.06286852
000190 63 c1 17 3e 70 57 79 3d 84 15 22 3d 08 4a b2 bc
       0.14819865 0.060874403 0.0395713 -0.021763816
0001a0 bb e8 04 3e 7e ff 59 3d 9c a5 d7 bd 96 00 df 3d
       0.12979405 0.053222172 -0.10529634 0.10888784
0001b0 58 3e aa 3e 0b e2 90 3a db cc ce 3d 89 9b 0c be
       0.3325069 0.0011053694 0.10097667 -0.13731207
0001c0 ee a4 31 bd 03 a2 17 3e 5d 95 f4 3d 04 c4 54 3e
       -0.04337018 0.14807896 0.11942551 0.20777899
0001d0 18 6a 45 3d 0a ac 2c 3d 08 44 98 3d df f0 f9 bd
       0.048196882 0.042156257 0.07434851 -0.12204146
0001e0 31 28 03 3e b1 73 27 bd b3 c1 9e bd 96 d0 53 3d
       0.128083 -0.040881816 -0.07751789 0.051712595
0001f0 fb a9 73 bd 3c 13 8d 3c 4c 1d fd bd 02 65 d1 bd
       -0.059488278 0.017221086 -0.123591036 -0.10224344
000200 cf 26 10 3e 66 ac 84 bd 55 bc f4 3b 71 aa 88 3c
       0.14077304 -0.06478195 0.00746874 0.016682835
000210 cf 09 1e 3e 09 e9 12 3c 69 e1 5b be 6d 9d 81 3d
       0.15433429 0.008966693 -0.21472706 0.06328855
000220 3c 04 0b 3e 2b e9 09 3e 9a 1a e3 3d eb c0 0d 3e
       0.13575834 0.13467853 0.11089058 0.13843124
000230 ac d8 08 be 8d 0b 4a bd be 4d 0d 3e db 16 22 be
       -0.13363904 -0.049327422 0.13799188 -0.15829031
000240 f3 a3 63 bd af 67 c0 bc 24 98 8f 3c 7b 6b 3b bd
       -0.055576276 -0.02348694 0.017528601 -0.0457568
000250 f0 3f e3 3e 8e ae 93 3e ea 6c 71 be 52 4d ef 3c
       0.44384718 0.28844112 -0.23576704 0.029211674
000260 ac 76 20 3e 41 10 4f 3e 5e 8a 2f 3d 0d 67 bf 3d
       0.1567027 0.20221044 0.042856567 0.09345827
000270 5c 85 60 bc 5a b2 a0 3d 06 60 98 bd 8f fc da bc
       -0.01370367 0.07846518 -0.0744019 -0.026731757
000280 0c ed d1 3c 15 41 fa 3d 43 fc 93 bd 17 8c be 3d
       0.025625728 0.12219445 -0.072258495 0.09304064
000290 68 2b 2f 3e 74 e5 d9 3a 18 eb 10 3e c1 17 38 bc
       0.17106402 0.0016624168 0.14152181 -0.011236132
0002a0 66 89 71 3d fd 82 14 3c 10 59 c1 3d 9c c3 25 bd
       0.058968924 0.009064433 0.094408154 -0.04046975
0002b0 af b6 20 3c 83 47 06 3e 75 49 1e 3e b1 db cb be
       0.00980918 0.13113217 0.15457709 -0.3981605
0002c0 f8 43 38 bd f7 4a 90 3e 2c 2a a1 bd f7 48 96 3d
       -0.044986695 0.28182194 -0.07869372 0.07338136
0002d0 bd 97 61 3d 4f 57 13 3e 06 e1 f3 3b 61 2a b0 3d
       0.05507635 0.14388774 0.0074425964 0.08601833
0002e0 b1 40 84 3c 87 55 c2 bd 72 93 70 be fd 4e 87 3e
       0.016144129 -0.09488969 -0.23493746 0.2642745
0002f0 4d 5f 68 3c 39 01 9c 3d a0 12 7d be 7a da 0e 3e
       0.014182878 0.07617421 -0.24714136 0.1395053
000300 22 19 b9 3d 54 c2 e8 bd 22 39 87 bc de 32 ea 3d
       0.09037997 -0.1136519 -0.016506735 0.114354834
000310 10 fa d3 3c df 83 ed bd 20 5c 20 3d 09 e8 2c bd
       0.025876075 -0.11597418 0.039150357 -0.042213473
000320 7c 90 b6 3d ee c0 c3 bc 98 d5 97 bc 45 f2 92 3d
       0.08914277 -0.023895707 -0.018534467 0.071751155
000330 07 0b cd bd f1 0f 8e bd 36 cc e8 bd a2 8d 8b 3e
       -0.10011869 -0.06936634 -0.11367075 0.27256495
000340 24 01 09 bc 5b 0f da bd b8 f1 b2 ba f3 fc cc 3d
       -0.008362088 -0.1064746 -0.001365236 0.10009184
000350 da 2b 00 be 05 9a a0 bc 6f 32 18 3d e5 80 a1 3d
       -0.12516728 -0.019604692 0.037157472 0.07885913
000360 f8 6c 24 bd 37 03 d5 3d a9 d6 a7 3e 35 b2 fa 3c
       -0.040142983 0.10401004 0.3278096 0.030602554
000370 1a 8d 90 3b 9a d5 79 be 24 bb 37 3d 4a 39 2d 3e
       0.004411352 -0.24397889 0.044856206 0.16916385
000380 a5 6f 07 bd 3d 5d 60 3d 60 94 f3 bb 18 0c e0 3c
       -0.033065457 0.05477642 -0.007433459 0.027349517
000390 1a df e3 bd 29 73 07 be 3c f2 cb 3d 75 0d 9f 3d
       -0.111265376 -0.13227524 0.09958312 0.077662386
0003a0 a1 52 64 3d 7c 76 0a 3d e4 ad bb 3c df ce 7c bd
       0.055742864 0.0338044 0.022910066 -0.061720725
0003b0 32 44 0a 3e 07 98 7a 3d 51 2f 0b 3e 0e 24 0b 3c
       0.13502577 0.06118014 0.13592269 0.008492483
0003c0 4a 15 f8 bc ab 72 77 bc b0 8c 3d 3d 09 6f 33 3e
       -0.030283589 -0.015103023 0.04627675 0.17522825
0003d0 90 f3 96 bc 63 e7 d3 3c cc 24 62 3d ab 16 9a 3c
       -0.018426687 0.02586717 0.055210873 0.018809637
0003e0 b9 5a aa 3c 44 74 c4 3d 3f 33 21 be b0 2d 06 bd
       0.020795213 0.095924884 -0.15742205 -0.032758415
0003f0 0f 00 a7 3c 70 26 44 3e c2 45 0c bc c5 37 0a be
       0.02038577 0.19155288 -0.008561553 -0.13497837

fc2.bias f4 [64]
000000 5a e1 a7 bc 69 88 01 3d a8 8e 86 3d 9e 94 88 3d
       -0.020493198 0.03162423 0.06570178 0.066689715
000010 e0 44 c0 bd 5e 21 47 3c 02 7a 41 bd 77 7c 92 bd
       -0.09388137 0.012153951 -0.047235496 -0.07152646
000020 97 81 61 3d 99 7a 24 bd 5c 2d 8c 3d 41 25 d7 3c
       0.055055227 -0.04015598 0.06844589 0.026262881
000030 e1 fd 57 3d 37 f7 10 bd ce 1e 63 bd 6d 3c 9b bc
       0.052732352 -0.035392012 -0.0554493 -0.018949712
000040 95 49 99 bc b6 9e 25 3d df 4f a5 3c db a3 14 3e
       -0.018711844 0.04043456 0.020179687 0.14515631
000050 66 ee 0a 3e 8e cd 19 3e 9d a4 4d 3b 21 a0 f2 bc
       0.13567504 0.15019819 0.0031378635 -0.029617371
000060 a8 80 76 3d 96 16 ea 3a dd 14 ef 3c e4 27 39 3d
       0.06018129 0.0017859514 0.029184753 0.04520406
000070 7f f5 d0 3c 98 86 21 3e e2 34 ed 3d 95 6e 1b 3b
       0.025507687 0.15774 0.11582352 0.0023717035
000080 dc d7 f2 bd c7 19 80 bd 2e c9 8f 3c 67 1a de bc
       -0.11857578 -0.06254917 0.017551985 -0.027112199
000090 3c fe 10 3e 9c a1 d8 3d be 13 52 bd f9 13 00 3e
       0.14159483 0.105776995 -0.05128836 0.12507619
0000a0 37 8d e6 3d 8a 13 45 3d e3 ae 9c bd b6 2e ae 3c
       0.11257403 0.048114337 -0.076505445 0.021262508
0000b0 8f e1 c6 bc 60 ad 05 3d 95 50 9e bd 85 8e ea bb
       -0.024277477 0.032636046 -0.077302136 -0.007158103
0000c0 33 04 12 3d 5d 59 8f bc 81 0d 91 3d 77 ca 6c bd
       0.035648536 -0.017498666 0.07082654 -0.057810273
0000d0 fd 1b 60 3d cd ac bf 3d 53 46 08 3d 67 c1 76 bd
       0.05471419 0.09359131 0.03327019 -0.060243037
0000e0 f6 8a 3e 3d 9c 95 8d 3d af b1 9a bd d5 46 0b bc
       0.046519242 0.06913301 -0.07553422 -0.008500774
0000f0 65 0c e5 3d 79 a7 75 3b e1 00 a1 bc ca cf 86 3c
       0.11184005 0.0037483855 -0.01965374 0.016456503

fc3.weight f4 [32, 64]
000000 66 8f be 3b e8 2d 99 3c 31 a7 ab 3e d3 43 98 3e
       0.0058154343 0.018698648 0.33525994 0.29739246
000010 69 0b ea bc 53 d6 95 be 36 25 28 bd b5 22 10 be
       -0.028569894 -0.2926508 -0.041051112 -0.1407574
000020 ca 5d a6 3e 4c 0b 2c 3e 48 0a a0 3e 79 29 c8 3e
       0.3249343 0.16801184 0.31257844 0.3909414
000030 a7 49 cc 3c 04 2a 4e be 7c 06 f0 3d 89 d4 93 3d
       0.024937464 -0.20133215 0.11719987 0.07218272
000040 59 ab 4a 3d 5d 35 4c 3e 46 4e 3d bc 31 19 fc bd
       0.049479816 0.19942231 -0.011554306 -0.123094924
000050 bd 8e b1 3d 5f 58 f6 3d ab b7 86 bd 14 9b 61 3d
       0.08669803 0.12028574 -0.06578001 0.055079535
000060 a3 78 5c 3e 2a 13 dc 3c b7 c5 02 3e b2 da cb 3d
       0.21530394 0.026864607 0.12770735 0.09953822
000070 ed fb 00 3e d9 f7 14 be fa 96 e7 3e 5b 91 6e 3e
       0.12596102 -0.14547671 0.45232373 0.23297636
000080 f3 4f a7 3d e2 e8 0c be f1 61 1d 3d 4b 18 35 3e
       0.08169546 -0.13760713 0.038423482 0.17685048
000090 3e 5f 20 bd 6c 98 1c be eb 71 fb bd ae bb 18 be
       -0.03915333 -0.1529252 -0.122775875 -0.14915344
0000a0 c8 b5 1f 3e 78 fa 04 bd 9b 5a b2 3d bb 37 2d 3d
       0.15596688 -0.032465428 0.08708688 0.042289477
0000b0 af c4 9d 3d ab d6 12 3e ea 79 27 3c ce 50 7a 3e
       0.0770353 0.14339702 0.010221938 0.24444887
0000c0 0b 09 9a be 5d f3 af 3b 0b f0 84 be 7a 12 f9 bd
       -0.30085024 0.0053695873 -0.25964388 -0.12161727
0000d0 af 04 95 3e a8 d3 d2 3c a5 4e 82 be ee 75 ff bc
       0.29105136 0.025735691 -0.25450626 -0.031184163
0000e0 eb a2 2a 3c ff 99 32 3e 6b 97 85 bd 26 3e 12 bd
       0.010414819 0.17441557 -0.06523021 -0.0357038
0000f0 d7 ce 82 bc f7 ea 10 be 5c 02 c4 3d 08 ca 02 3e
       -0.01596777 -0.14152132 0.095707625 0.12772381
000100 23 3c 4f 3d 31 32 72 bd 41 5c 0c be 94 f1 27 3e
       0.05059446 -0.059129898 -0.13707067 0.16400748
000110 68 d1 c0 bb eb 05 f9 3d be 29 85 bd 01 45 86 bb
       -0.005884338 0.12159332 -0.06502102 -0.0040975814
000120 dc 0f 04 bd b3 fe 51 be e1 23 c5 bd 2e fa 42 bd
       -0.032241687 -0.20507316 -0.09625984 -0.04760187
000130 27 75 71 3c 90 03 06 3e e6 e0 26 bd 2e a0 10 be
       0.014737404 0.13087296 -0.040741824 -0.14123604
000140 ba 28 d1 bd f0 a6 2e 3e b0 6b 5a 3c 08 d5 f2 3d
       -0.10212846 0.17055869 0.013331339 0.11857039
000150 09 98 09 3d 71 86 e4 3b e9 4d 6a 3d 4f f8 a4 bd
       0.033592258 0.0069740345 0.057203207 -0.080551736
000160 17 7c b2 3c c9 77 1d 3d c5 ec 2d 3e 42 e1 1f bd
       0.021787686 0.038444314 0.16984852 -0.039033182
000170 03 f4 3d be 59 09 84 3e 93 9b 5c 3e 6f 88 27 be
       -0.18550114 0.25788382 0.21543722 -0.16360639
000180 ec 7d cd bd 38 54 82 bd 2d 70 87 3e bd 11 35 bd
       -0.10033783 -0.0636372 0.2645277 -0.04420637
000190 f4 3a 62 3e 55 d3 04 be 86 e3 b9 bd ea 00 cf bb
       0.22092801 -0.12971242 -0.090766 -0.0063172476
0001a0 6f e2 b3 bc 2d b1 c5 bc d7 aa 41 be ac e8 18 3e
       -0.021958558 -0.024132336 -0.18912826 0.14932507
0001b0 11 0b 90 3e 7f 7b 50 3e db da 07 3e 04 51 0d 3e
       0.28133443 0.2035961 0.1326708 0.13800436
0001c0 a2 81 3a 3e dc 88 c0 bd b1 db a8 bd 67 b4 e1 3c
       0.18213513 -0.09401104 -0.08245028 0.027551843
0001d0 34 5b 23 bd 7b bb 38 3e 56 94 ac 3d 38 74 cd bb
       -0.0398819 0.18040268 0.0842673 -0.006269958
0001e0 a5 9b 94 3c f6 fc 6a be 99 5f 22 bd aa 0b ed bb
       0.018140623 -0.2294806 -0.03964195 -0.0072340565
0001f0 89 c5 a0 bd 6f 3b a8 3e 23 ff 80 be 22 32 64 3e
       -0.07850177 0.32857844 -0.25194654 0.22284749
000200 6e a2 8c be 6f ad 05 be 6d 02 b8 3d 2b e7 90 3d
       -0.27467674 -0.13054441 0.08984838 0.07075342
000210 c0 6e 84 bd bd 5b 9e 3e a5 85 10 3d 51 00 d8 bd
       -0.064664364 0.30929366 0.035283703 -0.10546935
000220 39 07 a5 bc fd a3 00 3e ad ce 24 3e d1 f8 c0 bc
       -0.020145046 0.12562557 0.16094466 -0.023556145
000230 2e 63 c6 3d 3c 56 b6 bd 4e 0c 37 be 94 21 1d bc
       0.09686886 -0.08903167 -0.17875788 -0.009590525
000240 e5 f6 5f bd d6 04 db bd 5e 43 a7 be 1a fb 33 3d
       -0.054678816 -0.10694282 -0.32668585 0.04394064
000250 dc d9 1b 3e 60 3e 23 be 76 1a 8f 3d 82 47 f9 bd
       0.15219826 -0.15941763 0.06987469 -0.12171842
000260 c4 16 c4 bd 9f 4b 48 be dc d2 c2 3d 6a ab 0a be
       -0.09574655 -0.19560097 0.095128745 -0.13541952
000270 ca ce ec bd 3e ef 2c bd be ed 10 bd 64 8b f2 3d
       -0.115628794 -0.042220347 -0.03538298 0.11842993
000280 94 a7 80 be 54 ea e8 3d 12 0f e3 bd bf fe 0b be
       -0.25127852 0.113728195 -0.11086859 -0.13671397
000290 44 8e 69 3e 09 e4 f9 bd 9b a4 2d 3e 14 f8 e1 3d
       0.22808176 -0.122016974 0.16957323 0.11033645
0002a0 60 63 aa 3d d5 18 cd 3b 34 10 f3 3d 0a 2b 8a 3b
       0.083197355 0.0062590637 0.11868325 0.0042165564
0002b0 b0 0f 73 bd c2 cf ba 3d 84 d8 cd bc 58 1a 1a 3e
       -0.059341133 0.09121658 -0.025127657 0.15049112
0002c0 69 af 29 3c a7 ca ab 3d d4 34 1b 3e 06 7f 7a 3c
       0.010356762 0.08388262 0.15156871 0.015289074
0002d0 50 ca 9e 3e fb 42 21 be 16 d6 0d 3e ce c1 8f be
       0.31013727 -0.15748207 0.13851199 -0.2807755
0002e0 7e 38 94 3e 4d 1d dd 3c 96 7d ed bd 65 8a 84 3e
       0.2894935 0.02699151 -0.11596219 0.25886837
0002f0 1c 25 ce 3d 41 86 c8 3e 4f 88 52 3e 71 fb 75 bc
       0.10065672 0.39164928 0.2055981 -0.015013562
000300 8b 74 4f bd c4 0f 69 bd bb 1a be bd 90 51 27 bc
       -0.050648253 -0.0568998 -0.09282442 -0.010212317
000310 07 d2 c6 bd 3e 2c a2 3d f8 c9 c4 bc 95 ef 80 3d
       -0.09708028 0.07918595 -0.024022087 0.06295697
000320 1f ea 84 3d da 60 c4 3c 9a ac 9d bd 8b bb 87 3d
       0.064899676 0.023971964 -0.07698937 0.06627568
000330 94 2e 30 bd 70 29 9e 3d 08 30 31 bd ff fb bf bd
       -0.04301317 0.07722747 -0.043258697 -0.09374236
000340 76 f8 e9 3d 14 fa 4e bd fd 0d af bd e2 28 38 3d
       0.11424343 -0.05053146 -0.0854759 0.044960864
000350 7a 11 9f bd e2 34 7b bd c8 33 c8 bc 2a ff 71 bd
       -0.07767005 -0.06132973 -0.024438754 -0.059081234
000360 f5 a2 c0 3d e1 00 41 bd 42 de 74 3d 7e ea 00 3e
       0.094060816 -0.04711998 0.059782274 0.12589452
000370 0a 23 d5 bd b9 d2 d8 3d 18 90 10 bd ec 98 0d 3d
       -0.10407074 0.10587067 -0.03529367 0.034569666
000380 ee f2 d1 3d db 3e d7 3d f8 aa b7 3d 8e 59 bd 3d
       0.10251413 0.105100356 0.089681566 0.09245597
000390 93 99 f1 bd fa 0c f9 bb c0 0d a2 3d 26 47 92 3b
       -0.1179687 -0.007600424 0.07912779 0.004464048
0003a0 2d 31 a1 bd d7 44 a0 bd 1b f9 51 bd 95 62 be ba
       -0.07870708 -0.0782563 -0.051262956 -0.0014525229
0003b0 50 9b 5a bd 32 08 96 bd 37 d5 e0 bd c9 d0 1d bd
       -0.053370774 -0.07325782 -0.109781675 -0.03852919
0003c0 9c 21 71 3d 23 3e e5 3d 8b e3 bb 3d 7e 64 a6 bd
       0.058869943 0.11193492 0.0917426 -0.08124636
0003d0 08 32 db 3d 89 77 de 3d 54 c9 d0 3c 4d a8 8e 3d
       0.10702902 0.10862643 0.025486626 0.069656946
0003e0 21 49 7b 3d c9 2a b1 bd 45 55 fe bd f5 c3 67 bd
       0.061349038 -0.08650739 -0.124186076 -0.056583364
0003f0 2c 56 86 bc 22 c8 8c bd c8 5e a4 3c 92 a1 ff bd
       -0.016398512 -0.0687411 0.020064726 -0.12481989

fc3.bias f4 [32]
000000 02 59 c9 3d a0 39 e4 3d 00 45 db 3d 88 8c ce bd
       0.0983143 0.111438036 0.1070652 -0.10085398
000010 b5 5d 1b bd 1a c7 83 3d 64 34 00 3d fa e4 9d 3d
       -0.037931163 0.0643446 0.031299964 0.077096894
000020 35 a7 a2 3d 03 0b 1f 3e 0c 5b 3c bc 0a ee 38 3c
       0.079420485 0.15531544 -0.011496317 0.011287222
000030 d8 d6 21 3d a8 41 8a 3d 43 a3 23 be 4a 39 06 be
       0.03951153 0.06750804 -0.15980248 -0.13107792
000040 d4 c0 30 3d a6 45 98 bc 36 25 d4 3d 8e c7 5a 3d
       0.043152645 -0.018587898 0.1035866 0.053412966
000050 09 8b 84 bb c9 59 95 bd 1e 02 26 3e d2 a8 1c be
       -0.0040448946 -0.07292516 0.16211745 -0.15298775
000060 24 81 02 3e cc 92 03 3e 81 af e9 3d 5a 2e 88 3c
       0.12744576 0.12848967 0.11410428 0.016623665
000070 19 fb 99 3d 0c 7b e1 bc 31 7d 0d 3e ac fd e0 3c
       0.07518596 -0.027524494 0.13817288 0.02746471

fc4.weight f4 [10, 32]
000000 b8 ef 99 bd ce 92 14 bf e7 f1 28 be 04 55 10 bc
       -0.07516426 -0.58036506 -0.16498528 -0.008809332
000010 49 b9 d0 bd 10 2e 2f 3e 2b 11 84 be b3 93 68 be
       -0.1019159 0.17107415 -0.25794348 -0.22712593
000020 9c 28 19 3e d9 1b 74 be 26 8c 18 bd d1 5e 9e 3d
       0.14956897 -0.23838748 -0.03724303 0.077329285
000030 a6 54 0a be 00 b5 41 be 93 00 3e 3e f4 c1 a4 bd
       -0.13508853 -0.18916702 0.18554907 -0.08044806
000040 2b a7 44 3e c5 f8 ad be 77 e1 38 3e f3 b8 06 3e
       0.19204395 -0.3397886 0.18054758 0.1315649
000050 1c 6c 6b be 95 29 ef bd 8d de 1e be cb ce 73 bd
       -0.22990459 -0.11677853 -0.15514584 -0.059523385
000060 af 2c 0c be 03 3a 85 3e fd 39 9e be f9 e1 99 3d
       -0.1368892 0.26020822 -0.30903617 0.07513804
000070 31 aa 48 3e 2f d2 9c 3e 1d ba 5c be 2a 42 42 3e
       0.19596173 0.30629107 -0.21555372 0.18970552
000080 12 9f 4e be 61 1f 95 3e ec a3 38 be df 2f e8 bd
       -0.20177868 0.29125503 -0.18031281 -0.11337256
000090 19 91 1a 3e b4 6a bb be 53 ae b1 3d be c5 2c be
       0.15094413 -0.36604846 0.08675828 -0.16872308
0000a0 f7 d5 82 3e f7 7d 47 3e f4 0a 59 be df 84 40 3e
       0.25553867 0.19481646 -0.21195585 0.18800686
0000b0 f0 5c f3 3d 94 f7 7f 3e 80 08 95 be c5 43 04 be
       0.11882961 0.24996787 -0.29108047 -0.12916477
0000c0 f5 8c 63 3e 3f d0 1c 3c 98 41 17 be 23 ab a3 3e
       0.2222174 0.009571134 -0.14771116 0.31966504
0000d0 cc 0a 20 3e f3 a0 0f 3e a9 b7 95 be c4 b4 96 be
       0.15629119 0.14026241 -0.29241684 -0.29434788
0000e0 9a e9 c3 3d 04 7d 2a be 97 4c 5e 3d 28 62 a6 be
       0.0956604 -0.16649252 0.05427226 -0.32496762
0000f0 ae 69 03 bd 19 4b 09 3d df ea ea 3d 6a 32 87 be
       -0.032083206 0.033518884 0.11470579 -0.2640565
000100 9d 10 9a 3d af 07 96 bd 5c 13 38 3e e6 60 d3 bd
       0.075227 -0.07325684 0.17976135 -0.10321216
000110 c4 55 22 3d 36 ec 18 3e fe 20 52 be ae 87 b5 3c
       0.039632574 0.14933857 -0.20520398 0.022159424
000120 83 5a d3 be bc 26 80 3e c3 3e 9c 3e 9e 6f 12 3d
       -0.41279992 0.25029552 0.30516633 0.035750978
000130 dd 70 65 3e 5a ad ce bd 31 60 36 be fc e6 e5 3c
       0.22406335 -0.10091658 -0.17810132 0.028064243
000140 48 d3 b4 be 1c 8d d2 be b3 93 28 3e af 13 02 be
       -0.35317445 -0.41123283 0.16462593 -0.12702821
000150 3d 33 e7 bd 73 10 ae 3e 18 f4 59 be 2b 13 cd be
       -0.1128907 0.33996925 -0.2128452 -0.40053686
000160 cc 02 62 bd aa 0a 7f bd e5 cc 97 3e e3 46 fd bd
       -0.05517845 -0.06226603 0.2964851 -0.12367036
000170 01 7b 09 be a5 5c 17 3e 58 17 6c be b8 54 48 bc
       -0.13425829 0.14781435 -0.2305578 -0.01222723
000180 5d 5e bf bd 0d eb b3 3e 1e e9 6b be a5 42 1f 3e
       -0.0934417 0.35140267 -0.23038146 0.15552767
000190 13 6a 9a bd ae 8c 83 3d fc 71 fb be 01 d6 91 be
       -0.07539763 0.06423317 -0.491104 -0.28483585
0001a0 1f 83 68 3c 52 57 25 be e2 92 3a 3e 67 31 83 be
       0.014191418 -0.16146591 0.18220094 -0.25623628
0001b0 48 9f a8 be 7d a2 83 3e a5 4c 42 be a8 6b 49 be
       -0.32934022 0.25709906 -0.1897455 -0.19669974
0001c0 1c a8 86 3d 06 92 8f bd a8 a9 58 be 02 62 54 be
       0.06575033 -0.07010274 -0.21158469 -0.20740512
0001d0 94 84 90 3e e9 b5 1f 3e ac c9 78 bd d6 54 cc bd
       0.2822615 0.15596737 -0.060739204 -0.09977119
0001e0 71 b5 a5 be 97 19 ab bd e0 d2 86 3e 67 73 f4 3d
       -0.3236499 -0.0835449 0.2633276 0.11936074
0001f0 0a 29 11 3e a1 c4 93 3b 27 c8 33 3e b6 e5 5d be
       0.14175811 0.004509524 0.17556821 -0.21669659
000200 42 dd 49 3d 17 83 88 be ba b8 eb be c8 c1 21 3e
       0.049283274 -0.26662514 -0.46039373 0.15796578
000210 d8 24 e5 3d e1 01 5d 3e fa 13 a0 3e ea ca 90 bd
       0.11188668 0.21582748 0.3126524 -0.07069953
000220 91 8d 15 be 95 bd 53 3e 5c ff c1 be 1a 8a 5a 3e
       -0.14604785 0.20677789 -0.37890136 0.21341744
000230 86 71 90 bd 46 da dd 3c 23 3c 1b bd 8f f5 cf 3d
       -0.07052903 0.02708162 -0.037899148 0.101542585
000240 f7 1f 09 be c1 9a 65 3e cf 44 c7 bb ca 63 1a 3e
       -0.133911 0.22422315 -0.0060812007 0.15077129
000250 cc 13 64 be 52 c0 dc be fd 9b 98 3e 4f 46 84 be
       -0.22273177 -0.4311548 0.2980651 -0.2583489
000260 e8 cb 85 3d 09 46 4d 3e 26 dd 00 bf 46 51 5d 3d
       0.06533033 0.20046248 -0.50337446 0.054032587
000270 72 4c 89 be 19 35 25 3d f7 2b b0 be 5b 5b 7d 3e
       -0.26816136 0.04033384 -0.34408543 0.2474188
000280 08 4b 03 3e f7 82 87 3e 51 b7 c0 3e 90 98 cb 3d
       0.12821591 0.26467106 0.3763986 0.09941208
000290 20 de 2b be e5 76 72 bd dd 17 4e be 87 f9 92 be
       -0.16783953 -0.059195418 -0.2012629 -0.28706
0002a0 a3 f9 a5 3e ce 43 0a 3e 21 9e 26 3e 3c 0a 1c 3e
       0.3241702 0.13502428 0.16271259 0.15238279
0002b0 61 ac 61 3c 7e 16 a4 be b1 b0 d4 bd aa 84 84 be
       0.0137740085 -0.3204841 -0.10385264 -0.25882465
0002c0 9f d1 62 3e 5c 72 b5 bd 81 13 42 3e c0 cf ba bd
       0.22150277 -0.08859703 0.18952753 -0.091216564
0002d0 c0 ee f4 3d c1 52 86 be b2 7e 0c be 06 bc 11 3e
       0.119596004 -0.2623501 -0.13720205 0.14231881
0002e0 5e a9 8e be 8f ea 4a bd ba b3 6f be cb fb 3a 3e
       -0.27863592 -0.0495401 -0.23408404 0.18260114
0002f0 55 af 88 3e cc cd b4 be 3c c3 e9 3d 0a 3b 3d be
       0.26696268 -0.3531326 0.11414191 -0.18479553
000300 0c 3a 01 3e 31 f8 e4 bd 52 e9 cf bd 92 82 82 bd
       0.126198 -0.11180151 -0.10151924 -0.063725606
000310 62 ab a6 bd 68 71 ff bc d6 80 a1 3e d0 07 a8 3e
       -0.081381574 -0.031182006 0.31543607 0.3281846
000320 bf 40 4b 3d d7 45 3e 3c 6d 45 b8 3d 33 da 07 be
       0.049622294 0.011613331 0.08997617 -0.1326683
000330 7a 6a 4e 3e 1f fd a8 be 1f 41 1f 3e 2e 06 99 be
       0.20157805 -0.33005616 0.15552185 -0.29887527
000340 1d ec 86 3e 30 c2 83 3e 25 fc b2 be 7e b3 22 3e
       0.26352015 0.2573409 -0.34957996 0.15888783
000350 4d b1 2e be 79 fa 35 be 1b 5d d6 be 9c a2 95 bc
       -0.17059822 -0.17771329 -0.4186791 -0.018266015
000360 88 91 6e 3e 23 c6 80 3e 6a cb 8a be af ec be be
       0.23297703 0.25151166 -0.27108318 -0.3728995
000370 d3 ae 72 be 99 2c be bc 36 68 00 bf 27 31 08 be
       -0.23699503 -0.023214625 -0.50159013 -0.133
000380 5b 79 e3 bd 98 28 03 3e b0 56 00 3f 20 36 a1 bd
       -0.11107131 0.12808454 0.50132275 -0.07871652
000390 3f 38 b4 bd d8 7f 51 be 8a 1f a9 be 88 2c 0f 3e
       -0.087997906 -0.20458925 -0.33031875 0.13981831
0003a0 50 ec d5 be 1d b5 8c bd c5 a9 63 be 78 e2 d0 3e
       -0.41781855 -0.06870482 -0.2223273 0.40797782
0003b0 aa 26 50 be 8d 9a 2d 3e a8 15 32 be fc f9 ec 3d
       -0.20327249 0.16953488 -0.17391074 0.11571118
0003c0 aa 18 63 be ae 4f d2 3b 7d b5 8d 3e ff 38 8c be
       -0.22177377 0.00641819 0.27677527 -0.27387235
0003d0 08 4c 14 3c 36 6f e3 bc 6e fb 2c 3e 65 f8 ee bd
       0.00905133 -0.02776299 0.16892788 -0.11668471
0003e0 d9 37 a1 3e 19 09 b9 be 61 a5 10 3e 57 65 a4 3d
       0.3148792 -0.36139753 0.14125587 0.080271415
0003f0 a5 ba 0d be 4f 3c 0d 3e ef 57 84 3e 40 78 37 bd
       -0.1384073 0.13792537 0.25848338 -0.044792414

fc4.bias f4 [10]
000000 c5 6c 74 3d ef 07 59 3e cc af 17 3e 13 47 96 3d
       0.059674043 0.21194433 0.14813155 0.07337775
000010 ca 23 86 3e 31 b7 43 bd 8c 6f 3a 3d a7 22 23 3d
       0.2619918 -0.047782127 0.045516536 0.03982797
000020 f5 be 19 be 96 ce 55 3d
       -0.1501425 0.05219897
