mlops_project/models/checkpoint4.pth (torch_old, 445854 bytes, 8 tensors)

fc1.weight f4 [128, 784]
-0.027408725 -0.025551528 0.00026114658 0.032904696 -0.024931818 0.031800833 0.021212012 0.024743114
-0.009982919 -0.0016250089 0.019519191 -0.027289715 -0.01592038 -0.008931493 -0.019347882 0.005108293
-0.027663982 0.03197499 0.0020491257 0.00850974 0.028057981 0.010785941 0.03155167 -0.0030502118
-0.026822824 0.013452269 -0.010860555 0.0060998425 -0.031171383 -0.035371825 -0.0047975145 -0.015770713
0.03233443 0.03179084 0.020091072 0.007836703 0.008885227 -0.00038141757 -0.028501563 -0.020908395
-0.029634997 -0.001518257 -0.031922944 0.03525454 0.035438266 0.03247918 0.01843062 -0.016893554
-0.0010758378 -0.027922 -0.0042715445 0.0157578 0.021436855 0.016262766 0.0080982745 -0.019470287
0.0004143305 0.018909898 0.0048072897 0.019366696 -0.0033746585 0.008892719 -0.034406953 -0.027892902
0.026388966 -0.013961963 -0.03162207 -0.027855793 -0.014760729 -0.026995327 0.0075798556 0.0052614026
0.01166001 -0.0067696497 -0.03344495 0.013551816 0.0029831044 0.030013714 -0.02436778 -0.03468714
0.021995958 0.004540611 -0.015221197 0.027065467 0.024846457 0.024231583 -0.010566704 -0.015246805
-0.012187524 0.029794496 -0.01772397 0.026244044 -0.02374444 0.019985225 0.035355482 -0.021744525
0.007896654 0.004614778 -0.007294867 0.028958526 0.025281932 -0.027732152 -0.017425312 0.0086462535
-0.024241894 0.030734736 -0.022134416 -0.004264187 0.022123937 0.011364318 -0.02915999 0.0026159547
0.021585513 0.013902649 0.00037066266 -0.026061991 0.0076085106 0.032623094 0.034747597 0.011427261
0.03191847 0.012510739 -0.010009306 0.0145242885 0.00816736 0.032671165 0.0077398345 -0.012130734
-0.009360241 -0.019580854 -0.0351836 0.03100339 0.006755974 0.010246113 0.024835639 0.01309856
0.02631139 0.013644967 -0.019849194 -0.030502487 -0.023938274 -0.006362306 -0.018645037 -0.031781584
-0.009551769 -0.025198713 0.02854601 0.03150296 -0.03131927 0.016752932 -0.02200871 -0.027746275
-0.012951367 -0.027392402 0.00022608787 -0.03386891 -0.020825213 0.028094526 -0.020517677 -0.02672055
-0.0018887855 0.03367274 0.0058922432 0.021053508 -0.018526504 0.023667004 0.013880033 0.022143226
-0.03015382 -0.03258749 0.03356738 0.02488565 0.028369535 -0.02984738 -0.020580059 0.0074405298
0.029817421 -0.020106802 0.015281793 0.008441664 -0.02874128 0.0303916 0.030402828 0.010848008
-0.034229994 -0.0051579997 0.017092168 0.010575 0.0119999945 -0.003810536 0.012616307 0.000696145
0.008313898 0.012115374 0.004000481 -0.028300831 -0.016309692 0.03115866 0.019824486 0.0247419
-0.029907692 0.024646442 0.015650801 0.031641487 -0.018125165 -0.011023616 0.023122475 0.003695242
-0.022261884 0.027607743 -0.019329404 -0.031784523 -0.023173004 0.019228231 -0.0073343217 0.008605212
0.017041862 0.028523471 0.017498072 0.018663723 -0.011830607 -8.5271895e-05 -0.012580017 0.009121206
-0.006381307 -0.010131087 0.001779817 -0.00035383925 -0.028115828 -0.014428237 -0.007823179 0.006271109
0.01522753 0.0017212965 0.032326262 0.005603999 0.01160378 -0.024282759 0.035276618 0.016315408
-0.021326292 -0.030842356 0.023373138 -0.0058678947 -0.0073828734 -0.026438165 0.013705142 0.013560947
0.010905139 0.013367824 0.012942065 0.030823153 0.001935441 0.034342658 -0.0110796485 0.02377589
00000000: 4388 e0bc 7051 d1bc 80ea 8839 13c7 063d
00000010: d03d ccbc 9741 023d d0c4 ad3c 12b2 ca3c
00000020: 668f 23bc 40fe d4ba b6e6 9f3c ae8e dfbc
00000030: 756b 82bc 6655 12bc 737f 9ebc 7863 a73b
00000040: 939f e2bc 35f8 023d a04a 063b 706c 0b3c
00000050: dad9 e53c 84b7 303c 533c 013d 10e6 47bb
00000060: 8abb dbbc e866 5c3c 78f0 31bc 30e1 c73b
00000070: 215b ffbc 0ce2 10bd 7834 9dbb 9531 81bc
00000080: 1b71 043d 1d37 023d 0896 a43c 8465 003c
00000090: 5893 113c 00f9 c7b9 1c7c e9bc 1548 abbc
000000a0: 18c5 f2bc 4000 c7ba a2c1 02bd 1167 103d
000000b0: b727 113d e308 053d d0fb 963c 5a64 8abc
000000c0: 2003 8dba aebc e4bc 50f8 8bbb 8016 813c
000000d0: 589c af3c 7e39 853c a0ae 043c 2780 9fbc
000000e0: 803a d939 eee8 9a3c 7886 9d3b e8a6 9e3c
000000f0: 6029 5dbb c4b2 113c 4eee 0cbd a87f e4bc
00000100: ac2d d83c b8c0 64bc 2586 01bd d531 e4bc
00000110: fcd6 71bc 4e25 ddbc 7060 f83b d867 ac3b
00000120: a009 3f3c f0d3 ddbb 92fd 08bd 7008 5e3c
00000130: 3080 433b 52df f53c f09e c7bc 1a14 0ebd
00000140: de30 b43c 68c9 943b 5462 79bc 66b8 dd3c
00000150: cc8a cb3c 5081 c63c f81f 2dbc bccd 79bc
00000160: 2eae 47bc 9613 f43c dc31 91bc c0fd d63c
00000170: b383 c2bc 0eb8 a33c e9d0 103d 9321 b2bc
00000180: f860 013c 9037 973b c809 efbb 6e3a ed3c
00000190: 0e1c cf3c 8a2e e3bc 87bf 8ebc 04a9 0d3c
000001a0: f096 c6bc 6ac7 fb3c 3c53 b5bc 98ba 8bbb
000001b0: 423d b53c 6831 3a3c eee0 eebc 7070 2b3b
000001c0: 1ad4 b03c f0c7 633c 8055 c239 f57f d5bc
000001d0: d050 f93b cb9f 053d 7f53 0e3d 6839 3b3c
000001e0: f1bc 023d d8f9 4c3c 12fe 23bc 48f7 6d3c
000001f0: 64d0 053c 33d2 053d 709e fd3b fcbf 46bc
00000200: b25b 19bc 0768 a0bc ae1c 10bd d2fa fd3c
00000210: 3861 dd3b 50df 273c 1c74 cb3c 589b 563c
00000220: fc8a d73c 248f 5f3c c79a a2bc 5ae0 f9bc
00000230: 331a c4bc e47a d0bb 7abd 98bc 682d 02bd
00000240: 067f 1cbc 886d cebc 52d9 e93c 3f09 013d
00000250: a348 00bd 723d 893c 9c4b b4bc 284c e3bc
00000260: f831 54bc 0866 e0bc 0012 6d39 20ba 0abd
00000270: a399 aabc 7e26 e63c b014 a8bc 0ee5 dabc
00000280: 2091 f7ba 6dec 093d b813 c13b 6878 ac3c
00000290: e5c4 97bc 4ee1 c13c 1469 633c b665 b53c
000002a0: 2505 f7bc 767a 05bd f37d 093d fedc cb3c
000002b0: 3a67 e83c 7e82 f4bc 8397 a8bc b0cf f33b
000002c0: aa43 f43c 05b7 a4bc 7c60 7a3c e84e 0a3c
000002d0: d572 ebbc cef7 f83c 5a0f f93c d8bb 313c
000002e0: c034 0cbd 7004 a9bb e004 8c3c c442 2d3c
000002f0: a09b 443c 30ba 79bb a0b4 4e3c 807d 363a
00000300: 0437 083c 907f 463c 7816 833b 25d7 e7bc
00000310: e79b 85bc 7240 ff3c f666 a23c 86af ca3c
00000320: fa00 f5bc 56e7 c93c 1c36 803c 819a 013d
00000330: 3a7b 94bc 669c 34bc 586b bd3c e02b 723b
00000340: 8e5e b6bc a229 e23c b358 9ebc 7d30 02bd
00000350: 50d5 bdbc 8684 9d3c c054 f0bb e0fc 0c3c
00000360: 609b 8b3c 0eaa e93c 1e58 8f3c aae4 983c
00000370: 2ad5 41bc 00d4 b2b8 6a1c 4ebc 1c71 153c
00000380: 481a d1bb dcfc 25bc c048 e93a 8083 b9b9
00000390: 2a53 e6bc 6a64 6cbc ca2c 00bc e07d cd3b
000003a0: e47c 793c 209d e13a 8b68 043d c0a1 b73b
000003b0: c81d 3e3c a3ec c6bc 377e 103d e4a7 853c
000003c0: 7ab4 aebc 1ca9 fcbc 0679 bf3c 7847 c0bb
000003d0: 08ec f1bb da94 d8bc 888b 603c bc2e 5e3c
000003e0: 78ab 323c b804 5b3c f40a 543c d680 fc3c
000003f0: a0ae fd3a e3aa 0c3d 6a87 35bc a8c5 c23c

fc1.bias f4 [128]
0.001059603 -0.029860608 -0.010246128 0.019608293 0.015469246 0.01318099 0.0140044615 -0.0001562424
0.02331771 0.022740211 0.00090950355 0.0034915544 -0.030283699 0.027750153 -0.0133469235 -0.035635576
-0.0040068366 0.0008265339 0.008602321 0.031083029 -0.031445798 0.027684148 0.021318536 -0.020801835
0.014471773 0.028104637 0.016963873 -0.022265695 0.013813827 0.03301825 -0.012756795 -0.031055763
0.031422507 -0.0074557588 0.024391498 -0.023723846 -0.03545949 0.008437861 -0.017902648 -0.033791352
-0.032365125 -0.013646066 0.011980299 0.021635544 -0.02708123 0.029496666 0.0017762817 -0.0040010177
0.02546852 0.03294019 0.019234937 0.026303548 0.025099073 0.0076949038 -0.0016664825 0.0011689663
-0.02349023 0.032888856 0.0032224953 -0.017833268 0.0010964312 -0.02869885 -0.025451666 -0.03263351
0.03485101 -0.014418419 -0.03158856 0.027846772 0.014740601 -0.0073460806 -0.02704374 0.018441886
-0.021150641 0.031883303 -0.025966296 0.02015115 -0.024071693 0.002678357 -0.034833528 -0.01090043
-0.016043097 -0.031013127 -0.010636061 0.006019175 0.01039299 0.01406135 -0.0125348065 0.013918832
0.02512522 -0.02097356 0.0022508502 0.010952942 -0.0057230517 -0.026668578 -0.005273465 0.026456002
-0.01090043 0.0065096617 -0.035113975 0.02004987 -0.002421774 -0.015923854 -0.022922859 0.030321967
0.016288549 -0.029081661 -0.0014098249 -0.014070272 0.015417699 -0.0065550376 -0.0033618473 0.032969315
-0.028385649 0.010090735 0.01332064 -0.002971623 0.0041757785 -0.033976145 3.2056123e-05 0.029332038
-0.011297679 0.009586178 -0.0127250645 -0.0082533825 -0.005987022 0.029564437 -0.006937921 -0.0025744848
00000000: 60e2 8a3a 3c9e f4bc 60df 27bc 92a1 a03c
00000010: b872 7d3c 14f5 573c f872 653c 00d5 23b9
00000020: c804 bf3c ae49 ba3c c06b 6e3a 90d2 643b
00000030: 8515 f8bc 4a54 e33c 0ead 5abc 9cf6 11bd
00000040: c84b 83bb c0ab 583a c0f0 0c3c d6a1 fe3c
00000050: 4fcd 00bd dec9 e23c 36a4 ae3c 9c68 aabc
00000060: 041b 6d3c b23b e63c d2f7 8a3c 8c66 b6bc
00000070: 6453 623c 253e 073d e001 51bc a868 febc
00000080: e3b4 003d 704f f4bb aed0 c73c 8358 c2bc
00000090: f83d 11bd f43e 0a3c 93a8 92bc cd68 0abd
000000a0: 4b91 04bd c093 5fbc 0449 443c 063d b13c
000000b0: 75d9 ddbc fea2 f13c 20d2 e83a f81a 83bb
000000c0: 5ca3 d03c 4bec 063d 9692 9d3c 8a7a d73c
000000d0: 929c cd3c 8825 fc3b e06d daba 0038 993a
000000e0: 956e c0bc 77b6 063d 8030 533b 1317 92bc
000000f0: 20b6 8f3a da19 ebbc 0380 d0bc b7aa 05bd
00000100: efbf 0e3d 3c3b 6cbc 0263 01bd ea1e e43c
00000110: 9082 713c 64b7 f0bb d58a ddbc 7013 973c
00000120: 1c44 adbc 1198 023d 45b7 d4bc 0614 a53c
00000130: 0032 c5bc 6087 2f3b 9aad 0ebd b897 32bc
00000140: d06c 83bc 3e0f febc e042 2ebc 803c c53b
00000150: 5c47 2a3c 9461 663c ca5e 4dbc d00b 643c
00000160: 68d3 cd3c bed0 abbc 0083 133b f873 333c
00000170: 7088 bbbb 1078 dabc 08cd acbb 42ba d83c
00000180: b897 32bc 004f d53b acd3 0fbd a03f a43c
00000190: a0b6 1ebb be72 82bc b8c8 bbbc c665 f83c
000001a0: 906f 853c aa3c eebc e0c9 b8ba 0087 66bc
000001b0: 849a 7c3c a4cb d6bb 7052 5cbb d50a 073d
000001c0: 0589 e8bc 9c53 253c d03e 5a3c 90bf 42bb
000001d0: f8d4 883b 922a 0bbd 0074 0638 be49 f03c
000001e0: e619 39bc 580f 1d3c ca7c 50bc 3239 07bc
000001f0: c82e c4bb 1e31 f23c 8057 e3bb b0b8 28bb

fc2.weight f4 [64, 128]
0.03935141 0.018184066 0.05969695 -0.023253955 -0.018632427 -0.028861485 0.038097553 0.025170013
0.075530864 0.025695585 -0.057708442 0.01165504 -0.07454195 0.083176576 0.06926241 -0.08002216
0.062046446 0.007976681 0.02457901 0.06335559 0.008184455 0.028769322 -0.056157947 -0.00045108795
0.017686807 -0.039643515 -0.009200923 0.0048164874 -0.039770566 0.018922344 0.08061903 0.078883775
0.071501635 -0.006206639 0.007930286 0.07972919 0.07388168 0.05159352 0.08529974 -0.008474626
-0.08020842 0.05440917 -0.0033736005 -0.05045489 -0.07662069 -0.003979832 -0.010160424 -0.006061487
-0.03761014 -0.008232281 0.034163266 -0.01823268 0.04242257 0.062939815 0.011173479 -0.042703662
-0.080620274 0.03070677 0.016285054 -0.002794832 -0.0052338764 0.028874055 0.009469025 -0.07607445
-0.06280667 0.022821285 -0.06223643 -0.057879128 -0.05846349 -0.02858378 0.036200687 -0.023989111
-0.055959594 0.036503196 -0.0785593 -0.08180368 0.04377646 -0.039408397 -0.028300438 -0.044995017
0.035172597 0.011835352 -0.012734257 -0.0036941469 0.029103898 -0.008386977 -0.0038009956 -0.0054095685
0.012895688 -0.0582304 0.039127894 -0.04951374 0.038296707 -0.00050090253 -0.031497814 0.08562174
-0.07449782 0.037157603 -0.0073796734 0.034952074 0.0592644 -0.062418018 -0.019858792 -0.04708021
-0.026334457 -0.01873935 0.06121958 -0.018166907 -0.0030156672 -0.020146392 -0.06217622 0.06401626
-0.08517178 -0.022144899 0.017885245 0.0004977882 0.07006543 -0.08048981 -0.02028457 0.06872379
-0.049693324 0.0842481 0.0069945455 0.084099434 0.034276538 -0.011919968 0.055688687 0.060885616
0.022019029 0.06341823 -0.016700216 -0.00415013 -0.082924575 -0.0020266548 -0.056619707 0.016611993
-0.049342547 -0.08225158 0.07322986 -0.076738045 0.033114202 0.009906858 0.07791606 -0.027818847
0.009600304 -0.04276408 -0.008164026 0.011326373 -0.013675101 0.07458723 -0.034161285 0.07540152
0.08536146 -0.06936644 0.0098760575 -0.08214159 0.0011145175 0.032393806 0.058463596 0.03133417
-0.08052203 0.013294496 -0.0163043 -0.018037863 0.018161684 0.061741732 -0.038515463 -0.05024093
-0.024666928 -0.021618895 0.0129870325 0.024613552 -0.037782468 0.049515106 0.031915165 0.08594515
0.050311424 0.05541896 -0.06482554 0.0037068576 0.054087557 0.059464402 -0.07213535 0.07064701
-0.08412997 0.081677906 0.052879892 -0.033045437 0.07823404 -0.07141605 -0.019564264 -0.028768267
-0.08594399 0.044617184 -0.011759214 -0.041195687 0.062173285 -0.049344182 0.004853092 -0.0119781345
0.0030477643 -0.017430738 0.030733503 -0.020888075 0.058697976 -0.026655111 -0.04457809 -0.031680226
-0.050251402 -0.07974107 0.05743953 -0.08744368 -0.03846568 0.052623518 0.08575419 -0.059881967
0.06454275 0.07533742 -0.05244486 -0.0717967 -0.07617189 0.029439121 0.036486156 0.03921374
-0.029825903 0.02509904 0.010680728 -0.002618976 0.002971582 0.003802143 -0.08608034 -0.08616484
-0.059169002 -0.07077213 0.066252045 -0.033491783 0.06430028 0.047735147 -0.030471772 0.029130593
0.08557964 -0.08065346 -0.024644211 0.06709076 0.039111964 0.07663048 -0.01424697 -0.08315375
-0.028440703 0.08327895 0.06225363 0.024342038 -0.042893488 0.049836017 0.027163751 -0.04573384
00000000: f22e 213d c0f6 943c ca84 743d 147f bebc
00000010: 08a3 98bc ec6e ecbc 2e0c 1c3d 5831 ce3c
00000020: edaf 9a3d 8c7f d23c b05f 6cbd c8f4 3e3c
00000030: 73a9 98bd 7b58 aa3d 73d9 8d3d a9e2 a3bd
00000040: 6a24 7e3d a0b0 023c ec59 c93c 93c0 813d
00000050: 1818 063c a4ad eb3c e005 66bd 0080 ecb9
00000060: ece3 903c 3d61 22bd 78bf 16bc a0d3 9d3b
00000070: 76e6 22bd 0803 9b3c 971b a53d d18d a13d
00000080: 736f 923d 1061 cbbb 08ee 013c 0f49 a33d
00000090: 474f 973d ba53 533d a1b1 ae3d 28d9 0abc
000000a0: 5044 a4bd 26dc 5e3d a017 5dbb c9a9 4ebd
000000b0: 4feb 9cbd 4069 82bb e877 26bc 709f c6bb
000000c0: 170d 1abd b0e0 06bc c8ee 0b3d b45c 95bc
000000d0: 4ac3 2d3d 97e6 803d f810 373c 09ea 2ebd
000000e0: 3e1c a5bd c48c fb3c 3c68 853c 8029 37bb
000000f0: f080 abbb 4889 ec3c f823 1b3c eccc 9bbd
00000100: c9a0 80bd b4f3 ba3c a0eb 7ebd aa12 6dbd
00000110: 6a77 6fbd 8828 eabc 2c47 143d d084 c4bc
00000120: e335 65bd 6084 153d b3e3 a0bd b088 a7bd
00000130: f24e 333d b36a 21bd 52d6 e7bc b24c 38bd
00000140: 2411 103d 10e9 413c 58a3 50bc 8019 72bb
00000150: 4c6b ee3c 8869 09bc 201a 79bb c042 b1bb
00000160: 7048 533c 0083 6ebd 9244 203d ebce 4abd
00000170: 02dd 1c3d 004f 03ba da03 01bd 735a af3d
00000180: 5092 98bd 9232 183d 30d1 f1bb e829 0f3d
00000190: 3abf 723d 09aa 7fbd e8ae a2bc 2ed7 40bd
000001a0: 5cbb d7bc 4483 99bc 62c1 7a3d c4d2 94bc
000001b0: 80a2 45bb 0c0a a5bc 7eac 7ebd f51a 833d
000001c0: 8b6e aebd 3869 b5bc 1484 923c 007e 023a
000001d0: 777e 8f3d d7d7 a4bd d42b a6bc 0fbf 8c3d
000001e0: 3a8b 4bbd 458a ac3d 8032 e53b 533c ac3d
000001f0: 8e65 0c3d f84b 43bc d219 643d 3263 793d
00000200: 4061 b43c 6be1 813d e4ce 88bc d0fd 87bb
00000210: 5cd4 a9bd a0d1 04bb 11ea 67bd e015 883c
00000220: 691b 4abd 8473 a8bd 89f9 953d d628 9dbd
00000230: c2a2 073d 6050 223c 7592 9f3d 5ae4 e3bc
00000240: 984a 1d3c 6329 2fbd 68c2 05bc 4092 393c
00000250: 880d 60bc 31c1 983d b4ec 0bbd 1d6c 9a3d
00000260: fdd1 ae3d fe0f 8ebd 30cf 213c da39 a8bd
00000270: 0015 923a 5eaf 043d 8677 6f3d 4258 003d
00000280: bce8 a4bd 28d1 593c 9890 85bc 24c4 93bc
00000290: d0c7 943c e6e4 7c3d 64c2 1dbd 6fc9 4dbd
000002a0: 4c12 cabc 1c1a b1bc 90c7 543c 5ca2 c93c
000002b0: cac1 1abd 5ad0 4a3d 7ab9 023d 0304 b03d
000002c0: 5a13 4e3d fefe 623d 41c3 84bd c0ee 723b
000002d0: ea8a 5d3d f290 733d b3bb 93bd 61af 903d
000002e0: 554c acbd bf46 a73d 9698 583d a75a 07bd
000002f0: 2b39 a03d 9442 92bd 3c45 a0bc 6eab ebbc
00000300: 6703 b0bd 82c0 363d b8a9 40bc cfbc 28bd
00000310: 6aa9 7e3d 201d 4abd b006 9f3b f03f 44bc
00000320: 00bd 473b e8ca 8ebc d4c4 fb3c 781d abbc
00000330: 4a6d 703d d25b dabc 8497 36bd 20c3 01bd
00000340: 6ad4 4dbd 494f a3bd b645 6b3d ac15 b3bd
00000350: 308e 1dbd c28b 573d e59f af3d cb46 75bd
00000360: fd2e 843d 814a 9a3d 6cd0 56bd 260a 93bd
00000370: 0200 9cbd 502a f13c 8272 153d 969e 203d
00000380: 7455 f4bc 809c cd3c 38fe 2e3c 20a3 2bbb
00000390: e0be 423b 602d 793b e44a b0bd 3177 b0bd
000003a0: 325b 72bd faf0 90bd 27af 873d ae2e 09bd
000003b0: ddaf 833d ee85 433d f09f f9bc 48a3 ee3c
000003c0: 6144 af3d a42d a5bd a8e2 c9bc e166 893d
000003d0: de33 203d 71f0 9c3d 206c 69bc 834c aabd
000003e0: 7afc e8bc 278e aa3d aafd 7e3d f468 c73c
000003f0: 15b1 2fbd da20 4c3d 8486 de3c 6853 3bbd

fc2.bias f4 [64]
-0.0096156 -0.051705617 0.0051280037 0.024203196 0.015181713 0.022810653 -0.08807095 -0.03264304
0.075669475 0.016048305 -0.07164472 0.08205526 -0.07480234 -0.028080653 0.04774549 0.06386528
0.0060809776 -0.069865815 0.027841583 -0.020890377 0.073764764 0.02432593 0.032257944 -0.056364074
0.060967885 -0.027627584 0.042733483 0.08008791 -0.04123954 0.05898709 0.08227099 0.02002111
-0.023458935 -0.065648496 0.070715 -0.006828852 0.009278104 0.0802475 0.082426496 0.081263445
0.06724972 0.0132163465 -0.0037738904 0.054867513 0.009037517 0.065465175 0.08174313 -0.038068444
-0.014413118 0.04868854 -0.058012523 -0.04663257 -0.08767617 -0.045104556 -0.07960795 -0.0054156557
0.074321695 0.009243138 -0.014805302 -0.033819064 0.08584162 0.037955858 0.057162218 -0.08664469
00000000: c08a 1dbc 45c9 53bd d008 a83b c845 c63c
00000010: b8bc 783c 68dd ba3c 8b5e b4bd b5b4 05bd
00000020: 99f8 9a3d bc77 833c 78ba 92bd 970c a83d
00000030: f831 99bd 6609 e6bc c690 433d cdcb 823d
00000040: f042 c73b cf15 8fbd 0814 e43c 4c22 abbc
00000050: fb11 973d 2c47 c73c e820 043d 04de 66bd
00000060: 76b9 793d 3e53 e2bc 4e09 2f3d 2105 a43d
00000070: cbea 28bd 729c 713d b17d a83d 5003 a43c
00000080: f42c c0bc b872 86bd 07d3 903d 90c4 dfbb
00000090: 3003 183c cd58 a43d 39cf a83d 736d a63d
000000a0: 39ba 893d 6089 583c 6053 77bb c2bc 603d
000000b0: 1812 143c 9b12 863d f168 a73d a8ed 1bbd
000000c0: 0025 6cbc a26d 473d 8a9e 6dbd cb01 3fbd
000000d0: 908f b3bd 8ebf 38bd 7e09 a3bd d075 b1bb
000000e0: f935 983d 8870 173c f091 72bc dc85 0abd
000000f0: bbcd af3d 9a77 1b3d ee22 6a3d c572 b1bd

fc3.weight f4 [32, 64]
0.09143773 -0.027170882 0.0646307 0.116785794 0.08184521 -0.035208836 0.0267715 0.014774695
0.013489366 0.06325702 0.098181516 -0.035961643 -0.08537446 -0.023365408 -0.010884255 0.00533171
0.09414767 -0.1212655 0.008097708 0.081724 0.08880718 0.08977181 0.043375492 -0.07385862
-0.059539124 -0.042319357 -0.04969704 0.040323675 0.046938926 -0.0804867 0.0071204305 -0.123127446
0.045431867 0.020791814 -0.053452164 -0.11064525 -0.075215966 0.0074758977 0.103714466 0.026077718
0.08837256 -0.069136724 0.11877602 -0.114567906 -0.061723486 0.10694511 0.08656345 0.0074755102
0.03734912 0.044951364 -0.024948254 0.0020231605 -0.12465365 -0.07215595 0.1118601 -0.09900123
0.037449896 -0.02492489 -0.025612295 -0.059420064 0.08149707 -0.07494621 -0.058808744 -0.11250581
-0.10234679 0.053751826 -0.11304538 0.06392701 -0.042047635 -0.09434937 -0.057425708 -0.03464456
-0.10751398 -0.039953604 0.072649345 -0.059532627 -0.11002894 0.014649689 -0.012351349 -0.030808508
0.07967238 -0.020525083 0.08648911 -0.02336201 -0.11042613 -0.031183198 -0.062081516 -0.08487727
0.027580023 -0.022616342 -0.11303191 0.06414898 0.0009037703 -0.09097229 -0.055841416 -0.09491201
0.048165128 -0.12087114 -0.1075163 0.052124992 -0.043437704 -0.09325284 0.031313986 0.08818376
0.119852796 0.02235496 -0.027826086 0.0077080727 0.0286932 -0.089769825 0.03093715 -0.092369735
0.008623421 0.0842976 -0.06313543 0.03379053 -0.034159616 -0.07231693 -0.07866505 0.10889688
0.042906865 0.034777775 0.0818274 0.010435373 -0.07035701 0.12036526 0.04389769 0.015978113
0.034839317 -0.057207853 -0.045741275 -0.1030373 0.0676658 0.11834538 -0.051910028 0.03933251
0.08891457 -0.002228111 0.033843517 0.082015455 -0.00097185373 0.09008628 0.12205623 0.04346299
-0.103311226 0.073337436 0.053208664 -0.083623424 0.033457503 0.06698769 0.036754236 0.07163508
0.024325922 -0.09952065 -0.10360609 -0.05152926 0.064779505 -0.116277695 -0.08839865 -0.004173681
-0.012751386 0.052307934 -0.10194576 0.030116409 0.08839403 0.020234391 -0.038778707 -0.06706664
0.025634512 -0.10345943 -0.051074997 -0.079970166 0.05509889 0.080198854 -0.07568443 0.043516785
0.05211629 0.020049721 0.09441741 0.07668109 -0.057311773 -0.080782905 0.098830715 0.08332291
-0.09734386 -0.0028754175 -0.0032725781 -0.023078606 0.12111519 0.03584592 -0.122775614 0.053572133
-0.00210993 0.10574944 0.044892117 -0.024456203 0.0061873943 0.10120599 -0.11676484 -0.10511391
-0.0644885 0.10003373 0.07469523 0.12491234 -0.10592218 0.10850325 -0.09002632 -0.023505002
-0.070848435 0.12325361 -0.116252765 0.004331246 -0.110685214 -0.029966176 0.099250644 0.060149625
-0.050169215 -0.041273087 -0.016970918 -0.10848573 -0.10476029 -0.025121808 0.032938734 0.09983866
0.046987146 0.008665666 0.077348635 0.061317116 0.043718204 0.107872635 -0.11605798 0.11960131
-0.046098143 -0.059987918 0.0153954625 -0.06351875 0.04358557 -0.044346333 -0.030481622 -0.074667424
-0.06458746 0.044813424 -0.04663883 0.10813761 -0.095860675 -0.07379818 -0.11740711 -0.036078453
0.04735203 -0.036769703 -0.11145395 -0.017897323 0.045685276 0.051395968 0.0020177215 -0.03691061
00000000: b443 bb3d 7895 debc 1a5d 843d 642d ef3d
00000010: 769e a73d 2437 10bd e84f db3c 9011 723c
00000020: 8002 5d3c e68c 813d 6413 c93d 844c 13bd
00000030: ced8 aebd d068 bfbc e053 32bc a0b5 ae3b
00000040: 7ed0 c03d 0c5a f8bd 40ac 043c ea5e a73d
00000050: 8ae0 b53d 48da b73d 80aa 313d 3043 97bd
00000060: 4cdf 73bd 1057 2dbd 208f 4bbd 702a 253d
00000070: 0843 403d 36d6 a4bd 8052 e93b 3e2a fcbd
00000080: c416 3a3d 9853 aa3c a8f0 5abd fa99 e2bd
00000090: d40a 9abd 60f8 f43b 4068 d43d f0a0 d53c
000000a0: acfc b43d 8e97 8dbd d840 f33d 94a2 eabd
000000b0: c4d1 7cbd 0a06 db3d 2e48 b13d 20f5 f43b
000000c0: 64fb 183d ec1e 383d 4860 ccbc 0097 043b
000000d0: 6a4a ffbd 80c6 93bd e816 e53d 28c1 cabd
000000e0: 1065 193d 482f ccbc e0d0 d1bc 7462 73bd
000000f0: f0e7 a63d 667d 99bd 70e1 70bd 7269 e6bd
00000100: 329b d1bd e02a 5c3d 5684 e7bd 2aec 823d
00000110: 243a 2cbd 3e3a c1bd 3837 6bbd 74e7 0dbd
00000120: 4a30 dcbd 64a6 23bd 2ec9 943d 7cd8 73bd
00000130: da56 e1bd 4005 703c 505d 4abc 2062 fcbc
00000140: 462b a33d 3824 a8bc 3421 b13d b061 bfbc
00000150: 1827 e2bd e873 ffbc 3049 7ebd 22d4 adbd
00000160: 80ef e13c e845 b9bc 467d e7bd 8a60 833d
00000170: 00eb 6c3a ae4f babd f8b9 64bd 3a61 c2bd
00000180: cc48 453d 4a8b f7bd 8231 dcbd 0481 553d
00000190: bceb 31bd 58fb bebd 1843 003d b099 b43d
000001a0: 6275 f53d c021 b73c 88f3 e3bc 0094 fc3b
000001b0: 000e eb3c 3ed9 b7bd e86f fd3c 582c bdbd
000001c0: 4049 0d3c 38a4 ac3d 264d 81bd f067 0a3d
000001d0: f4ea 0bbd e61a 94bd 241b a1bd 5405 df3d
000001e0: 1cbf 2f3d 2473 0e3d 2095 a73d 20f9 2a3c
000001f0: 5617 90bd 1082 f63d 10ce 333d 88e4 823c
00000200: acb3 0e3d c852 6abd 345b 3bbd 3805 d3bd
00000210: 5e94 8a3d 105f f23d 9c9f 54bd 201b 213d
00000220: d818 b63d 8005 12bb 809f 0a3d b8f7 a73d
00000230: 00c4 7eba 287f b83d 9ef8 f93d 4006 323d
00000240: d694 d3bd f031 963d 54f1 593d c242 abbd
00000250: bc0a 093d d830 893d 9c8b 163d 6ab5 923d
00000260: 2847 c73c 7cd1 cbbd 6e2f d4bd 5810 53bd
00000270: 1eab 843d 0023 eebd 5a0a b5bd 60c3 88bb
00000280: 30eb 50bc d840 563d f0c8 d0bd b0b6 f63c
00000290: ee07 b53d 98c2 a53c 6cd6 1ebd 3c5a 89bd
000002a0: 78ff d13c 8ae2 d3bd 0434 51bd 66c7 a3bd
000002b0: 60af 613d 4c3f a43d 7000 9bbd a83e 323d
000002c0: e477 553d 503f a43c ea5d c13d fa0a 9d3d
000002d0: c0bf 6abd 8271 a5bd c267 ca3d 34a5 aa3d
000002e0: 385c c7bd 8071 3cbb c078 56bb 580f bdbc
000002f0: 3e0b f83d 2cd3 123d c871 fbbd 746e 5b3d
00000300: c046 0abb 2a93 d83d cce0 373d 6058 c8bc
00000310: a0bf ca3b 1645 cf3d 6822 efbd f645 d7bd
00000320: 8c12 84bd 7cde cc3d d0f9 983d 0ad2 ff3d
00000330: baed d8bd f436 de3d b85f b8bd 908d c0bc
00000340: fc18 91bd 646c fc3d ee15 eebd 20ed 8d3b
00000350: eeae e2bd a07b f5bc ec43 cb3d 745f 763d
00000360: 3c7e 4dbd f80d 29bd 9806 8bbc c42d debd
00000370: 908c d6bd 40cc cdbc c4ea 063d 3678 cc3d
00000380: 9875 403d 70fa 0d3c f668 9e3d a827 7b3d
00000390: dc11 333d 54ec dc3d ceaf edbd 88f1 f43d
000003a0: 68d1 3cbd e4b5 75bd 403d 7c3c 1e16 82bd
000003b0: c886 323d 80a4 35bd 98b4 f9bc 3ceb 98bd
000003c0: 6e46 84bd 488e 373d 5c08 3fbd 4077 dd3d
000003d0: 9a52 c4bd 8023 97bd 2473 f0bd 00c7 13bd
000003e0: 34f4 413d d49b 16bd f841 e4bd 689d 92bc
000003f0: 7c20 3b3d 9484 523d c03b 043b 942f 17bd

fc3.bias f4 [32]
0.05695203 -0.085807264 -0.0505649 -0.06636761 0.09732208 -0.0507607 -0.014046282 -0.06693603
0.058519438 0.11086562 -0.051174402 0.075214446 -0.09785481 -2.2619963e-05 -0.09282926 -0.100235686
0.018131673 0.12498811 0.019464374 -0.09136216 -0.06304982 -0.089933515 0.06601003 -0.010958582
-0.08390273 -0.07610299 0.06904589 0.07647428 -0.070317894 0.08278772 -0.09812851 0.02517584
00000000: 8846 693d b8bb afbd 241d 4fbd beeb 87bd
00000010: cc50 c73d 74ea 4fbd 6022 66bc c215 89bd
00000020: 14b2 6f3d 840d e33d 409c 51bd 080a 9a3d
00000030: 1a68 c8bd 00c0 bdb7 441d bebd 5e48 cdbd
00000040: e088 943c c4f9 ff3d c073 9f3c 161c bbbd
00000050: 4420 81bd 102f b8bd 4430 873d a08b 33bc
00000060: 32d5 abbd e2db 9bbd ee67 8d3d 8c9e 9c3d
00000070: d402 90bd 9c8c a93d 9af7 c8bd 903d ce3c

fc4.weight f4 [10, 32]
-0.007456869 0.059328184 0.147375 -0.1530111 -0.16721745 -0.06991134 -0.0077188164 -0.048432782
-0.044717506 -0.04862888 0.037309796 -0.1330955 -0.055033013 0.08346905 -0.008936867 0.12114848
0.16487537 0.02375491 -0.13489598 0.17043607 -0.13910805 0.15204789 0.1578453 -0.09166756
0.09058152 -0.119520426 0.031990737 -0.012868419 -0.0105673075 -0.039741173 -0.15142862 -0.17633484
0.15137492 -0.04035209 0.08759858 0.056658074 0.081560984 -0.041969806 0.025459081 0.026733175
-0.08272811 -0.15097176 0.016026154 -0.054356873 -0.11702861 -0.053793035 -0.000508368 -0.072352864
0.04733117 0.09691782 0.1257842 0.08062659 -0.15225397 -0.108997606 0.11499278 -0.09946441
-0.17126796 0.014515221 0.07650985 0.055973902 -0.020691305 -0.12718397 0.11333816 -0.021490887
-0.10738079 0.16170366 0.007333085 -0.08137741 -0.14843665 -0.15122144 -0.021988705 -0.13643874
0.034282073 -0.1226832 -0.013108641 -0.013600394 0.16641925 0.113296345 -0.008995816 -0.17346753
-0.0066289157 -0.16017552 0.12381373 0.14009897 0.027733281 0.07185367 -0.06796051 -0.078894936
0.10197218 -0.10016572 0.08952008 -0.0033088177 0.048881263 -0.01393877 -0.04993242 -0.09442169
0.10866101 -0.09568502 -0.09313604 -0.08146413 0.15263306 0.13909496 -0.12282984 -0.07504328
-0.050856262 -0.05163975 -0.1273254 0.1153004 -0.014835671 0.11319722 -0.030626625 0.11151461
-0.0024911165 -0.010595858 -0.08278227 -0.061876208 0.16964437 0.035737738 -0.07820167 -0.09817514
0.10689978 0.004945278 -0.15749966 0.08353977 0.00055509806 -0.09450356 0.1491689 0.048338324
-0.030178681 -0.12978236 -0.14476393 -0.07250219 -0.09448187 -0.0684218 0.041792393 0.061466455
-0.13245384 -0.1324755 -0.13535947 -0.065322496 0.16535793 0.023525149 -0.08595144 -0.0821578
0.024136975 -0.11695011 0.09185411 0.02191417 0.15574752 0.014330745 0.09501122 0.08766256
0.11763404 -0.096001476 -0.10246206 0.13674854 0.04025589 -0.06790409 0.09926136 -0.15330175
-0.17546318 -0.08548742 -0.062532686 -0.11046524 0.035485774 0.10906662 -0.0758013 0.014632359
0.03243117 -0.066716395 0.17454796 0.05495958 -0.0040491372 0.09885837 -0.1349557 -0.16678962
-0.073426366 0.128718 0.0500222 0.026931584 0.032564446 -0.13158086 -0.12967259 0.15719785
0.06107925 0.074981615 -0.026010185 0.0050299466 0.063100845 -0.03287317 0.13920473 0.16275029
0.0062695593 0.006728232 0.16210182 0.04618445 0.07644872 0.10644896 0.037898526 0.07828452
-0.12711225 0.0679037 -0.06561417 -0.028121576 -0.10696764 0.07539122 -0.1016724 0.15441476
-0.042057693 0.09983839 -0.07742315 0.16874544 -0.093905345 0.018475935 -0.0033251941 0.02828902
-0.13646767 -0.08588427 -0.16496639 0.090903744 -0.00080291927 0.11867605 -0.15008758 -0.16831198
-0.0029093325 0.10110669 0.08598657 0.021839574 -0.058621377 0.020356134 0.049664482 -0.12787636
0.04396923 0.1622646 0.0017380267 -0.0222549 -0.05913753 -0.07444516 0.020259991 0.07786609
-0.116624184 0.042963207 -0.05207797 -0.031110063 0.006870672 0.16538589 0.019705892 -0.07495697
-0.12143986 0.15298866 -0.015839845 -0.13939926 0.047938675 -0.016798854 -0.037301883 -0.017490998
00000000: c058 f4bb 1c02 733d 79e9 163e f1ae 1cbe
00000010: 0d3b 2bbe ad2d 8fbd 20ee fcbb 7461 46bd
00000020: b429 37bd 142f 47bd 28d2 183d 304a 08be
00000030: 4c6a 61bd d2f1 aa3d f06b 12bc b21c f83d
00000040: 17d5 283e a899 c23c 2c22 0abe cb86 2e3e
00000050: 5772 0ebe 71b2 1b3e 33a2 213e 34bc bbbd
00000060: ce82 b93d 20c7 f4bd b808 033d 10d6 52bc
00000070: 8022 2dbc a4c7 22bd 1b10 1bbe 1f91 34be
00000080: 0702 1b3e 3c48 25bd e266 b33d 4c12 683d
00000090: 7209 a73d 88e8 2bbd 908f d03c 88ff da3c
000000a0: 5b6d a9bd 5798 1abe 4849 833c 50a5 5ebd
000000b0: b2ac efbd 1656 5cbd 0044 05ba bd2d 94bd
000000c0: 54de 413d da7c c63d 93cd 003e 8e1f a53d
000000d0: 77e8 1bbe 233a dfbd 5681 eb3d ffb3 cbbd
000000e0: de60 2fbe 40d1 6d3c 32b1 9c3d e444 653d
000000f0: d080 a9bc 843c 02be d61d e83d a80d b0bc
00000100: 76ea dbbd a595 253e 604a f03b 33a9 a6bd
00000110: c7ff 17be cbd9 1abe a821 b4bc 99b6 0bbe
00000120: 5c6b 0c3d 5441 fbbd a0c5 56bc 30d4 5ebc
00000130: cf69 2a3e ea07 e83d 3063 13bc 79a1 31be
00000140: 6037 d9bb 0d05 24be 0e92 fd3d 1b76 0f3e
00000150: e830 e33c 0428 933d e12e 8bbd ab93 a1bd
00000160: cad6 d03d af23 cdbd 4e56 b73d c0d8 58bb
00000170: b837 483d 705f 64bc f085 4cbd 2960 c1bd
00000180: aa89 de3d 82f6 c3bd 1cbe bebd aad6 a6bd
00000190: d74b 1c3e e96e 0e3e 368e fbbd 4bb0 99bd
000001a0: a84e 50bd 3484 53bd 9761 02be 9e22 ec3d
000001b0: 5011 73bc f2d3 e73d b0e4 fabc c661 e43d
000001c0: 0042 23bb 409a 2dbc c089 a9bd e871 7dbd
000001d0: 41b7 2d3e bc61 123d 3228 a0bd 0c10 c9bd
000001e0: 46ee da3d 000c a23b 9747 21be e616 ab3d
000001f0: 0084 113a 158b c1bd bbbf 183e 68fe 453d
00000200: 4839 f7bc abe5 04be ff3c 14be 077c 94bd
00000210: b67f c1bd bb20 8cbd 802e 2b3d 40c4 7b3d
00000220: fba1 07be a8a7 07be ac9b 0abe cdc7 85bd
00000230: 9753 293e d0b7 c03c 4f07 b0bd 5942 a8bd
00000240: e8ba c53c 8a83 efbd 021e bc3d 5885 b33c
00000250: 477c 1f3e 80cb 6a3c 3e95 c23d 6e88 b33d
00000260: 1eea f03d 6c9c c4bd a1d7 d1bd cf07 0c3e
00000270: 5ce3 243d 4d11 8bbd 8a49 cb3d 22fb 1cbe
00000280: 9fac 33be 0714 afbd 2311 80bd 9a3b e2bd
00000290: 8859 113d 525e df3d b63d 9bbd 90bc 6f3c
000002a0: 8cd6 043d 9ba2 88bd b3bc 323e 4c1d 613d
000002b0: a0ae 84bb 4276 ca3d d431 0abe e6ca 2abe
000002c0: 9060 96bd a7ce 033e 14e4 4c3d a09f dc3c
000002d0: 4c62 053d 22bd 06be e4c8 04be 79f8 203e
000002e0: 3c2e 7a3d f68f 993d 5013 d5bc 40d2 a43b
000002f0: 043b 813d 04a6 06bd af8b 0e3e 03a8 263e
00000300: e070 cd3b 8078 dc3b 05fe 253e e82b 3d3d
00000310: 2691 9c3d ea01 da3d 7c3b 1b3d a253 a03d
00000320: b729 02be 1811 8b3d b960 86bd 385f e6bc
00000330: da11 dbbd b666 9a3d 9f39 d0bd e71e 1e3e
00000340: b044 2cbd 1278 cc3d 0790 9ebd 9bcb 2c3e
00000350: 7251 c0bd d85a 973c 80eb 59bb 60be e73c
00000360: 2ebe 0bbe 18e4 afbd f3ec 28be be2b ba3d
00000370: 007b 52ba 6e0c f33d 8fb0 19be fa59 2cbe
00000380: 80aa 3ebb 0611 cf3d ba19 b03d e8e8 b23c
00000390: f81c 70bd e8c1 a63c fc6c 4b3d 05f2 02be
000003a0: 1419 343d b128 263e 80ce e33a e84f b6bc
000003b0: 323a 72bd b476 98bd 48f8 a53c 4278 9f3d
000003c0: a9d8 eebd 30fa 2f3d b64f 55bd 88da febc
000003d0: 6023 e13b eb5a 293e 406e a13c 0a83 99bd
000003e0: 76b5 f8bd 0fa9 1c3e 90c2 81bc aebe 0ebe
000003f0: 585b 443d c09d 89bc dcc9 18bd 4849 8fbc

fc4.bias f4 [10]
-0.12029309 0.00020244718 -0.04003778 -0.0034351796 -0.1742797 0.026254922 -0.1449815 -0.045062125
0.08430062 0.13382198
00000000: 395c f6bd 0048 5439 a8fe 23bd c020 61bb
00000010: 6176 32be 9014 d73c 0876 14be 1093 38bd
00000020: cea5 ac3d a108 093e
