mlops_project/models/checkpoint.pth (torch_old, 438575 bytes, 6 tensors)

fc1.weight f4 [128, 784]
0	0x3cbdfa82	0.02319074
1	0xbc9c5597	-0.019083781
2	0x3d053ed7	0.032530632
3	0x3cbab4be	0.022791263
4	0xbcd2a1aa	-0.025711853
5	0x3cf72e06	0.030173313
6	0x3c6b94b4	0.014378715
7	0x3bd7d840	0.0065870583
8	0xbc2719b2	-0.010198997
9	0x3bcd35c0	0.006262511
10	0xbc43c52a	-0.011948863
11	0x3ca9b56e	0.020716395
12	0x3cba1fea	0.022720296
13	0x3a269a00	0.0006355345
14	0xbca968ac	-0.020679794
15	0xbcedec4c	-0.02904334
16	0xbce780ee	-0.02825972
17	0x3be27980	0.0069114566
18	0x3c751f74	0.014961112
19	0x3cc20d9e	0.023688134
20	0x3cd43f7a	0.025909174
21	0xbca7cd28	-0.020483568
22	0x3cb6e196	0.022324365
23	0x3c927448	0.017877713
24	0x3c9f99e8	0.019482568
25	0x3c9f45e2	0.019442502
26	0xbccb43cc	-0.024812602
27	0x3bea4150	0.007148899
28	0x3c6a7488	0.01431001
29	0xbbb958b8	-0.005656328
30	0xbc4a2278	-0.01233732
31	0x3af52c20	0.0018705167
32	0xbc873c93	-0.016508376
33	0xbc878b05	-0.016545782
34	0xbaf54560	-0.0018712692
35	0x3c9e1442	0.019296769
36	0x3b98dab0	0.0046647415
37	0x3b9513b8	0.00454947
38	0xbcf672ae	-0.03008398
39	0x3c739ec4	0.014869396
40	0xbcb4de45	-0.022078643
41	0xbcc014ba	-0.023447383
42	0x3d012485	0.03152897
43	0x3c9c44d2	0.019075785
44	0x3d0f4479	0.03497741
45	0xba4303c0	-0.00074392185
46	0xbc9f0e03	-0.019415861
47	0xbbfc8224	-0.0077059437
48	0x3a14c3c0	0.0005674921
49	0x3ca27cac	0.019834839
50	0xbc30940a	-0.010777483
51	0x3c4bb770	0.012433872
52	0xbd06af6c	-0.03288214
53	0x3b382620	0.0028098896
54	0xbb0da5d0	-0.0021613725
55	0xbc991585	-0.01868702
56	0x3c5b3ed4	0.013381679
57	0x3bad9c58	0.0052981786
58	0x3b57e4b0	0.0032942705
59	0x3d11f91d	0.035637964
60	0x3d0cb497	0.03435191
61	0xbbb50f1c	-0.005525483
62	0x3bc71868	0.0060759075
63	0x3d048b5f	0.032359477
64	0xbc92923c	-0.017891996
65	0x3bd26bd0	0.0064215437
66	0x3b476230	0.0030423515
67	0x3cbc6b50	0.02300039
68	0xbb8a65f0	-0.0042235777
69	0xbcf45faa	-0.029830772
70	0x3b591990	0.0033126809
71	0x3c10c1e8	0.008835293
72	0x3bcbd3d0	0.0062203184
73	0x3c90d898	0.017681405
74	0x3ce87bba	0.02837931
75	0x3c1d8260	0.009613603
76	0xbca893e8	-0.02057834
77	0xbc967b83	-0.018369442
78	0xbc6b6746	-0.014367884
79	0x3b3eab80	0.0029093921
80	0xbc73c2b8	-0.014877968
81	0x3c8c4790	0.017123967
82	0x3cba9e20	0.022780478
83	0xbd0e8b36	-0.03480073
84	0x3c360520	0.01110962
85	0xbca0f83c	-0.019649617
86	0xbc911f40	-0.017715096
87	0xbce0ce5e	-0.027442154
88	0xbc392272	-0.011299716
89	0x3d104ec3	0.035231363
90	0x3cb51938	0.022106752
91	0xbb7d6e50	-0.0038670488
92	0x3d049f2b	0.032378357
93	0xbca38427	-0.019960476
94	0xbcbc4ea5	-0.02298672
95	0x3ce3755e	0.027765926
96	0xbcb9a11e	-0.022659834
97	0xbd043d75	-0.032285172
98	0xbc148440	-0.009064734
99	0xbd0e8378	-0.034793347
100	0xbcb179dc	-0.021664552
101	0x3cdd929e	0.027047452
102	0x3c41c928	0.011827745
103	0x3ce6ae5e	0.028159317
104	0x3c5c9a80	0.01346457
105	0xbd005148	-0.031327516
106	0x3d08a9c7	0.033365037
107	0x3c0623bc	0.008187231
108	0xbd078475	-0.033085305
109	0x3b86e1b0	0.0041162595
110	0x3cc139b6	0.023587089
111	0x3ce88762	0.028384868
112	0xbc6a30ce	-0.0142938625
113	0x3d0de8a3	0.034645688
114	0xbba2b8f0	-0.004965894
115	0x3cd576ae	0.026057567
116	0x3cb15f68	0.021651939
117	0xbabd6ae0	-0.0014451407
118	0x3cc558e2	0.024090234
119	0xbce86c78	-0.028372034
120	0x3c42b7e4	0.011884663
121	0xbcce00cc	-0.025146864
122	0xbcc3089c	-0.023807816
123	0xbc9f1fe5	-0.019424388
124	0xbcba70d5	-0.02275888
125	0x3ce9a536	0.028521162
126	0x3c94de76	0.018172484
127	0x3bee3da8	0.0072705336
128	0xbcc04870	-0.02347204
129	0x3cc0568e	0.023478772
130	0x3cf88faa	0.030341942
131	0x3ac5ee40	0.0015100911
132	0x3d060bd9	0.032726143
133	0xbcf77b85	-0.030210266
134	0xbd0c1c8b	-0.03420691
135	0xbcea8853	-0.028629458
136	0x3c387240	0.011257708
137	0xbbc7dcd4	-0.006099323
138	0x3cc95e86	0.024581205
139	0x3c8957ac	0.016765438
140	0xbd12459b	-0.035710912
141	0x3c332438	0.010933928
142	0xbcb9073c	-0.022586457
143	0xbb881bd0	-0.004153706
144	0xbd05a937	-0.03263208
145	0xbc0b13b8	-0.008488588
146	0xbbbace08	-0.0057008304
147	0xbcec236a	-0.02882548
148	0x3caf407c	0.021393053
149	0xbbee8854	-0.007279435
150	0xbca94828	-0.02066429
151	0xbce7aae1	-0.028279724
152	0xbcb74dfe	-0.022376057
153	0x3c31bc44	0.010848109
154	0x3ca3e85e	0.020008262
155	0xbc594b20	-0.01326254
156	0xbcc770ae	-0.024345722
157	0xba485e80	-0.0007643476
158	0x3cfe2b52	0.031026516
159	0x3c604ae4	0.01368973
160	0x3c800b4c	0.015630387
161	0xbd012842	-0.031532533
162	0x3cffdbf2	0.031232808
163	0xbd0355c2	-0.032064207
164	0xbc9fa37a	-0.019487131
165	0xbc86aab7	-0.016438825
166	0xbcbee17a	-0.023300875
167	0xbcd650b5	-0.026161531
168	0x3c113584	0.008862857
169	0xbb9611c8	-0.0045797564
170	0xbbac3688	-0.005255524
171	0x39de6d00	0.0004242435
172	0xbc3da3b8	-0.011574678
173	0xbc5b746a	-0.0133944545
174	0x3c7f7320	0.015591413
175	0x3bd1bfc8	0.006401036
176	0x3caeec58	0.021352932
177	0x3bcb74f8	0.006209012
178	0x3c7bbc00	0.015364647
179	0x3ca10cc6	0.019659411
180	0x3d07157b	0.03297947
181	0x3ca6b160	0.02034825
182	0x3c517b9c	0.012785818
183	0x3bc593e8	0.0060295947
184	0x3b4ddad0	0.003141094
185	0x3c85c67a	0.016329993
186	0x3c4e2028	0.012580909
187	0xbc50130e	-0.0126998555
188	0xbd004176	-0.03131243
189	0xbae95720	-0.0017802455
190	0x3ccde06c	0.025131427
191	0x3cedbc02	0.029020313
192	0x3c3a51b4	0.011372019
193	0xbbfe64f8	-0.0077635013
194	0x3a8c6c60	0.0010713451
195	0xbc4a09aa	-0.012331406
196	0xbb26a410	-0.0025427379
197	0x3c99402e	0.018707361
198	0x3b811b80	0.003940046
199	0xbcdfbd08	-0.027311817
200	0x3d06a42f	0.03287142
201	0xbc7ba33c	-0.015358742
202	0xbc45e90a	-0.012079487
203	0xbd0410a6	-0.03224244
204	0xbcdf090c	-0.027225994
205	0xbc3d84fc	-0.0115673505
206	0xbcb35c9a	-0.021894742
207	0x39630f00	0.00021653995
208	0x3c2a14d8	0.010380946
209	0x3bc60e28	0.006044168
210	0xbc2135ca	-0.0098394845
211	0x3c76cf64	0.015064094
212	0xbced2b53	-0.028951323
213	0xbc7dfa9c	-0.015501644
214	0xbc81afca	-0.015830893
215	0x3c754968	0.014971115
216	0xbc8e1043	-0.017341739
217	0x3c99adba	0.018759597
218	0x3be007d0	0.006836869
219	0x3cde184e	0.027111199
220	0x3c3d20d0	0.011543468
221	0xbc2a1dae	-0.010383053
222	0xbbafcfe4	-0.0053653587
223	0xbc88ba30	-0.016690344
224	0x3ce6605a	0.028122116
225	0xbc8edb9c	-0.017438702
226	0xbc7cdb0a	-0.015433082
227	0xbcadc4ea	-0.02121206
228	0xbc7a1b4a	-0.015265295
229	0xbb75a210	-0.003748063
230	0xbcf126ba	-0.029437412
231	0xbcd8940e	-0.026437785
232	0x3d04b7d9	0.032401893
233	0x3c240748	0.010011502
234	0x3d0a7d99	0.033811186
235	0xbc4b2e46	-0.012401169
236	0xbb9f6b24	-0.004865067
237	0xbd057612	-0.032583304
238	0xbbfb3ea4	-0.0076673795
239	0xbbc36770	-0.0059632584
240	0xbd080bdd	-0.03321444
241	0xbc47949c	-0.012181427
242	0x3c7a9880	0.015295148
243	0xbc245c86	-0.010031825
244	0x3d0404b5	0.03223105
245	0xbb1d8850	-0.0024037547
246	0x3b34a4e0	0.0027564093
247	0x3bad0f08	0.005281333
248	0x3ce8a38e	0.028398301
249	0x3c785984	0.015158061
250	0x3cd80bde	0.026372846
251	0x3bc569a0	0.0060245544
252	0xbc8d160c	-0.017222427
253	0xbca5eeac	-0.02025541
254	0xbc994eee	-0.018714394
255	0xbc89df10	-0.016829997

fc1.bias f4 [128]
0	0xbca9dd60	-0.020735443
1	0x3c5e3d94	0.013564486
2	0xbc46ce12	-0.012134092
3	0x3d04e309	0.03244308
4	0x3ca0283a	0.019550432
5	0x3ca6f816	0.020381968
6	0x3c289a10	0.010290638
7	0xbcc401b8	-0.0239266
8	0x3cf3b28e	0.029748227
9	0x3cefd322	0.02927548
10	0x3c570b58	0.013125263
11	0x3b035860	0.002004169
12	0xbc7e9966	-0.015539503
13	0xbc55b6ce	-0.013044072
14	0x3c1656bc	0.0091759525
15	0xbc63d8e6	-0.013906693
16	0xbc6c1fee	-0.0144119095
17	0x3d083fc5	0.03326394
18	0x3d0511d1	0.032487694
19	0xbc4242ea	-0.011856774
20	0xbd1031bd	-0.035203684
21	0x3cb95f0e	0.022628333
22	0xbccdc040	-0.025116086
23	0x3c805ade	0.015668329
24	0xbd051384	-0.032489315
25	0x3cb88f36	0.022529226
26	0xbd0e522f	-0.034746345
27	0x3be82270	0.0070841834
28	0x3d0e934b	0.03480844
29	0x3caaceae	0.020850506
30	0xbbeaf414	-0.0071702097
31	0xbcc08de5	-0.02350516
32	0xbd04b51a	-0.032399274
33	0xbc5c2b8a	-0.013438115
34	0xbcde2858	-0.027118847
35	0x3cd1ddf6	0.025618535
36	0xbd072de3	-0.033002745
37	0x3b4003d0	0.0029299147
38	0xbcef8653	-0.029238855
39	0x3cd05670	0.025431842
40	0x3bba09b0	0.0056774244
41	0xbcbd451a	-0.02310424
42	0xbc27a198	-0.010231398
43	0xbcaddf90	-0.021224767
44	0xbc5251ce	-0.012836887
45	0xbc4549ce	-0.012041522
46	0x3cc46318	0.023973033
47	0xbccd92a0	-0.02509433
48	0x3cc35c7e	0.023847815
49	0x3cf23f36	0.029571157
50	0xbcb9ef6e	-0.022697177
51	0x3cb6f698	0.022334382
52	0x3bac1c30	0.0052523836
53	0x3c89d4c8	0.016825095
54	0xbc9cde60	-0.019149005
55	0xbc829fb3	-0.015945291
56	0xbbfee930	-0.007779263
57	0xbbdfb648	-0.0068271495
58	0x3c1d63fc	0.009606358
59	0xbc52360e	-0.01283027
60	0x3ada6220	0.0016661324
61	0xbcebd6d8	-0.028788969
62	0x3c98c088	0.018646494
63	0x3cf174ce	0.029474642
64	0x3c79f124	0.015255246
65	0x3d021c8f	0.031765517
66	0xbc03fa3c	-0.008055266
67	0xbb83b130	-0.004018925
68	0xbcc31e98	-0.0238183
69	0x3cd75230	0.026284307
70	0x3b8f0510	0.004364617
71	0x3cbaad48	0.022787705
72	0x3c26999c	0.010168459
73	0x3cd5b6de	0.026088174
74	0xbc8fc33e	-0.017549153
75	0x399acc80	0.00029525533
76	0x3d06dfff	0.032928463
77	0xbc079358	-0.008274876
78	0xbcec1a41	-0.028821113
79	0xbc21a42a	-0.0098658
80	0x3c3f5710	0.011678472
81	0x3c91c732	0.017795179
82	0xbcb98240	-0.022645116
83	0x3c1024f0	0.008797869
84	0x3b0e1f30	0.002168607
85	0xbcf24f1a	-0.029578734
86	0xbcfbfd73	-0.030760502
87	0xbce91b1a	-0.028455306
88	0xbcedd9f5	-0.029034594
89	0x3cbc3a7e	0.02297711
90	0xbbde1da4	-0.006778436
91	0xbd08fa74	-0.033441976
92	0x3ca59da8	0.020216778
93	0x3a806a40	0.000979729
94	0x3b24d930	0.0025153868
95	0xbbbbf4b8	-0.00573596
96	0xbca5f33e	-0.020257588
97	0x3c6b8fd4	0.014377553
98	0xbcee5a45	-0.029095778
99	0x3c514dd4	0.012774903
100	0x3cd145b2	0.025545929
101	0xbc4659a6	-0.012106335
102	0xba58a0c0	-0.00082637
103	0xbcb35333	-0.021890258
104	0x3cbcb290	0.023034364
105	0x3cc51658	0.024058506
106	0xbcab7e1c	-0.020934157
107	0x3c95f3de	0.018304761
108	0xbcbc232e	-0.022965994
109	0xbcc32caa	-0.023825008
110	0xbc2dff00	-0.010619879
111	0xbc4562dc	-0.012047496
112	0xbcd6bb15	-0.026212255
113	0x3ca64416	0.020296138
114	0x3d077687	0.03307202
115	0xbd00e9b0	-0.03147286
116	0xbc02057c	-0.007935878
117	0x3a8e03e0	0.0010834895
118	0xbc9f53b0	-0.019449085
119	0xbc592380	-0.013253093
120	0xbce97f0c	-0.028502963
121	0xbc91d5ec	-0.017802201
122	0x3ccec546	0.025240552
123	0xbcbd1d05	-0.023085127
124	0x3ce6d106	0.028175842
125	0x3cb06f4c	0.021537445
126	0xbb89aeb8	-0.0042017363
127	0x3c0bbee4	0.008529399

fc2.weight f4 [64, 128]
0	0xbb8e6e10	-0.0043466166
1	0xbabc4800	-0.0014364719
2	0xbb86b7e0	-0.004111275
3	0x3d412612	0.047155447
4	0x3d0012f8	0.03126809
5	0xbd3513a2	-0.044208176
6	0xbc1824c8	-0.009286113
7	0xbd888c5c	-0.066673964
8	0xbd8b3ac8	-0.06798321
9	0xbcc28584	-0.023745306
10	0xbd9624b2	-0.07331218
11	0xbbe8b8b0	-0.0071020946
12	0x3cb83900	0.022488117
13	0x3c2b3330	0.010449216
14	0xbda926e3	-0.0825937
15	0xbd52328d	-0.05131774
16	0xbd8a5958	-0.06755322
17	0xbd83ff39	-0.06445164
18	0xbd88e625	-0.066845216
19	0xbc665918	-0.014059328
20	0x3c9aa208	0.01887609
21	0x3d402816	0.04691323
22	0x3d443216	0.04789933
23	0xbd6ad44e	-0.057331376
24	0xbd4c2846	-0.049843095
25	0xbd5495e3	-0.051900756
26	0x3db05231	0.08609427
27	0xbdac6019	-0.08416767
28	0xbd962d72	-0.07332887
29	0x3d6a80f2	0.057251878
30	0x3d2c75a2	0.04210437
31	0xbd8d3762	-0.06895329
32	0x3d356d9e	0.044293992
33	0x3d186c46	0.037212633
34	0xbd9c345d	-0.07627175
35	0xbc8d91f0	-0.017281502
36	0x3cfd325c	0.030907802
37	0xbd259830	-0.04042834
38	0x3c518a88	0.012789376
39	0x3d6d4d7e	0.05793523
40	0x3cf063f8	0.029344544
41	0xbbddd620	-0.0067699105
42	0x3d09bc6c	0.03362696
43	0xbb19ec00	-0.0023486614
44	0xbdab3170	-0.08359039
45	0xba2b5480	-0.0006535724
46	0x3c43be48	0.011947222
47	0x3c95e26c	0.018296443
48	0xbdb30208	-0.08740622
49	0x3d6cf546	0.0578511
50	0xbda9ef60	-0.0829761
51	0x3b0f6da0	0.002188541
52	0xbc9395b4	-0.01801572
53	0x3d9cd143	0.07657101
54	0xbd952475	-0.07282344
55	0xbd0a7445	-0.03380229
56	0x3b9c0610	0.004761465
57	0xbb619400	-0.003442049
58	0x3d62a0f6	0.055329286
59	0x3d8034a9	0.06260044
60	0x3d93b4a7	0.07212191
61	0xbcce9938	-0.025219545
62	0xbdb380be	-0.0876479
63	0xbcd39608	-0.025828376
64	0x3d15358c	0.03642802
65	0x3da1bccb	0.078973375
66	0x3bea2fe0	0.0071468204
67	0xbd479359	-0.048724506
68	0xbd8238b4	-0.063584715
69	0xbd628992	-0.05530698
70	0xbac5b0c0	-0.0015082583
71	0xbc0e82b0	-0.0086981505
72	0xbd55b33a	-0.052172877
73	0xbcc872fc	-0.024468891
74	0xbb8f78d0	-0.0043784156
75	0xbd959f5e	-0.073057875
76	0xbc60ea78	-0.013727777
77	0xbda48662	-0.08033444
78	0x3ce68ed8	0.028144285
79	0x3d612652	0.054968186
80	0x3d3bd56a	0.045857824
81	0x3d0fcace	0.03510552
82	0x3dabd50f	0.08390247
83	0xbd8f47a2	-0.06996085
84	0x3da6393d	0.08116386
85	0xbd849a83	-0.06474783
86	0x3d573f66	0.052550696
87	0xbc9732b0	-0.018456787
88	0x3da0d79b	0.078536235
89	0x3d1a8f06	0.037734054
90	0xbda16011	-0.07879651
91	0x3c62b820	0.013837844
92	0xbc7d7440	-0.015469611
93	0xbc72f460	-0.014828771
94	0xbc3819e8	-0.011236645
95	0x3bf101e0	0.00735496
96	0x3d9dfbf5	0.077140726
97	0xbd0b80b4	-0.034058288
98	0x3d69f2d6	0.057116352
99	0xbd367fd3	-0.044555496
100	0x3c65afb8	0.014018945
101	0x3cec5ea8	0.02885373
102	0xbd09a108	-0.033600837
103	0x3d85d293	0.065343045
104	0x3bd81550	0.0065943375
105	0xbd8f26cc	-0.06989822
106	0xbd969004	-0.073516876
107	0x3cdaef88	0.026725546
108	0x3d7ec4c2	0.06219936
109	0x3db3424d	0.0875288
110	0x3c5e0d78	0.013553016
111	0x3c5f1278	0.013615243
112	0x3c2c5f30	0.010520741
113	0x3d1b6172	0.037934728
114	0xbd8f7694	-0.07005039
115	0x3cdb8c30	0.026800245
116	0xbd855e32	-0.06512107
117	0x3c0c2fb0	0.008556291
118	0xbd70e330	-0.058810413
119	0x3b914450	0.0044331923
120	0xbcfc27fa	-0.030780781
121	0x3c71f7c0	0.014768541
122	0xbcf7aef8	-0.030234799
123	0x3d3536ae	0.0442416
124	0xbc0346f8	-0.008012526
125	0x3bf38800	0.007431984
126	0x3c460be8	0.0120878
127	0x3b14b500	0.0022690892
128	0x3d351c42	0.044216402
129	0xbd2ed801	-0.042686466
130	0x3d3fe266	0.04684677
131	0x3db16e7d	0.08663652
132	0x3da1144f	0.07865202
133	0xbd580140	-0.052735567
134	0x3d480996	0.048837267
135	0x3ca0ee68	0.019644931
136	0xbbed0fa0	-0.0072345287
137	0x3d4d3f9a	0.050109483
138	0xbc96b5f4	-0.018397309
139	0x3d78fc8e	0.06078773
140	0xbc108278	-0.008820169
141	0xb967b600	-0.00022097677
142	0x3d8a67dd	0.067580916
143	0x3d27f7c2	0.041007765
144	0xbbe19aa0	-0.006884888
145	0x3ce9c7f8	0.028537735
146	0x3d55c39a	0.052188493
147	0xbd830c1c	-0.06398794
148	0xbbd45b10	-0.006480582
149	0xbda5f0ac	-0.08102545
150	0x3daeed19	0.085413165
151	0xbd894b36	-0.067037985
152	0xbc6fa5b8	-0.014626913
153	0x3ac4c480	0.0015012175
154	0xbd8bf669	-0.068341084
155	0xbc4f9d10	-0.012671724
156	0x3cba7a2c	0.022763334
157	0x3d9655f1	0.07340611
158	0xbdaa7e83	-0.083249114
159	0xbda76d92	-0.08175196
160	0xbc3df1c8	-0.01159329
161	0x3c604b28	0.013689794
162	0x3d9be655	0.07612292
163	0xbd97363c	-0.07383391
164	0xbd032aec	-0.032023355
165	0x3d85f9ff	0.065418236
166	0x3d52e9fe	0.051492684
167	0xbc1b63f8	-0.009484284
168	0xbcdc21a0	-0.026871502
169	0xbd58f89e	-0.052971475
170	0xbd4b9f70	-0.0497126
171	0xbd0777da	-0.033073284
172	0xbd1b08e3	-0.037850272
173	0xbbe05490	-0.006846018
174	0xbccf3410	-0.02529338
175	0xbb9976f0	-0.004683368
176	0xbc81895c	-0.015812568
177	0xbd9db4a9	-0.07700474
178	0xbdb4f432	-0.08835639
179	0xbd0d8ba4	-0.034557
180	0xbc1f2770	-0.0097139925
181	0x3b09ce40	0.0021027476
182	0xbd3d60eb	-0.046235006
183	0xbc4c2710	-0.012460485
184	0x3d98d525	0.07462529
185	0x3b6271e0	0.0034552738
186	0x3cdb25b8	0.026751384
187	0x3bfc3bd0	0.00769756
188	0xbca5bbcc	-0.02023115
189	0xbb881850	-0.004153289
190	0x3d723afe	0.05913829
191	0x3cd86b50	0.026418358
192	0x3c99507c	0.018715136
193	0xbda0b3fb	-0.078468286
194	0xbda34df8	-0.07973856
195	0xbdaf7a1e	-0.08568214
196	0xbbe22dd0	-0.006902434
197	0x3cf66b0c	0.03008034
198	0xbd61b16e	-0.05510085
199	0x3d56615e	0.05233895
200	0xbd8d4c6c	-0.06899342
201	0x3d61f5ce	0.05516606
202	0xbd489f33	-0.04897995
203	0x3daf0d85	0.085475005
204	0xbdb35b37	-0.08757632
205	0x3d31e9ae	0.043435745
206	0x3d8e95c9	0.06962163
207	0xbdabcfa0	-0.08389211
208	0xbc7aa1b8	-0.015297346
209	0xbd429ed5	-0.047514755
210	0x3d159334	0.036517337
211	0xbd575836	-0.05257436
212	0xbd29b9f1	-0.041437093
213	0x3d3a438a	0.045474567
214	0x3c9a5514	0.018839397
215	0xbd9f60c2	-0.07782127
216	0x3da15bc7	0.07878833
217	0xbd5e718d	-0.05430751
218	0x3d520cde	0.051281802
219	0xbcbd6898	-0.023121163
220	0xbdaa5ca2	-0.083184496
221	0xbdb4add5	-0.08822218
222	0x3cdffe24	0.027342863
223	0xbc6002a8	-0.013672508
224	0xbc8b438c	-0.016999982
225	0x3db2746b	0.08713611
226	0xbd0e904f	-0.034805592
227	0xbceea382	-0.029130701
228	0xbc11e258	-0.008904062
229	0xbd292132	-0.041291423
230	0x3d8cfc09	0.068840094
231	0xbd9ef3e2	-0.07761361
232	0xbd1f541e	-0.03889858
233	0xbc705c88	-0.014670499
234	0x3d9a4c05	0.07534031
235	0xbbf2c860	-0.0074091405
236	0xbda4768d	-0.08030424
237	0xbd70c85e	-0.058784835
238	0x3d6a66f6	0.057227097
239	0x3d9030e3	0.070405744
240	0xbccf6f5c	-0.025321655
241	0x3d1895a2	0.037252076
242	0xbc913cb0	-0.017729133
243	0x3c9e9180	0.01935649
244	0x3ce6bc5c	0.028165989
245	0x3ce63d98	0.028105542
246	0x3d95b293	0.07309451
247	0x3d1667de	0.03672015
248	0x3d90e7e5	0.0707548
249	0x3d008312	0.031375
250	0x3db42561	0.08796192
251	0x3d4c04fa	0.049809434
252	0xbc7a1838	-0.015264563
253	0x3cb26874	0.021778323
254	0xbdb125b4	-0.086497694
255	0x3c100ea8	0.008792557

fc2.bias f4 [64]
0	0x3d887b6b	0.06664165
1	0xbc6d08d0	-0.014467433
2	0xbd311e3d	-0.043241728
3	0xbb48cf80	-0.0030641258
4	0xbc7caa98	-0.015421532
5	0x3bee4f90	0.007272668
6	0xbda7363c	-0.08164641
7	0x3ce5ed00	0.028067112
8	0xbc4e95a8	-0.012608923
9	0xbd1c6b8b	-0.0381885
10	0x3dad2ee5	0.0845621
11	0xbcbe2b0c	-0.023213886
12	0x3b686ce0	0.0035465285
13	0x3d80163d	0.062542416
14	0xbd4549e0	-0.048166156
15	0xbdb3b1e3	-0.087741636
16	0xbc83821c	-0.016053252
17	0x3d903499	0.07041282
18	0x3db21ee9	0.08697302
19	0xbd79522a	-0.060869373
20	0x3cb16cd4	0.021658339
21	0x3c1b8bb0	0.009493753
22	0x3d7026c6	0.058630727
23	0x3b9e7c50	0.0048365965
24	0x3ce34a74	0.027745463
25	0xbd237fdc	-0.039916858
26	0x3c8e67dc	0.017383508
27	0x3d9686c5	0.07349924
28	0xbd9f7c0c	-0.07787332
29	0xbd15b8f7	-0.03655335
30	0x3ca1fa24	0.019772597
31	0xbc1b2568	-0.009469368
32	0xbcd45fb8	-0.025924549
33	0xbd17ccb9	-0.037060473
34	0xbcedf32c	-0.029046617
35	0xbd933c3d	-0.07189224
36	0xb87b9800	-5.9984624e-05
37	0xbbcb2cf0	-0.0062004253
38	0x3d74f79a	0.059806444
39	0x3daaa24d	0.08331738
40	0x3c64bd18	0.013961099
41	0xbda07ce2	-0.078363195
42	0x3c407f28	0.011749066
43	0x3d63501e	0.055496328
44	0x3d978ff1	0.074005015
45	0x3cf2ea7c	0.029652826
46	0xbdad673e	-0.084669575
47	0x3d69a8ca	0.057045735
48	0xbce73c7c	-0.028227083
49	0x3d2ae21a	0.041719534
50	0x3d976517	0.07392328
51	0xbd6f95e4	-0.058492556
52	0xbd9b9eaa	-0.07598622
53	0x3d2f204a	0.042755403
54	0x3d3fad4a	0.04679612
55	0xbd8ef72c	-0.06980738
56	0x3cd30354	0.025758423
57	0xbd9cc914	-0.0765554
58	0xbd5ff70e	-0.05467897
59	0xbd95aed1	-0.07308734
60	0xbb47b680	-0.0030473769
61	0x3c91b704	0.017787464
62	0x3d84f2e1	0.06491638
63	0xbd6b7332	-0.057482906

fc3.weight f4 [10, 64]
0	0x3dcf1212	0.101108685
1	0x3df48938	0.11940235
2	0x3d193268	0.037401587
3	0xbda4cf04	-0.080472976
4	0xbd50d47c	-0.05098389
5	0x3c8c2488	0.017107263
6	0xbca97a08	-0.020688072
7	0xbd55d2ec	-0.052203104
8	0xbcbc62f0	-0.022996396
9	0x3d0ae4b8	0.03390953
10	0xbd25b8d0	-0.040459454
11	0x3dc5ed06	0.09664349
12	0xbd5a88e8	-0.05335322
13	0xbd0ae708	-0.033911735
14	0xbcf6e5f0	-0.03013894
15	0x3dab35da	0.08359881
16	0xb90f1000	-0.00013643503
17	0xbd91920c	-0.07107934
18	0x3dbcd23a	0.09219785
19	0xbc66c910	-0.014086023
20	0xbce00180	-0.027344465
21	0x3ce9b5a0	0.028528988
22	0xbdaa4440	-0.08313799
23	0x3d8d26b6	0.06892149
24	0xbdeb81e8	-0.11499387
25	0xbd72f06c	-0.059311315
26	0x3cc0a3f8	0.023515686
27	0x3da5c0fc	0.080934495
28	0x3d261884	0.040550724
29	0x3dd2a6f6	0.102857515
30	0xbd4f0fdc	-0.050552234
31	0x3cde6cd0	0.027151495
32	0xbc520450	-0.012818411
33	0x3b126980	0.0022340715
34	0x3df95752	0.12174858
35	0x3d7c9e50	0.061674416
36	0xbd6b0204	-0.05737497
37	0xbd935300	-0.07193565
38	0x3dc3beb4	0.09557858
39	0x3c53a120	0.012916833
40	0xbc9aa990	-0.018879682
41	0x3dc0798a	0.09398182
42	0x3ded1906	0.115770385
43	0xbdfad978	-0.1224851
44	0x3dbb7e42	0.09154941
45	0x3d8801c0	0.06640959
46	0x3d56ad94	0.05241163
47	0x3c865700	0.016398907
48	0x3d915f48	0.070982516
49	0x3dfcbf60	0.123411894
50	0xbdad238e	-0.08454047
51	0x3d6da3ec	0.058017656
52	0x3dcf6a62	0.10127713
53	0xbcd8e708	-0.026477352
54	0xbdae20a8	-0.085023224
55	0x3db469e0	0.088092566
56	0xbdb8adaa	-0.09017499
57	0xbd6ae784	-0.057349697
58	0x3dbe0ca2	0.09279753
59	0xbd915662	-0.07096554
60	0xbd60fb84	-0.054927364
61	0xbc4b2460	-0.012398809
62	0x3cb7cc88	0.022436395
63	0xbd031430	-0.032001674
64	0xbc8bd9e8	-0.01707168
65	0xbd429ec4	-0.047514692
66	0x3d08f080	0.033432484
67	0xbd2cf2d0	-0.04222375
68	0x3d5e84e4	0.054325953
69	0x3dfd1dc6	0.123591945
70	0x3c010820	0.007875472
71	0x3d4bfb24	0.049800053
72	0x3cd4c510	0.025972873
73	0xbb4321c0	-0.0029774755
74	0x3dbe6512	0.092966214
75	0x3be21b20	0.006900206
76	0x3de425a2	0.111399904
77	0xbdf46f54	-0.11935297
78	0xbce097e8	-0.027416185
79	0xbd8a4cc2	-0.06752922
80	0xbdc61094	-0.09671131
81	0xbd60f3ec	-0.054920122
82	0x3c422750	0.011850193
83	0xbd87ff4c	-0.06640491
84	0xbd65a100	-0.056061745
85	0x3de673d8	0.11252564
86	0x3dab6590	0.08368981
87	0xbb793780	-0.0038027465
88	0xbd741608	-0.059591323
89	0x3cc8e230	0.024521917
90	0x3df469b8	0.11934227
91	0xbdc5a702	-0.09650995
92	0x3df18ce8	0.11794454
93	0x3dc0e5c0	0.09418821
94	0xbb89d6a0	-0.0042064935
95	0x3db3eada	0.08785029
96	0x3dcd7630	0.10032308
97	0xbdae589c	-0.08512995
98	0x3de46dc8	0.111537516
99	0xbbd635c0	-0.006537169
100	0x3ca466b0	0.020068496
101	0xbc962c30	-0.018331617
102	0xbcd1fa90	-0.025632173
103	0xbc35c920	-0.011095315
104	0x3d72ea00	0.05930519
105	0x3dc20614	0.094738156
106	0xbc2a86b0	-0.010408089
107	0xbcc5a240	-0.024125218
108	0xbdb23f8e	-0.08703528
109	0x3d1b2ccc	0.03788452
110	0x3d2c48e4	0.0420617
111	0xbd13ebcc	-0.036113545
112	0x3d8b16d0	0.067914605
113	0x3c8f12c0	0.017464995
114	0xbd3cbbbc	-0.046077475
115	0xbd61460c	-0.054998443
116	0xbc143140	-0.009044945
117	0x3d0fe020	0.03512585
118	0x3caa37e0	0.020778596
119	0x3db04e18	0.08608645
120	0xbd8fd676	-0.07023327
121	0xbd9aa00a	-0.07550056
122	0xbc722b20	-0.01478079
123	0x3cefd710	0.029277354
124	0xbd41b488	-0.04729131
125	0x3dda4a16	0.10658662
126	0xbc936e50	-0.017996937
127	0xbdbd28fe	-0.09236334
128	0x3d5bce68	0.05366364
129	0x3da9be20	0.082882166
130	0xbd8af8f6	-0.06785767
131	0x3d7664e0	0.060154796
132	0xbcdf3138	-0.027245149
133	0xbd4e7dc4	-0.05041291
134	0xbd292518	-0.04129514
135	0x3dd89cfc	0.105768174
136	0xbd798d74	-0.060925916
137	0x3d917b62	0.071036115
138	0x3c877db0	0.016539425
139	0xbad91280	-0.00165613
140	0xbd2df2a0	-0.042467713
141	0x3d8d1dbc	0.06890437
142	0x3b8e68a0	0.0043459684
143	0xb87f9000	-6.0930848e-05
144	0x3dd04410	0.10169232
145	0x3d21b8cc	0.039482877
146	0xbd7d5700	-0.061850548
147	0x3ce0c708	0.027438655
148	0xbd82f86a	-0.063950375
149	0x3dbb68e8	0.09150869
150	0x3db95582	0.090495124
151	0xbdf9d318	-0.12198466
152	0x3de0b648	0.109722674
153	0xbdf99d9a	-0.12188263
154	0xbd95ee9c	-0.07320902
155	0xbdffee08	-0.12496573
156	0xbd598784	-0.053107753
157	0x3df6ae28	0.120449364
158	0x3df39634	0.11893883
159	0xbdc9df30	-0.09857023
160	0xbd98b6cc	-0.07456741
161	0x3dd5c71a	0.10438366
162	0x3d9cb8ae	0.07652412
163	0xbd3dfa80	-0.046381474
164	0xbddb6106	-0.10711865
165	0x3d820b2c	0.06349787
166	0x3dcbecde	0.09957288
167	0x3b589d00	0.0033052564
168	0xbdacd294	-0.08438602
169	0xbd115b08	-0.035487205
170	0xbd473ec8	-0.048643857
171	0x3cccc968	0.024998382
172	0xbd9108ba	-0.070817426
173	0xbdd13c2a	-0.102165535
174	0x3de9c832	0.11415137
175	0x3df4fda4	0.119624406
176	0x3d97816e	0.07397734
177	0x3aa28000	0.0012397766
178	0x3df53356	0.11972682
179	0x3d3ceed8	0.046126217
180	0x3d652e20	0.05595219
181	0xbdb45462	-0.08805157
182	0xbd3232f0	-0.04350561
183	0xbd77d908	-0.06050971
184	0xbd271c44	-0.04079844
185	0x3de836de	0.1133859
186	0x3db3aaa8	0.087727845
187	0x3cfddeb8	0.03098999
188	0xbd9e2ce2	-0.077234045
189	0x3c921340	0.017831445
190	0x3d7ce0ec	0.06173794
191	0x3cdf9688	0.027293459
192	0x3de9140c	0.11380777
193	0x3dbb164c	0.09135112
194	0x3c6541a0	0.013992697
195	0x3d3abe20	0.045591474
196	0x3d9270e6	0.0715044
197	0xbdf2ab68	-0.118490994
198	0x3dcddb4e	0.10051595
199	0x3deb09c2	0.114764705
200	0xbd2ae504	-0.041722313
201	0xbd64cddc	-0.055860385
202	0x3d526a80	0.051371098
203	0xbde2bb00	-0.11070824
204	0x3db9791e	0.090563044
205	0xbd04ed78	-0.03245303
206	0x3d98d814	0.07463089
207	0xbd9206a0	-0.0713017
208	0x3d4119e4	0.04714383
209	0xbdce8b64	-0.100851804
210	0x3c97ee90	0.018546373
211	0x3df37c02	0.11888887
212	0x3dcb17dc	0.0991666
213	0x3de79e2a	0.11309464
214	0x3dbdc2c8	0.09265667
215	0x3dab66f6	0.083692476
216	0xbbe8ed20	-0.0071083456
217	0x3d1bbe7c	0.038023457
218	0x3d4ece44	0.05048968
219	0xbdc4b664	-0.09605101
220	0xbba16a00	-0.0049259663
221	0xbd09cee8	-0.033644587
222	0x3d258300	0.040408134
223	0x3df9d046	0.12197928
224	0x3d2c1584	0.042012706
225	0x3c983810	0.01858142
226	0xb8ed5000	-0.00011315942
227	0xbddd89f6	-0.108173296
228	0x3dbd471c	0.09242079
229	0xbd6c25fc	-0.057653412
230	0xbd6a19bc	-0.05715345
231	0x3da2c34c	0.07947406
232	0xbdfcc856	-0.123428985
233	0x3dc52c06	0.096275374
234	0x3d933e26	0.07189588
235	0xbd4bcea0	-0.0497576
236	0x3d8aba9c	0.06773874
237	0x3c5ffc30	0.013670966
238	0x3d1379bc	0.036004767
239	0xbcab1120	-0.02088219
240	0xbdf16fa8	-0.11788875
241	0x3d88f248	0.066868365
242	0xbd1cf500	-0.038319588
243	0xbde2754c	-0.11057529
244	0xbd426320	-0.047457814
245	0x3d85be8a	0.06530483
246	0x3dd399ea	0.10332091
247	0xbd9e9e76	-0.07745068
248	0x3cd71448	0.026254788
249	0x3d87d894	0.06633106
250	0xbcef2330	-0.029191583
251	0x3c1ef9d0	0.009703115
252	0x3df1770a	0.11790283
253	0x3d2e5ac8	0.042567044
254	0xbdac5864	-0.08415297
255	0xbd3617fc	-0.044456467

fc3.bias f4 [10]
0	0x3d8a9740	0.0676713
1	0x3d9165ce	0.07099496
2	0xbdb6458e	-0.08899985
3	0xbd895fd0	-0.06707728
4	0x3dc2660c	0.0949212
5	0xbcec23a8	-0.028825596
6	0xbdbaec16	-0.09127061
7	0xbdf99b36	-0.12187807
8	0xbdebf33a	-0.11521001
9	0xbd919b9a	-0.07109757
