mlops_project/models/checkpoint3.pth (torch_old, 445854 bytes, 8 tensors)

fc1.weight f4 [128, 784]
00000000: b03f 80bc 3474 493c 0a7d cc3c 6225 ab3c
00000010: cf38 0abd 5cbd 78bc e09f 30bb 70e5 a8bb
00000020: 7c71 55bc 61b2 053d 5c5e 3d3c 7ecb 9a3c
00000030: 7c30 f0bc d22f 00bd f494 4c3c e0b1 26bb
00000040: 4dda a5bb 243e cebd 88b5 90bd 748e fb39
00000050: c6d2 f63c a2cc e83c c1d2 36bd 5c60 aebb
00000060: 8ada c1bc eced e2bc 00e0 5db7 5895 d7bc
00000070: aefb e8bc 1cb4 adbb 566d ad3c a07c ce3a
00000080: 28d2 ffbc 4a5d b63c 00bf e33a c452 7c3c
00000090: ba0c b83c a664 e03c cde3 c6bc 03d0 1bbd
000000a0: fbb7 a4bc 4350 3c3c 6f27 c23d 0204 e1b9
000000b0: 0542 23be eca4 8dbd 1570 60bd 8310 4fbd
000000c0: 24f2 25bd a14d 43bd d1b0 0abd 3751 8cbc
000000d0: 0511 0ebd 30c7 19bb 7016 633c 7119 f7bc
000000e0: 0e88 61bc b8e0 a83b 62e2 dc3c e60a 42bc
000000f0: 0b6c 0dbd b8d9 1dbc b297 983b 48f9 2ebd
00000100: fa2f 0dbd c052 a3bd 73c7 ba3c cdef afbd
00000110: 7ffb 97bd f6ed 493d e299 ef3d 5683 13bd
00000120: c39b 2bbd 28ae 9dbd b60c f7bd ba7e b43c
00000130: 4355 a03d 086f ba3d 120d 0c3e 8483 2b3e
00000140: 1812 573c 5c7d 123c b5f0 f4bc 0017 27bb
00000150: 1eca a23c d81b 693c 38ca 78bc e6fd 42bc
00000160: e116 403b 4cac ec3b 8b10 0ebd 239a bcbd
00000170: ee9d c7bd b7aa edbd 8bbf 6c3d 47c0 aabc
00000180: 9aec 3ebd 012c 33bd 20c9 fd3b 01d7 9c3d
00000190: 14a8 40bb 6a9a 26bd c723 c2bc b6d9 80bd
000001a0: 6564 c63c 43ca fd3c 9d97 f23d d10b af3d
000001b0: 1bdb 07be 6146 28bb 305f ac3c 6446 573c
000001c0: 083c 04bd b264 f23c eae1 61ba 2f0b 293c
000001d0: 40ca 103d 1d34 17be 476f f2bd c7b3 d8bc
000001e0: 707b 263d c13e eebc fd06 9c3d dc02 943d
000001f0: 378b a43d 57db 303d 77b7 e43c 39a4 f13c
00000200: 4fab 3dbd be59 8f3c ec77 4c3a 94f5 353c
00000210: c020 e4bc a299 9f3b b91c c4bc 8c54 873c
00000220: 00e6 ad3d 7195 aa3d 42a3 03be 80be 2bba
00000230: 9c94 7dbc 1857 babc 6a99 8b3c 2467 17bc
00000240: 4b58 683d 5716 30bc e062 b2bc b802 923c
00000250: c283 6f3c 7319 57bb 0f7b ba3d 86d7 e13d
00000260: bb36 5d3d 6564 c33c a0f8 cebc 1c67 61bc
00000270: 45b2 6abb afe9 053d 3ba8 49bc 83b7 e33c
00000280: 6a19 473a 4879 973d e27b a43d d957 293d
00000290: 10ab 913c a3b5 15bc c273 16be ee1c babc
000002a0: 43a0 c4bc 9d6b 073d 7370 a0bc f182 a63c
000002b0: b50d 1e3d ec83 c6bd cf41 9dbc 868b dc3c
000002c0: 6c95 18bd f7d3 913d 9af1 783d 1dc3 9c3d
000002d0: 406a 373d de20 183c 4831 013c 0c2f 273d
000002e0: 6d1f aa3c d744 95bc 7c2c 44bc 7dc5 d83d
000002f0: 4cbb bdbd 53e7 ed3b a881 383d 5ff8 d63d
00000300: b0a2 323e 55f0 b1bd 7c42 183e 3a8c a8bc
00000310: 4846 e4bc d86b 2cbd c025 c63d 96c4 fb3c
00000320: 26e9 373d a2f8 883d 77f4 353d a803 1c3d
00000330: 467b fc3d a372 253e 5aa7 c1bb 8f46 a13d
00000340: 60e2 4c3d cd94 403d 017f 4a3d 1968 b63d
00000350: 1814 f83c 308b 80bc 1a3c 1e3d 10a7 013e
00000360: 74dd 053d 0639 85bd fdc8 6d3d 8704 793d
00000370: 8fcd 7c3d b075 9c3d 1450 423d e8b8 f4bc
00000380: 9c06 5abc b0f1 cfbd 3af6 003e f7f5 643d
00000390: 093f 143d 352b db3d ce61 273d 1a5b a23d
000003a0: 7b42 ff3d 93c7 b53d d13f 83bb af69 033d
000003b0: 5bc2 0a3d 00f6 b23c 3727 113d 3c28 363d
000003c0: aa77 7d3d b98a 473d cd7e 7c3c 1dd0 c43d
000003d0: 7e83 1d3d 4327 c6bc 8bbe 4ebd 4ab2 8a3d
000003e0: 5d03 003e 16ae a43d 9c66 6b3c 98b7 903b
000003f0: 44c9 7d3d 36e0 96bd e88a 033e a206 dc3d
-0.015655369 0.012295771 0.024961967 0.020891849 -0.033745583 -0.015181866 -0.0026950762 -0.005154304
-0.013027545 0.03264082 0.011558142 0.01889586 -0.029319994 -0.031295605 0.012486685 -0.0025435612
-0.005061424 -0.10070446 -0.07065874 0.00047980587 0.030129801 0.028417889 -0.044634584 -0.0053215455
-0.023663778 -0.02770134 -1.3224781e-05 -0.02631633 -0.028440323 -0.0053010117 0.0211703 0.0015753694
-0.03122814 0.02226128 0.0017375648 0.015400592 0.022467006 0.027391743 -0.024278546 -0.038040172
-0.02010726 0.011493745 0.094801776 -0.0004291833 -0.15943153 -0.06916222 -0.05479439 -0.050552856
-0.040514126 -0.047681455 -0.03386003 -0.01712857 -0.0346842 -0.0023464672 0.01386033 -0.030163499
-0.013765348 0.0051537417 0.026963416 -0.011843419 -0.034526866 -0.009634428 0.0046567554 -0.042718202
-0.034469582 -0.07974768 0.022800183 -0.0859066 -0.07421016 0.049299203 0.11699273 -0.036013924
-0.041896593 -0.07699233 -0.12062971 0.022033084 0.078287624 0.09103209 0.13676861 0.16749388
0.0131268725 0.008941021 -0.029899934 -0.0025495887 0.019871768 0.01422783 -0.015184931 -0.011901354
0.0029310512 0.007222688 -0.034683745 -0.09209087 -0.097469196 -0.11604827 0.057799857 -0.020843638
-0.04661236 -0.043743137 0.0077449232 0.07658196 -0.0029397057 -0.040674604 -0.0236987 -0.06291525
0.024217794 0.030980235 0.11845324 0.08547176 -0.13267176 -0.0025676715 0.021041483 0.013139341
-0.032283813 0.02958903 -0.00086167327 0.010317608 0.03534913 -0.14765973 -0.11837631 -0.026452912
0.040645063 -0.029082658 0.076185204 0.07227108 0.080343656 0.04317793 0.027919514 0.029497253
-0.04630595 0.017498847 0.0007799852 0.011105914 -0.027847648 0.0048706094 -0.023939477 0.016519807
0.08491135 0.08329285 -0.12855247 -0.0006551519 -0.015477326 -0.022746608 0.017040927 -0.009240899
0.056724828 -0.010747514 -0.021775663 0.017823562 0.014618816 -0.0032821565 0.09105503 0.11027436
0.054007273 0.023851583 -0.025265038 -0.013757493 -0.0035811823 0.03269356 -0.012308176 0.027797466
0.00075950345 0.073961794 0.08031441 0.041343544 0.017781764 -0.009137544 -0.14692596 -0.022718873
-0.0240022 0.033061612 -0.01958487 0.02032611 0.03858729 -0.09693131 -0.019196419 0.026921999
-0.037251875 0.07120507 0.060777284 0.076544024 0.044779062 0.00928518 0.007885285 0.04081635
0.020766938 -0.018221302 -0.0119734965 0.10584543 -0.0926424 0.007260242 0.045045525 0.10496592
0.17444873 -0.08688418 0.14869112 -0.020574678 -0.027865544 -0.042095035 0.09675169 0.030733388
0.044900082 0.06688048 0.044422593 0.038089424 0.123282 0.16157012 -0.0059098424 0.07874786
0.050020576 0.047016907 0.049437527 0.08906574 0.030283019 -0.01569137 0.038631536 0.12661386
0.032681897 -0.06505017 0.058053005 0.060795333 0.061719473 0.076396346 0.04743965 -0.029873326
-0.01330724 -0.1015352 0.12593928 0.055898633 0.036192928 0.107016005 0.04086476 0.079275325
0.12463852 0.088759564 -0.0040054102 0.03208321 0.033876758 0.021845818 0.03543779 0.044471964
0.0618817 0.04871628 0.015411091 0.09610007 0.03845548 -0.024188643 -0.050474685 0.06772287
0.12501283 0.08041017 0.014367726 0.0044164173 0.06195952 -0.073669836 0.12845957 0.107434526

fc1.bias f4 [128]
00000000: f697 8f3d 31f3 b03d b026 8e3d e352 e4bb
00000010: bbbf 0c3d 8d9e f33d a75a 283d e5ce 1d3d
00000020: cb44 813d 54ef a83c d907 b53c d659 363c
00000030: 41dd 11bd 2566 743a 0f79 b5bd 2da4 c93d
00000040: 1b48 423d a270 bcbd b584 88bd 107f 0c3e
00000050: 2b78 a13d 92ea bd3b 1084 f43d d2af ab3d
00000060: 126f 123c 3700 823a 7795 c03d 385f 2b3e
00000070: 0a31 983d 0871 67bd 7511 ab3c c7d6 cabc
00000080: df2e d33c d2d1 913d 4a4f f438 a76e 773d
00000090: 55f6 12bd 775e ad3d 40f8 853c 68f9 713d
000000a0: 4a22 203d b9c2 bf3d c11d 0abd 35ec 693d
000000b0: 9737 c43d 125f 843d d870 153d b02a 823c
000000c0: 6d68 19bb b112 993d dcf3 aebc 7940 a33d
000000d0: 49ed d43d 4c50 13bd 9899 293d 5fd8 d93d
000000e0: f4cd c3bc e3b6 633d 9f5d 1e3d 2646 7fbb
000000f0: 3bfb 2d3e c023 febc d420 6d3d e11b 0b3e
00000100: 0aeb 343c 310c 1d3d 0133 8a3d 962d 813d
00000110: 9289 103e a0b5 043e fa9c 0b3e 97c5 f03d
00000120: cfbc 863d 8418 643c cc30 c23d ece1 233e
00000130: 9cd9 b33d 164e bc3c fb80 543d b020 02bc
00000140: 0b6c c63d 1793 fabc 6a5a c13d 90d5 303e
00000150: 7383 c33b 11ac 2bbd 26ca 063c 525e d23d
00000160: 823c c13d d73a 63bd d271 c83c 054e b13d
00000170: 6f23 893d bae9 f53c 28f0 81bc b608 2f3d
00000180: b4fb 48bd 1eb2 0d3c f341 823d cc47 593c
00000190: 1290 033d d4c9 ba3d 7549 453d bdda 943d
000001a0: f0e2 0abc 7bcb ee3d ec98 ef3d f035 b6bc
000001b0: fda4 673d 374e e33d bbb2 913b cb26 d63c
000001c0: 62eb b33d 6115 4cbc 11a8 f23b 4190 fc3b
000001d0: 8aee 5dbd 7e36 323c b1d1 ca3c 2782 8dbd
000001e0: 426c 223e da22 073e 753c cb3c 8fcc 8cbd
000001f0: fcb9 6b3d 15f9 823d 5b43 163d 9dfa cb3c
0.07011406 0.08640135 0.06940973 -0.0069678887 0.034362536 0.118954755 0.041102078 0.038527388
0.06311949 0.020621933 0.022098469 0.011129817 -0.035611395 0.0009323082 -0.08860981 0.09845767
0.047432046 -0.092011705 -0.06665937 0.13720345 0.07884248 0.005795785 0.119392514 0.083831444
0.008937614 0.0009918277 0.09403508 0.16735542 0.074312285 -0.05650428 0.020882348 -0.024760617
0.025779186 0.07120098 0.000116495954 0.06040826 -0.03587945 0.08465283 0.016353726 0.059075743
0.0390952 0.09363312 -0.03371978 0.05711003 0.095809154 0.06463446 0.03648457 0.015889496
-0.002340819 0.07474268 -0.021356516 0.079712816 0.10396821 -0.03596525 0.041406244 0.10636973
-0.023901917 0.055594336 0.038663503 -0.0038951724 0.16990368 -0.031022906 0.057892635 0.13584854
0.011042366 0.038341705 0.067480095 0.06307523 0.14114979 0.1295991 0.136341 0.11756437
0.06578981 0.013921861 0.094819635 0.16004151 0.0878174 0.022986453 0.051880818 -0.007942364
0.09688576 -0.030587716 0.09441073 0.17268968 0.0059665977 -0.041912142 0.008226907 0.102718964
0.09435369 -0.055476036 0.024468336 0.08657459 0.066962115 0.030018676 -0.015861586 0.042732917
-0.049068168 0.0086484235 0.06360235 0.013261747 0.032119818 0.09120527 0.048165757 0.072682835
-0.008476958 0.116599046 0.116990894 -0.022242516 0.05655383 0.11098903 0.004446355 0.026141545
0.0878513 -0.012456269 0.007405289 0.007707626 -0.054182567 0.01087725 0.024758192 -0.0690959
0.1586161 0.13196889 0.024809102 -0.06874954 0.057550415 0.06395165 0.03668533 0.024899775

fc2.weight f4 [64, 128]
00000000: 148b a83d 1437 283e d7ea 77bd ea20 61bd
00000010: aed9 ad3d 043a bc3d fc53 503e 44d2 89bd
00000020: 9924 fb3d e3c2 923e 6551 113d 3c61 183d
00000030: 1090 7abd d5e8 fabd 180b 7abe e3d2 a1bc
00000040: 308a ea3c c9ed 1fbe 2611 953d 8a3d a6bd
00000050: 1199 ef3d 0180 603b 9dc1 b83d 0365 9a3c
00000060: 7588 5b3d 747c 81bd a458 183d 4a13 273e
00000070: 0b53 813a ab8f 69bd 32ce aa3d 6ed9 bbbc
00000080: 43e4 4a3d c090 233e 5f2d c93d 07a4 2ebe
00000090: d359 9ebd 9d49 b23c cb6d 5dbc a4ab 573d
000000a0: 4a7a 683d 847f f2bd 18be 9f3d 5016 143e
000000b0: 2799 903e e6d5 463d 5712 563e 53dd d7bc
000000c0: 5154 b7bc 108e 173e e344 2d3e 4345 bdbd
000000d0: 4f40 6f3d 7cad 40be 8416 383d 2388 e33d
000000e0: e205 103e 2820 a8bb fc61 153c af2a 243d
000000f0: 3ef0 aabd 942e c53d e3d9 97bd 67b3 a23b
00000100: 9fb7 483d 7522 153d a00e dd3c 0b35 523d
00000110: 6667 1fbc 373e 563d 20c2 8e3e d56c 66bc
00000120: 9d3b a33e 3f30 91bd b42a 8fbd f2e0 bb3d
00000130: aeb0 1c3e 654e 073e 87af d13d 4b82 80bd
00000140: 3d12 893d 49b9 53be db7f 6f3d afdf db3d
00000150: e68a e2bd 7685 833d bd73 c6bd 547b 86bd
00000160: 8858 823d 36fe c8bd 35c1 2f3e 0f4a 09bd
00000170: 2863 033d f06e 953d e342 c63d 4540 003d
00000180: 8378 b7bd 686f 8c3b c20b b13d 3c02 17be
00000190: 3ce2 353c 4071 70bc 7c80 153d d89d 853c
000001a0: b2ec 1b3c a17f 923d ffe0 c33d 733f 11bd
000001b0: e2b5 d8bb 9b57 ff3e ece4 d3bc ce06 b93c
000001c0: a9ce 203e d1c9 113e 2728 89be be97 8a3d
000001d0: 70c8 9bbd a8e9 4d3d 667e fc3d 5f96 16be
000001e0: a0d5 3f3e eb62 883e 1c0b 8b3e 97d4 863d
000001f0: f2eb 943d 1efb 763e 6598 70bc 158d 0b3d
00000200: c82f c7bd 973b 20bd 180b 71bd 425a aa3d
00000210: 1ade 423e e339 c93d dcb4 c5be 37f5 173e
00000220: af06 933d 26e0 783e 1456 ad3d 3b69 0dbd
00000230: 0651 3bbe 0be8 ecbd 4d01 04be 4747 13bd
00000240: 8897 6cbc 41bc b6bd 534f 9e3c 122e e43d
00000250: 5448 153c 955c 903d 730b 073e 659b fd3d
00000260: dca5 ab3d ce2e 423e 3016 6f3d 8e57 2c3d
00000270: 569e 4cbe 8bd0 5d3e 51a1 fd3d 7f8b e13c
00000280: df16 55ba b5e8 ed3d dbfe 1bbe a7f7 9e3e
00000290: 9681 c43d ec0a a93c 63d7 123e 469b f53d
000002a0: b6bf 1e3d 17eb 353e 0082 02bc 8131 78bd
000002b0: dc13 40bd d0b9 d13c 7c11 803c a6e7 4b3d
000002c0: cbf7 89bd 1720 223e e801 a53d ba52 ab3d
000002d0: fe0f 9abd 3eac 0bbd 86b9 d63d a24f a13e
000002e0: 8a14 47be 3a5e cbbc 7695 89be ccf6 073d
000002f0: f5fc 40bd 980a e6bb 3ba8 d33c 1686 edbd
00000300: 3bea a2bd 6638 ecbc 11bb d2be 1d75 1d3e
00000310: 6832 c63d ae1c 0f3e 7d91 cb3d 709e bdbd
00000320: 7c9d 80be 0410 cd3c 7873 8b3e b06d f3bd
00000330: d979 6b3e b112 6abe 9f02 ea3c 4a62 253e
00000340: 4116 64be f903 113e e87d 4c3e 375b 423e
00000350: 9d5d b53d 6733 38bd 7507 2fbe a0ff 9b3d
00000360: e0fd 953c 6a2a 7b3c a7d3 013e c779 56bd
00000370: b714 cbbc b7a2 e73d e203 003e a37e d73d
00000380: 3971 183c 45c3 54bd 5664 083e da01 1ebe
00000390: fc04 1fbd 40d7 11be 8c2a 6c3d 5d33 7dbd
000003a0: 2b9b 60bc 92c7 123d dbba 013d ec8f 433d
000003b0: 041c 36be 9927 473e 3cce 843d 8921 383e
000003c0: 041a 84bd b661 acbe 804c dd3d 9ade 56bd
000003d0: 9232 f73c 0617 e83c 01dd 413d 0500 63be
000003e0: d5e3 a03e a03a 633e 1701 4f3e bb71 0cbe
000003f0: d67b 85bd f7ec 2f3d a17d a8bc a2a9 0bbe
0.08229652 0.1642726 -0.060526695 -0.05496303 0.08488785 0.09190753 0.20344537 -0.06729558
0.1226284 0.28664312 0.035478014 0.037202105 -0.061172545 -0.122514404 -0.24418294 -0.019753879
0.028630346 -0.15618052 0.072786614 -0.081172064 0.11699117 0.0034255984 0.09021304 0.018846994
0.053596932 -0.06322566 0.03719391 0.16315952 0.0009866668 -0.057021778 0.0834011 -0.022930827
0.049534094 0.15973186 0.09823107 -0.17054759 -0.07731976 0.021763617 -0.013514946 0.052653924
0.05675725 -0.11840728 0.077999294 0.14461637 0.28241846 0.048543833 0.20905434 -0.026350653
-0.022379072 0.14800286 0.1692081 -0.09241726 0.05841094 -0.18816179 0.044943348 0.111099504
0.14064744 -0.0051307864 0.0091176 0.04007977 -0.08346604 0.09628025 -0.074146055 0.004965234
0.04900324 0.036409814 0.026984513 0.051320117 -0.009729242 0.052305426 0.2788248 -0.0140640335
0.3188142 -0.0708928 -0.06990567 0.09173764 0.15301773 0.13213499 0.10238557 -0.062748514
0.06692932 -0.2067615 0.05847154 0.10736024 -0.11061649 0.0642194 -0.09690044 -0.06566492
0.06364542 -0.09814112 0.17163546 -0.033517893 0.032076985 0.0729655 0.096807264 0.031311292
-0.08958533 0.0042857416 0.08644821 -0.14746946 0.011101302 -0.014675438 0.036499485 0.016310617
0.009516882 0.071532495 0.09564399 -0.0354609 -0.006613479 0.49871525 -0.025865994 0.022586253
0.15703835 0.14237143 -0.26788446 0.06767224 -0.0760659 0.05027166 0.12328796 -0.147058
0.18733835 0.26637968 0.27156913 0.06583517 0.072715655 0.24119231 -0.014684771 0.034070093
-0.097259104 -0.03911933 -0.05884847 0.083179966 0.19030038 0.09825494 -0.38614547 0.14839636
0.07179009 0.24304256 0.08463684 -0.034524184 -0.18292627 -0.11567696 -0.12891121 -0.035956647
-0.014440425 -0.08922625 0.019324934 0.111416 0.009111483 0.070489086 0.13187961 0.12383155
0.083812445 0.18963167 0.05837077 0.042075686 -0.19982275 0.21661584 0.12384284 0.027532337
-0.0008128713 0.11616651 -0.15233938 0.3104832 0.09595029 0.02063509 0.14339976 0.11992507
0.03875705 0.17765461 -0.007965565 -0.060594086 -0.04689394 0.025601298 0.015633337 0.049781464
-0.06736716 0.15832554 0.08057004 0.08365388 -0.075225815 -0.03409981 0.104846045 0.31506068
-0.19441429 -0.024825204 -0.26871842 0.03319435 -0.04711624 -0.007020306 0.025837054 -0.115978405
-0.07954832 -0.028835487 -0.41158345 0.15376706 0.09677583 0.13975784 0.09939859 -0.09258735
-0.2512015 0.02503205 0.27236533 -0.118861556 0.229957 -0.22858693 0.028565703 0.16150776
-0.22274114 0.14161672 0.19969904 0.18980108 0.08855746 -0.044970896 -0.17092688 0.07617116
0.018309534 0.0153299365 0.12678395 -0.05236223 -0.024790151 0.11310332 0.12501481 0.10522201
0.009304338 -0.051944036 0.13319525 -0.15430394 -0.038823113 -0.14242268 0.057657763 -0.061816562
-0.01370887 0.035834856 0.03167234 0.047744676 -0.17784125 0.19448699 0.064846486 0.17981543
-0.064502746 -0.33668298 0.10805607 -0.052458383 0.030175481 0.02833129 0.047329906 -0.22167976
0.31423822 0.22190332 0.2021526 -0.1371526 -0.065177605 0.042950597 -0.020567717 -0.13638929

fc2.bias f4 [64]
00000000: f888 f23c d028 dc3d cfd9 033d d77a 2bbc
00000010: 4cc6 183d 97e0 69bd 47eb 4c3e 1fbd f43d
00000020: 4ac1 abbc ae52 a3bd 9108 b13d 13ed d63c
00000030: 1d75 5a3d 2074 203d a51d 3cbd 8e9d 44bc
00000040: 98ea 2bbd a4df 493d 3a7f 393e c817 f93d
00000050: b510 9fbd d134 c43d 02bd 3f3e 9cb6 75bd
00000060: 2f58 483e 92cf 43bd 3cb3 3fbd 06d1 e23d
00000070: d047 96bd c751 393e 20d6 adbd a583 033e
00000080: 489c 043d 0e6b fd3c 6c4d 23bc abe1 2fbd
00000090: ba50 a93d 499a 36bd 29a5 b23d cb60 033e
000000a0: e967 613c 548a 783c 6f83 c63c bcc4 f7bd
000000b0: ef79 4b39 2315 333c f187 50bd 85ec 96bd
000000c0: 7944 743d 0bc4 3e3d 84f7 6c3d 7ede e5bc
000000d0: 9c18 c13d 66a5 053d 0105 273d 3b93 eb3d
000000e0: 5617 15be 8c46 6e3c 83c0 89bd a480 f93c
000000f0: db51 20be 1f96 903d cdec 45bd 807d cb3d
0.029606327 0.10749972 0.03219014 -0.010466299 0.037298486 -0.05709895 0.20011626 0.119501345
-0.02096619 -0.07974754 0.08644212 0.026236093 0.053334344 0.039173245 -0.04592671 -0.012000455
-0.041971773 0.049285546 0.1811494 0.12162739 -0.077668585 0.095803864 0.18724445 -0.059988603
0.1956489 -0.047805376 -0.04680179 0.11075024 -0.07337916 0.18097602 -0.08488107 0.12843187
0.032375604 0.030934837 -0.009967189 -0.042939823 0.082673505 -0.04458073 0.08722908 0.12829892
0.013757684 0.015169699 0.024232594 -0.12098071 0.00019405012 0.010930332 -0.050910894 -0.07369331
0.059635613 0.04657368 0.057853237 -0.028060194 0.09428522 0.03262844 0.040776256 0.11502691
-0.14559683 0.014543187 -0.06726172 0.030456848 -0.15656225 0.07059883 -0.048321534 0.099360466

fc3.weight f4 [32, 64]
00000000: 9aa9 dfbb eb8f 85bd 84d1 89bd 46e8 87bc
00000010: aa09 f13d 185d abbd a368 0abd b65e 983d
00000020: 3caf 0dbd 5a3a b8bd 999a 0f3d 8ded 9bbd
00000030: 8c27 aa3d ff87 833d 208e bebc 963e c33d
00000040: 38e9 01be 2840 be3d d892 0ebd a5bc 7ebd
00000050: b4f4 e2bd 83b6 75bd 888e 343b 40d2 bb3c
00000060: 6969 12be 9add 513d d1f6 873d 3f0e b8bd
00000070: 28e8 393d ecc6 ac3d 0ea6 e13d 0e4b d7bd
00000080: d400 573d c59c 8f3d e8af 843c 957a 973d
00000090: 4cb5 9dbc a6e6 903d 0346 8abc b1d4 07bd
000000a0: 2abf a93d 0c68 183c 6f64 ddbd c702 8dbd
000000b0: 4af6 bb3d 79c5 8e3c a0fd febd 621c c9bd
000000c0: fef1 e0bc 7728 e43c d278 b63d 1c68 343d
000000d0: d380 5abd 1781 2ebb 213b 5abd e349 3fbd
000000e0: fb35 0dbc d61b da3d 0244 f23d ac8c 29bd
000000f0: 7627 1d3d 0566 81bd 6a9d 9abd 4e17 1abd
00000100: cf44 86bc 0037 5b3d 0ffe c7bb b481 cdbd
00000110: 1ecc 823d 9d25 94bc 7d2b 0fbd fb2c 04bd
00000120: bfa3 5cbd c3b6 d43c 9b09 903d ad1e 66bd
00000130: 0f54 603d 8624 b33d a2a6 19bd 9184 5dbd
00000140: 4b6d 8abd b243 97bd f23d d73b e0b9 5f3c
00000150: a60e d3bd a4ff b63d 8320 f6bd 5829 ff3d
00000160: a7d4 6f3c 7634 90bd ef7d 323d fa35 20bd
00000170: c81e 903d 11d5 d53c 800a 42bb d9f1 e43d
00000180: 9522 08be ee8b c73d c1a4 b03d 7835 e33b
00000190: 1290 e8bd 2c06 9fbd e74c e1bd 0e75 a7bd
000001a0: f281 c03c 34bf 35bd 5a87 803d faa9 123d
000001b0: f217 823c 7fa6 c1bd 5cc9 efbd 3c7f 323d
000001c0: 7654 e2bc 8b7d abbd 099d c13d 49fe 7dbd
000001d0: 14fe 19bd 9ad5 00be 19f8 86bd 10c2 ca3d
000001e0: c48e a7bc dc5a 133d 607a eb3b 8fe5 de3c
000001f0: dc53 6bbd 88c9 cc3d a54b d8bd 45ca 25b9
00000200: 3089 2abd 50dd 563d e0aa 053d 9c00 82bd
00000210: 50dd 403d d0eb 69bd 0499 ce3d 9c47 533d
00000220: ba4f c3bd 240b 4fbd 941d c6bd 889c c7bd
00000230: 0030 b03b bc28 543d 00f0 74b9 f6c8 adbd
00000240: a6c7 f3bd 8092 11bc dc9c d53d 4a05 81bd
00000250: 1479 7cbd 20e9 d53c 601b c43b fc91 7bbd
00000260: a625 db3d de7d 953d a0ae b4bb 80aa ebbd
00000270: 18f8 ff3c f440 23bd 10d1 d4bc 307a c3bc
00000280: d81b a4bd d0f2 13bc 3612 d2bd 20fc d2bb
00000290: 84bb b7bd 90e8 ad3d a0f2 373c 5024 f73c
000002a0: 987c a43c 5c12 0dbd 8e6e 9cbd f09f 843c
000002b0: 0a9d 84bd d283 903d f25b 8ebd cad0 b4bd
000002c0: d21d f7bd f01d ba3c 3449 71bd f69c debd
000002d0: 4aa9 b9bd d464 153d 08d7 3b3d 0034 a73b
000002e0: a06c 38bc f422 9abd 0e98 e63d 5857 883d
000002f0: 96f3 aebd c421 3cbd 4028 f33b e4e5 a9bd
00000300: 186f 1cbe 5e96 153e 7f9c e2bd 87a4 923d
00000310: fb32 883e 2ffd 793e 2469 7a3c b94a 653d
00000320: 2ab6 253c 21f7 823d f747 80be c821 5c3e
00000330: 1639 0bbe 4e03 143e fab9 24bd e435 af3d
00000340: b60e 09be a681 04be b82c 443e 0356 afbd
00000350: 440d d73c 967d 403d 8019 92bd 77a0 5cbd
00000360: 748e 043e aee0 d43c c157 fd3d 4a5e 323e
00000370: 6de9 143e f8cb ab3e 6f94 eb3d a67f 12bd
00000380: 74d0 98bc def1 90be b2a9 463e 662a 683d
00000390: d81a 9d3d 62c0 37be 21ea f03d e515 d43c
000003a0: 8c0d 4abd a6ab 85be 139b a13c 79ec 3ebe
000003b0: 10a1 d53c c2e9 26bd de20 f03d 5f2e b03d
000003c0: 3098 143e 775e 83bd 0a15 5dbe 6ec9 9d3d
000003d0: a413 c83d b8c8 7bbe 40e2 0b3e 4fcf e2bd
000003e0: f48d 543d f9b5 c23d c716 1b3d 44e1 0ebc
000003f0: 3cd5 883d 12b4 693d 367e d9bd 1ff6 34bd
-0.006825638 -0.06521591 -0.06729415 -0.016590249 0.117694214 -0.083673656 -0.033791196 0.0743994
-0.034590945 -0.08995505 0.035059545 -0.076136686 0.08308324 0.064224236 -0.02326113 0.09533422
-0.12686622 0.092895806 -0.03480801 -0.062191624 -0.1108183 -0.05998851 0.0027550776 0.022927403
-0.14298023 0.051236726 0.06638873 -0.08987092 0.045387417 0.08436379 0.110180005 -0.105123624
0.052491024 0.07012323 0.01619716 0.073964275 -0.019251488 0.07075243 -0.016879087 -0.033161823
0.08288415 0.00930215 -0.10810172 -0.06885295 0.09177835 0.017428147 -0.12450719 -0.09819867
-0.02745914 0.027851326 0.089097634 0.0440446 -0.053345513 -0.0026627237 -0.053279046 -0.046701323
-0.008618827 0.106498405 0.11829378 -0.04139392 0.03836771 -0.06318287 -0.075495556 -0.03761988
-0.016390232 0.05351925 -0.006103284 -0.100345045 0.063865885 -0.018084342 -0.034953583 -0.03226946
-0.053867098 0.025966054 0.07033082 -0.0561816 0.054767665 0.08747201 -0.03751243 -0.054081503
-0.06759127 -0.07385959 0.0065686638 0.013655156 -0.10305528 0.08935478 -0.1201792 0.124590576
0.014638103 -0.07041256 0.04357713 -0.039113976 0.07037121 0.026102575 -0.002960831 0.11178941
-0.13294442 0.09743486 0.08625174 0.006933864 -0.11355604 -0.07764849 -0.11000996 -0.08176623
0.023499463 -0.0443718 0.06275816 0.035806634 0.015880559 -0.09455585 -0.11708328 0.04357837
-0.027628165 -0.08373555 0.0945378 -0.062010083 -0.037595823 -0.12581483 -0.065902896 0.09900296
-0.020453818 0.035975322 0.007186219 0.027209071 -0.05745302 0.099993765 -0.10561303 -0.00015810977
-0.04163474 0.052457154 0.032633662 -0.063477725 0.04708606 -0.057109654 0.10087779 0.051581964
-0.09536691 -0.050547734 -0.0967361 -0.09746653 0.005376816 0.05179666 -0.0002335906 -0.08485596
-0.11903314 -0.008885026 0.10430309 -0.06299837 -0.061638907 0.02611214 0.0059847087 -0.06141852
0.1070054 0.07299398 -0.005513981 -0.1150713 0.03124623 -0.039856866 -0.025978595 -0.023861974
-0.08013123 -0.009030059 -0.1025738 -0.006438747 -0.08971313 0.084916234 0.01122728 0.030168682
0.020078942 -0.034441337 -0.07638274 0.016189545 -0.06475265 0.07056393 -0.06951131 -0.08828886
-0.12066235 0.022719353 -0.058907703 -0.10869782 -0.090654925 0.03647311 0.045859367 0.0051026344
-0.011256367 -0.07526198 0.11259471 0.066572845 -0.08542554 -0.04593064 0.0074205697 -0.08295801
-0.15276754 0.14608142 -0.110650055 0.07160287 0.26601395 0.24412988 0.015283857 0.055979464
0.010114232 0.06394792 -0.25054905 0.21497262 -0.13595995 0.14454386 -0.040216424 0.08555201
-0.13384518 -0.12940082 0.19157684 -0.08561327 0.026251443 0.046994768 -0.0713377 -0.05386397
0.12944967 0.025986042 0.12370253 0.17418781 0.1454217 0.33554053 0.11502921 -0.035766266
-0.018654086 -0.2830953 0.19400671 0.05668106 0.07671136 -0.17944482 0.117634065 0.025889346
-0.049329326 -0.2610752 0.019727265 -0.18644895 0.026077777 -0.040750273 0.11725019 0.086025946
0.1451118 -0.06414502 -0.21590057 0.07704435 0.09769371 -0.24588287 0.13660526 -0.11074697
0.05189319 0.09507365 0.03786352 -0.0087207 0.06681296 0.057056494 -0.10619776 -0.044180032

fc3.bias f4 [32]
00000000: d135 d9bd 0b09 35bc 4040 1bbb 6310 fe3d
00000010: 40d2 39bd a587 333e 7281 2dbe ea7b 863d
00000020: 8416 06bd 3d37 c53d ff4f 49bd 8eb8 393e
00000030: 3a9c 153e b328 b33d aa06 35be 7af9 c53d
00000040: d389 86bd becc 053e 932a edbd 863c 5bbd
00000050: d78a 0bbd 39be 7439 7de6 353e b812 d63d
00000060: 91e6 163d fe64 443e 414d 1a3e cc98 973d
00000070: 77c6 103d 978b de3d 3ef0 293e 7876 f4bd
-0.10605968 -0.011049519 -0.002368942 0.12405469 -0.045366526 0.17532213 -0.1694391 0.065666035
-0.032736316 0.096296765 -0.049148556 0.18136808 0.14610377 0.08747997 -0.17678323 0.096667245
-0.06569257 0.13066384 -0.11580386 -0.053524517 -0.034067955 0.00023340517 0.17763706 0.10452789
0.03684098 0.1917915 0.15068533 0.074021906 0.03534552 0.108664684 0.16595551 -0.119366586

fc4.weight f4 [10, 32]
00000000: 93b4 57bd e71b 8cbd 34ac 8b3d 1224 99be
00000010: 43df 033e df35 95be a18a 10be b354 8d3e
00000020: 663b 513e b846 ecbd 7324 f43d f36a dfbd
00000030: 52e0 653d 2cf4 a23e 5854 a53e 9134 0dbe
00000040: 9b63 cfbe 0090 08be 91ab b6bb f7d5 133e
00000050: 119a 423d 0f27 203c 9783 133d dbc7 f63d
00000060: 8943 62bd a68a 8dbe 9e0b 333e c4c6 1dbe
00000070: 285b 433e 9455 d2be 05c2 38be 1986 4dbd
00000080: 983d cfbd 7226 3a3e 2063 8e3c 8368 c7bc
00000090: 8421 ff3d de36 fc3d 2043 72be 94a9 173e
000000a0: a6ab 8fbe efc0 bbbe 5cab 2cbe 1e0e 783c
000000b0: c4eb 153e c06c 6b3e 8314 0ebf c811 4fbe
000000c0: 9d34 02be 532b b0be bc22 c3bd 75c7 9d3c
000000d0: eda7 c5bd 5933 cdbd a06f 8abe 6fce a4be
000000e0: 46fe fb3b 4ce9 cc3e 9064 c53e 2b17 8c3e
000000f0: 88f2 a9be 0cca c5bd 5c6c 1d3e 1d5a 3cbe
00000100: 94cb 30be 737e f6b9 f9df 253e fab7 143e
00000110: 75b9 2dba b0bf f5bd 9207 873d 7ffe 86be
00000120: c940 513e ceb4 70be 58aa 57bd f5de 7ebe
00000130: 35ed 603e 8e3e e2bd 7af8 863e 3c97 a33d
00000140: b644 6e3e ea84 2f3a 331f 14be 9d96 463e
00000150: 56d0 3ebe f5f2 e53d d325 d9bd cebe 493e
00000160: 6b80 95be a5c8 f2bd d76d bdba a44e 0539
00000170: 2029 063d c368 0a3f ca51 a2bd 3e9e b7be
00000180: 2ed0 d23d cc54 b83d f889 b2bd aa01 b23d
00000190: 72eb 23be 756e a23d 4bda 9c3e b891 dabe
000001a0: 22f9 0dbe bc26 713e 8820 6e3d 6d8d fdbd
000001b0: 3eb6 8d3e 3af2 04bf 0da9 b2be 0753 f13d
000001c0: 8431 d53b 15d5 d33d b2a5 05be 918e 3f3e
000001d0: 9722 1f3e d5dd fabd 7b5f d0be fb0a afbe
000001e0: 0afe 6bbe 4299 dbbe c433 183e 625d 64be
000001f0: 0cf1 953e 109a 72be 09fc b8bc 820d 96bd
00000200: 2de3 d03d 448c 483d 547b debd c4bf 923e
00000210: 5c32 1cbe 2227 253e ce96 683d 7c6b 9f3e
00000220: 3ba9 aebb aa25 7fbc 045b 1ebe 277a 883d
00000230: bf4b d6be ceba 6e3e 2981 9b3d 6d27 373c
00000240: 9fc3 b23e b539 84bc 947b 0dbe cc5b febe
00000250: 7216 aebd 5114 093e 8e21 dfbb 7d71 403e
00000260: 15c9 a3be f5c6 753e 5349 3cbe 052e 01be
00000270: 434b 54be 1dde 113e 0349 78bd 9dde 243e
00000280: 73e4 99bd 5d38 3f3c 451b 303e b068 2cbe
00000290: 5d1f c63d ed01 7f3e fe52 12be c7a3 90be
000002a0: 0955 1b3e ada9 653e 0bde dcbd 7920 8e3e
000002b0: c5c8 073e dbbb f4bb 7183 c8be a635 b13e
000002c0: 298a 8fbe 0c2b 3fbd 5968 9ebd 3c70 5a3d
000002d0: b96a 223e f319 16bd 329d 3b3e 8a90 62be
000002e0: 94f5 8a3d 8053 a6be 4bc8 b33d 5212 9cbe
000002f0: 87e5 213d 1402 bebd 4364 f6be f32a bc3d
00000300: 6366 df3d 8526 653d 0618 ad3d 8a85 213d
00000310: 3844 20be e202 89bc e08c bfbe 3e4a b8bc
00000320: f867 623e b8c9 05bd 04fa 39be a467 593e
00000330: 5fff 86be 3215 013e 89e6 1d3e 950c 333e
00000340: d1f8 14be 1e51 dbbe d827 843d e4a6 7abe
00000350: 840f f0bd 1d0c b43e 161c 8fbe a59d 4d3e
00000360: a281 e93d 946c 8dbe 6545 7d3e 41fd 8f3d
00000370: 5458 82bc 1d6f 283e 6678 8dbe 6f34 8f3d
00000380: 986d febd 72b4 37bd a88a c13c 5a8d 96be
00000390: ee31 bdbd cab0 c8be cbe6 d63d 8e0c a93e
000003a0: de4d b0be f4b2 4ebd 4933 95bd 5ca9 f7be
000003b0: cc47 02be 1e9c 2f3e 91b0 74be 8b24 9abe
000003c0: aa36 96be 23e8 953e 619a d23d 2d8a 283c
000003d0: 6aa9 eb3d 80f5 d7bd 6f42 443e fdd8 643d
000003e0: de22 8cbd 7353 83be 792c 9ebe 4f6f 7f3e
000003f0: 758c 9fbe 9f11 343d 2ce7 b83d 4603 8abe
-0.052662443 -0.068412594 0.068199545 -0.29910332 0.12878136 -0.29142663 -0.14115383 0.27603683
0.20432815 -0.11536926 0.11921015 -0.10909071 0.05612213 0.31826913 0.32290912 -0.13789584
-0.4050568 -0.13336182 -0.0055746515 0.1443709 0.04751021 0.009774937 0.036014166 0.12049838
-0.055240188 -0.27644843 0.174849 -0.15407854 0.19077742 -0.41080916 -0.18042763 -0.050176714
-0.1011917 0.18178728 0.01738125 -0.024341827 0.124575645 0.123151526 -0.23658419 0.14810783
-0.28060645 -0.36670634 -0.16862243 0.015140085 0.14640719 0.22990704 -0.5550005 -0.20221627
-0.12715383 -0.34408054 -0.095281094 0.019260148 -0.0965117 -0.100195594 -0.27038288 -0.32188746
0.007690224 0.4002174 0.38553286 0.27361426 -0.3319285 -0.09657678 0.15373367 -0.1839375
-0.17265159 -0.00047014988 0.1619872 0.14523306 -0.00066270615 -0.11999452 0.06593241 -0.2636604
0.2043487 -0.23506472 -0.052652687 -0.24889739 0.21965487 -0.110470876 0.26361448 0.0798783
0.23268399 0.0006695526 -0.14465027 0.19393392 -0.18634161 0.11227981 -0.106029175 0.19701692
-0.29199538 -0.11854676 -0.001445229 0.00012713164 0.032754064 0.54066104 -0.07925756 -0.35862917
0.102936134 0.09000549 -0.08717722 0.08691724 -0.16007784 0.07931224 0.30635294 -0.426893
-0.13864568 0.23549932 0.058136493 -0.123804905 0.27678102 -0.5193211 -0.348946 0.11783414
0.006506147 0.103433765 -0.13051489 0.18706729 0.15540539 -0.12249342 -0.40697846 -0.34188065
-0.23046127 -0.42890364 0.14863497 -0.22301248 0.29285467 -0.23691583 -0.022581117 -0.07326795
0.1019958 0.048961893 -0.10863367 0.2866193 -0.15253586 0.16128209 0.056784444 0.31136692
-0.0053302324 -0.015572945 -0.15464407 0.06663924 -0.41854665 0.23313448 0.07592995 0.011178833
0.34914872 -0.016140798 -0.13816673 -0.4967941 -0.08500375 0.13386656 -0.00680942 0.18793292
-0.3198935 0.24001677 -0.18387346 -0.12615211 -0.20731835 0.14244886 -0.060616504 0.16100545
-0.07514276 0.011671153 0.17197903 -0.1683681 0.09673951 0.24903078 -0.14289472 -0.28249952
0.15169157 0.22428007 -0.10784539 0.2775915 0.13260181 -0.007468683 -0.39162782 0.34611243
-0.28035095 -0.046671912 -0.077347465 0.05332969 0.15861024 -0.03664584 0.18321684 -0.2212545
0.067851216 -0.3248558 0.08778437 -0.30482727 0.039525535 -0.0927774 -0.4812337 0.091878794
0.109082006 0.05594494 0.08451848 0.039433993 -0.15651023 -0.016725007 -0.37412167 -0.022496339
0.22109973 -0.032663077 -0.1816178 0.21230942 -0.26366708 0.12605742 0.15419973 0.17485268
-0.14548041 -0.42835325 0.06452912 -0.24477726 -0.11721709 0.35165492 -0.27951115 0.20079668
0.114016786 -0.276219 0.24733503 0.07030726 -0.015911259 0.16448636 -0.2763092 0.06992423
-0.12423247 -0.04484982 0.023625687 -0.29404718 -0.09238039 -0.3919738 0.10493239 0.3301739
-0.34434408 -0.05046363 -0.072851725 -0.48371398 -0.12722701 0.17149398 -0.2389548 -0.30106005
-0.2933858 0.2927867 0.10283352 0.01028685 0.115069225 -0.10544872 0.19165967 0.055871
-0.06842588 -0.25649604 -0.30893305 0.24944805 -0.31161848 0.043962117 0.090284675 -0.26955622

fc4.bias f4 [10]
00000000: 980f 83be ab79 8a3d 12f8 e53d 29f5 983b
00000010: c132 b2bc 3065 30bd f2f4 803c 26d8 ccbd
00000020: 9ccd 88bd 9ffe 8b3d
-0.25597835 0.067614876 0.11228956 0.0046678972 -0.021752717 -0.04306525 0.015741799 -0.100021645
-0.06679842 0.068356745
