mlops_project/checkpoint1.pth (torch_old, 445854 bytes, 8 tensors)

fc1.weight f4 [128, 784]
0.006389249 0.007368177 -0.03248026 -0.02093409 0.0057783164 -0.015958808 -0.02949407 -0.0036074333
0.0077310055 -0.007964352 0.0017585792 -0.014447235 -0.017901082 -0.01844116 0.008484244 0.010845561
0.019555807 0.01680266 0.009861157 0.010569112 0.014044267 -0.0052930247 -0.0043253778 0.0012661815
-0.0214286 0.011549462 -0.0018828027 0.0020495616 0.027693886 -0.009887692 0.034186278 -0.0016434118
-0.011725694 -0.008114044 0.02156679 -0.0024029985 -0.014881875 0.01943966 0.030774292 -0.023512684
-0.0046080444 0.018564845 0.065569736 0.043271996 -0.051803526 -0.04850791 -0.057106543 0.026266465
-0.011716695 -0.044966564 -0.053274915 -0.016175687 -0.011165982 0.0018835552 0.023296867 -0.030496325
0.028809194 0.028940622 0.024757557 0.030415352 -0.034211066 -0.041039515 -0.011726068 -0.041711412
-0.011805958 0.028022941 0.002824519 0.026194073 0.04139615 0.0054658903 -0.016268833 -0.025800783
-0.06197285 -0.047783818 -0.025180835 -0.005292989 -0.08174246 -0.04804193 -0.07956695 -0.051650796
-0.013968792 0.020212404 0.008397613 -0.019164346 0.0070719197 0.035344187 -0.010480562 0.008900069
-0.04000194 0.024427608 -0.0027048097 -0.026630947 0.0065706144 -0.037290104 0.016945379 0.0639595
0.018882494 0.08091349 0.012418042 -0.058475032 0.10368184 0.057146497 0.04238405 0.017553749
0.035968248 -0.019161034 -0.021953836 -0.06326325 0.02283752 -0.012405986 -0.010230673 0.030218873
-0.030396583 0.026208311 -0.01924566 0.027843788 -0.0364489 -0.0016732342 -0.04339738 -0.056773156
-0.04884681 0.0033342915 -0.055707954 -0.036313266 0.020256178 -0.017930256 0.054725293 0.06608424
0.0048924447 0.037254646 0.068514384 0.032209504 0.03934781 0.026439536 -0.0034388173 -0.045062922
0.012395794 -0.011614855 0.025520204 0.03104445 0.017037809 -0.03387026 -0.013161391 -0.023402322
-0.010041479 -0.0032859317 0.041572038 0.0026541122 -0.007832462 -0.05330021 -0.05848581 -0.061470017
0.026577078 0.0302889 0.0037209354 0.017862102 0.039221782 0.051509198 0.06471464 0.05914254
0.047245286 0.05579655 0.052655727 -0.07183739 0.010061249 0.0105928965 -0.0248854 -0.023887346
-0.011008514 -0.0063708164 -0.020146888 -0.010789203 -0.033948116 0.042483825 -0.002022765 -0.041201465
-0.0021972824 -0.08522074 -0.0042408197 -0.0194036 0.037533294 0.018563313 0.0027956 -0.022542067
0.055748343 0.048462305 0.026702166 0.0423886 0.07165891 0.06531727 0.037416283 0.02200962
-0.032312185 0.046528608 0.05613131 -0.016982164 0.006371636 0.02155861 0.006600392 0.000109225526
-0.025321972 0.032527734 -0.041114576 -0.048240185 -0.039011985 -0.058876302 -0.02614425 0.0052752346
0.047498178 0.0017565415 0.011105277 -0.023358572 0.025776075 0.05880666 -0.0053883796 -0.00090191275
0.022827303 0.04303673 0.010178446 0.0046418128 -0.05901453 -0.046784446 0.04619579 0.0010470562
0.02391309 0.055846937 -0.040645383 -0.00041796544 -0.042181347 -0.03301612 -0.009650538 0.013593455
0.0065813465 -0.0049808617 -0.025170662 0.013786133 -0.023947153 0.03121857 0.001349794 -0.009746256
-0.016307527 -0.0011257036 0.021662457 0.0005919678 0.0025474275 0.05779313 0.026313294 -0.010056996
-0.02492133 -0.05098551 0.034080867 -0.016875256 -0.004399354 0.041104198 -0.02516378 -0.009088712
00000000: e85c d13b c070 f13b 050a 05bd f87d abbc
00000010: 0858 bd3b 0cbc 82bc 8c9d f1bc b06a 6cbb
00000020: 6054 fd3b ea7c 02bc 2080 e63a 18b4 6cbc
00000030: 4aa5 92bc ea11 97bc 8001 0b3c 94b1 313c
00000040: 8033 a03c bba5 893c b190 213c 122a 2d3c
00000050: ed19 663c 1c71 adbb e6bb 8dbb 00f6 a53a
00000060: 088b afbc f439 3d3c 60c8 f6ba f051 063b
00000070: 4ade e23c fcff 21bc e906 0c3d c067 d7ba
00000080: 201d 40bc c4f0 04bc d6ac b03c a07b 1dbb
00000090: 1cd3 73bc ec3f 9f3c 5e1a fc3c ac9d c0bc
000000a0: 14ff 96bb 4d15 983c 6d49 863d fa3d 313d
000000b0: ef2f 54bd 3bb0 46bd 8de8 69bd c52c d73c
000000c0: 61f7 3fbc dc2e 38bd cc36 5abd e082 84bc
000000d0: 86f1 36bc a0e1 f63a 12d9 be3c 6ed3 f9bc
000000e0: 4201 ec3c e214 ed3c 5cd0 ca3c 9e29 f93c
000000f0: e720 0cbd 0d19 28bd b21e 40bc 96d9 2abd
00000100: c76d 41bc 5e90 e53c 911b 393b f494 d63c
00000110: 028f 293d 361b b33b 3746 85bc 2a5c d3bc
00000120: 3ed7 7dbd f7b8 43bd 0a48 cebc cf70 adbb
00000130: 9768 a7bd 9dc7 44bd fff3 a2bd c98f 53bd
00000140: 5cdd 64bc 7c94 a53c 2496 093c 8cfe 9cbc
00000150: 90bb e73b 11c5 103d aab6 2bbc 98d1 113c
00000160: 13d9 23bd 681c c83c 2d43 31bb 2529 dabc
00000170: 4f4e d73b 82bd 18bd 09d1 8a3c 33fd 823d
00000180: 76af 9a3c f9b5 a53d 0b75 4b3c 8483 6fbd
00000190: 2557 d43d 7212 6a3d e69a 2d3d e1cc 8f3c
000001a0: 7153 133d 9af7 9cbc 88d8 b3bc 2a90 81bd
000001b0: c015 bb3c 7a42 4bbc 8d9e 27bc 928d f73c
000001c0: 4102 f9bc d0b2 d63c 13a9 9dbc a818 e43c
000001d0: 714b 15bd 6c50 dbba 73c1 31bd f88a 68bd
000001e0: 9813 48bd 2184 5a3b 062e 64bd 38bd 14bd
000001f0: 49f0 a53c 79e2 92bc a127 603d 2d57 873d
00000200: cd50 a03b 5498 183d 4551 8c3d 1dee 033d
00000210: 2b2b 213d ba97 d83c c85d 61bb e693 38bd
00000220: ba17 4b3c 3c4c 3ebc bf0f d13c ee50 fe3c
00000230: e092 8b3c 8bbb 0abd e0a2 57bc 3ab6 bfbc
00000240: 0485 24bc c958 57bb 7147 2a3d 9df0 2d3b
00000250: ba53 00bc 5251 5abd d18e 6fbd fcc7 7bbd
00000260: 2cb8 d93c 6d20 f83c f0da 733b 8b53 923c
00000270: 05a7 203d 4ffb 523d 1c89 843d 733f 723d
00000280: 4684 413d ec8a 643d 88ad 573d 7b1f 93bd
00000290: f0d7 243c d48d 2d3c 77dc cbbc 65af c3bc
000002a0: 0e5d 34bc 48c2 d0bb 160b a5bc 33c5 30bc
000002b0: 2e0d 0bbd 8503 2e3d 5e90 04bb dec2 28bd
000002c0: 4800 10bb 3688 aebd 93f6 8abb 4cf4 9ebc
000002d0: 83bc 193d 1712 983c 6336 373b 24aa b8bc
000002e0: 6058 643d 6980 463d 80be da3c ab9f 2d3d
000002f0: e8c1 923d 10c5 853d d141 193d 854d b43c
00000300: c859 04bd c894 3e3d f2e9 653d 2e1e 8bbc
00000310: 28c9 d03b af9b b03c 1a48 d83b 0210 e538
00000320: 0670 cfbc cd3b 053d c267 28bd 8097 45bd
00000330: 08cb 1fbd 4728 71bd 772c d6bc e0db ac3b
00000340: 738d 423d c13b e63a e8f2 353c 7a5a bfbc
00000350: 5928 d33c 41df 703d 0191 b0bb 576e 6cba
00000360: 5300 bb3c 4847 303d 7fc3 263c 591a 983b
00000370: 38b9 71bd 0ca1 3fbd cc37 3d3d 603d 893a
00000380: 62e5 c33c c2bf 643d c67b 26bd 5f22 dbb9
00000390: 59c6 2cbd e93b 07bd 4a1d 1ebc 15b7 5e3c
000003a0: 56a8 d73b 7f36 a3bb b432 cebc 3cdf 613c
000003b0: d22c c4bc 16be ff3c 92eb b03a c3ae 1fbc
000003c0: 5d97 85bc 588c 93ba 7775 b13c 492e 1b3a
000003d0: bef2 263b 7db8 6c3d fa8e d73c 19c6 24bc
000003e0: d127 ccbc 2fd6 50bd 6198 0b3d fa3d 8abc
000003f0: 7528 90bb e05c 283d 4624 cebc d2e8 14bc

fc1.bias f4 [128]
0.024838466 0.07598518 -0.040629804 0.054610908 0.0206342 0.029205436 0.08429336 0.08218946
0.011636769 0.076530956 -0.04370164 0.07978089 0.05722179 0.011194949 -0.018312857 0.07113959
0.10664822 0.038075086 0.029087946 0.042426314 0.03859247 0.024928426 0.054213453 0.05186288
-0.018940268 0.06564735 -0.021522727 -0.017515201 0.0452695 0.015198165 0.020462247 0.13182168
0.049331117 -0.0031438894 0.08785548 0.07870921 0.089205705 0.020323373 -0.009452717 0.045342494
0.041418616 -0.024191378 0.02429441 -0.0394953 0.028555054 0.09304574 -0.027804587 0.0037196279
0.07001326 0.046675604 0.039349068 0.082420275 0.034924347 0.028158233 0.040278666 -0.027053101
0.0341594 -0.0051390515 0.020587718 0.026209326 -0.00394931 0.05647302 0.06423776 0.033512935
0.042969808 -0.022105305 0.079614356 0.13755819 0.026388614 0.015946625 0.051337563 -0.017278383
0.02543307 0.0343108 0.057382014 0.016166257 0.010003905 0.07744354 0.020740578 0.017402342
0.05391734 -0.005075071 0.028344871 0.050840057 0.09014077 0.03335569 -0.0053535127 -0.015020339
-0.0113842 0.018851807 -0.018756809 0.06411993 0.017961264 0.041720156 -0.024293106 0.039868005
0.007596555 -0.0033903064 0.08688482 0.039973393 0.04714469 0.013193751 0.013729988 0.0075830263
0.12126182 -0.021840157 0.026055194 0.06251951 0.025541956 0.027692001 0.10394899 0.047623817
-0.021051494 0.042047523 0.03584157 0.07605272 0.0060733827 0.011339809 0.009222377 0.01743447
0.023362426 0.011363933 0.054355044 -0.006601685 0.006872634 -0.023223586 0.054996178 0.0414391
00000000: 0a7a cb3c 1e9e 9b3d 706b 26bd b0af 5f3d
00000010: 0e09 a93c 3d40 ef3c ffa1 ac3d f352 a83d
00000020: 26a8 3e3c 43bc 9c3d 7e00 33bd 2a64 a33d
00000030: 6561 6a3d 056b 373c d804 96bc a2b1 913d
00000040: 626a da3d 9ff4 1b3d d849 ee3c 37c7 2d3d
00000050: 2313 1e3d b336 cc3c ed0e 5e3d 2c6e 543d
00000060: 9f28 9bbc 1e72 863d 6e50 b0bc 0a7c 8fbc
00000070: 836c 393d b901 793c 71a0 a73c 43fc 063e
00000080: 6d0f 4a3d b609 4ebb 93ed b33d 4b32 a13d
00000090: 7bb1 b63d 347d a63c 92df 1abc 0db9 393d
000000a0: 91a6 293d ff2c c6bc 1205 c73c d3c5 21bd
000000b0: 4aec e93c c48e be3d 72c6 e3bc 00c5 733b
000000c0: 1d63 8f3d eb2e 3f3d 7d2c 213d f6cb a83d
000000d0: d50c 0f3d 18ac e63c 3efb 243d 779e ddbc
000000e0: baea 0b3d 7d65 a8bb 93a7 a83c f1b4 d63c
000000f0: 3769 81bb 4150 673d 168f 833d dc44 093d
00000100: 1c01 303d 2f16 b5bc da0c a33d 0edc 0c3e
00000110: ef2c d83c 7fa2 823c 5647 523d 658b 8dbc
00000120: 0359 d03c 7b89 0c3d 6709 6b3d 196f 843c
00000130: 6be7 233c b89a 9e3d 25e8 a93c 5b8f 8e3c
00000140: 6ed8 5c3d c84c a6bb 8133 e83c aa3d 503d
00000150: b99b b83d fa9f 083d 856c afbb de17 76bc
00000160: cc84 3abc 1b6f 9a3c e1a7 99bc 4f51 833d
00000170: 8023 933c c1e2 2a3d 5602 c7bc a24c 233d
00000180: 86ec f83b e72f 5ebb abf0 b13d 24bb 233d
00000190: ca1a 413d 9a2a 583c bef3 603c 097b f83b
000001a0: 1e58 f83d 21ea b2bc b471 d53c 3b0a 803d
000001b0: 5d3d d13c 56da e23c 35e3 d43d 3111 433d
000001c0: 2f74 acbc 063a 2c3d 9cce 123d 87c1 9b3d
000001d0: 3a03 c73b 9bca 393c 7419 173c bcd2 8e3c
000001e0: 8f62 bf3c ca2f 3a3c 65a3 5e3d f352 d8bb
000001f0: d533 e13b 643f bebc ac43 613d 0cbc 293d

fc2.weight f4 [64, 128]
-0.048629787 0.043531056 -0.07577145 -0.1407864 0.037643313 0.124711305 0.05917328 0.0721826
0.15092745 0.05659553 -0.029228732 0.13405348 0.056741405 -0.025977843 0.004915399 0.010947309
0.14498901 0.12629184 0.080969624 0.0044676485 -0.00763181 0.028923064 0.035448477 -0.07165351
0.014406413 0.033992 -0.0013264413 -0.15195252 0.0053260657 0.053603366 -0.028164355 0.046013717
-0.030647282 0.03614686 0.17366834 0.04066703 0.16235411 0.103578575 0.044671357 -0.13896693
-0.14129554 -0.03634943 -0.05713031 -0.28222573 -0.010517355 0.16432597 -0.09669961 -0.010859233
-0.010368066 -0.20470308 0.1238715 -0.07502148 0.03862154 -0.16309294 -0.03255105 0.09003063
0.08261182 -0.05852497 0.008967682 -0.032955356 0.03781187 -0.07173793 0.17141648 0.022988416
-0.08377734 -0.0745216 0.08063023 0.128296 -0.02611979 0.05971128 -0.020453928 -0.086121805
-0.053042717 -0.051974952 0.040454026 -0.17367834 -0.086698644 -0.052362237 -0.017185636 -0.157554
-0.044312842 0.14375266 -0.08855685 -0.0014236417 0.13220125 -0.26775983 -0.15539199 0.0047656703
0.052055474 -0.03897335 0.090441376 0.051443346 -0.022568468 0.067851715 0.028318133 0.028630454
-0.15044971 -0.0073938672 0.041657723 -0.18871622 0.08356343 0.019733498 0.030638468 -0.07404572
-0.047434602 -0.11474494 -0.023735076 0.14913745 -0.009548082 0.17135337 0.011027878 0.11918908
-0.1018257 0.10325243 -0.019164927 0.107646964 0.08982672 -0.0013016468 0.11391338 -0.03243906
0.05539277 -0.1273273 0.14822623 -0.07316483 0.016721742 -0.1306913 -0.08999994 0.0610403
-0.025488328 0.011578572 0.12509637 0.018902412 0.07099604 -0.0038553043 0.06216628 0.0125167
-0.08285898 -0.017175568 -0.09015179 -0.021602374 0.09776552 -0.024129536 0.15564163 -0.008298888
-0.12229877 0.15470468 0.010623852 -0.06425878 0.12574656 0.073219225 0.08528073 0.059427917
0.0066936435 -0.013956655 0.021002254 -0.1954843 0.12493998 0.021680368 -0.00453589 0.07451629
-0.20464183 -0.12598288 -0.05303279 -0.0062341993 -0.034651265 0.017706951 0.08169683 0.027869618
0.07176737 -0.059233826 -0.050488263 -0.008287046 0.1264883 -0.08064529 0.046988033 0.13522044
0.050363604 0.06504329 -0.02973665 0.040514432 -0.19779417 0.07410622 0.0709812 -0.02292129
-0.05881616 0.11198056 -0.0544115 0.12819375 -0.07369025 0.1287897 -0.00982849 0.047380272
0.116850525 0.06578313 0.10238526 0.068679005 0.004214298 0.08508574 0.006462201 0.025053103
0.13068397 -0.07257768 0.1586891 0.009543423 -0.015438074 0.08138874 0.06966954 0.12160001
0.15026331 -0.035665505 0.12330383 0.08627145 0.014986152 -0.10066313 0.15047723 0.014053278
0.1385621 0.12866245 0.13894683 0.14221817 -0.0784062 -0.07593502 -0.030212272 0.03941369
0.11207387 0.05364351 -0.07813399 -0.051206265 0.09157206 -0.024632426 0.12084549 0.013620738
-0.049955036 0.15060906 0.0018265458 0.03106567 0.03807112 -0.12247294 0.0071414365 0.021950044
0.01783221 -0.070025325 0.059380982 -0.06066454 0.02597349 0.057279285 0.039709706 -0.014890988
0.14121054 0.1244826 -0.00040205548 0.18328339 0.004017543 0.01831703 0.05084439 -0.030735983
00000000: 0730 47bd 9f4d 323d 102e 9bbd 4f2a 10be
00000010: e02f 1a3d a468 ff3d ae5f 723d 79d4 933d
00000020: ba8c 1a3e b7d0 673d 1871 efbc 5145 093e
00000030: ad69 683d 7ccf d4bc 5b11 a13b 585c 333c
00000040: 0078 143e a652 013e 67d3 a53d 5a65 923b
00000050: 4314 fabb 10f0 ec3c 6c32 113d 13bf 92bd
00000060: e008 6c3c 323b 0b3d fcdb adba 7199 1bbe
00000070: 4786 ae3b 348f 5b3d efb8 e6bc e178 3c3d
00000080: 0210 fbbc bb0e 143d 1dd6 313e 7992 263d
00000090: 2840 263e 0121 d43d 50f9 363d 594d 0ebe
000000a0: c7af 10be 24e3 14bd 7901 6abd e47f 90be
000000b0: fc50 2cbc 1145 283e 720a c6bd edea 31bc
000000c0: d2de 29bc af9d 51be 57b0 fd3d dda4 99bd
000000d0: 9f31 1e3d d601 27be 4054 05bd fb61 b83d
000000e0: 6330 a93d e1b7 6fbd 2fed 123c 32fc 06bd
000000f0: 9fe0 1a3d 56eb 92bd cd87 2f3e 3452 bc3c
00000100: 7493 abbd c89e 98bd 7621 a53d 0760 033e
00000110: 2bf9 d5bc d193 743d ff8e a7bc a160 b0bd
00000120: 5243 59bd b0e3 54bd 1fb3 253d bcd8 31be
00000130: 0f8f b1bd c979 56bd e4c8 8cbc d655 21be
00000140: 6281 35bd e633 133e 4b5d b5bd 7d99 baba
00000150: c45f 073e d117 89be 141f 1fbe 5729 9c3b
00000160: 1f38 553d 85a2 1fbd 5439 b93d 42b6 523d
00000170: 82e1 b8bc d7f5 8a3d 6efb e73c 6a8a ea3c
00000180: 7d0f 1abe 4148 f2bb 4aa1 2a3d d33e 41be
00000190: 4e23 ab3d 25a8 a13c 86fd fa3c 48a5 97bd
000001a0: c94a 42bd 65ff eabd 1070 c2bc 7db7 183e
000001b0: 8f6f 1cbc 4277 2f3e 46ae 343c 6819 f43d
000001c0: fe89 d0bd 0376 d33d c4ff 9cbc 0376 dc3d
000001d0: 12f7 b73d 059c aaba 6b4b e93d d2de 04bd
000001e0: 87e3 623d 1662 02be 9ec8 173e 71d7 95bd
000001f0: 09fc 883c f1d3 05be e351 b8bd 6505 7a3d
00000200: e6cc d0bc 0db4 3d3c 4319 003e 3bd9 9a3c
00000210: 5f66 913d 46a9 7cbb 12a2 7e3d d812 4d3c
00000220: f8b1 a9bd c7b3 8cbc 80a1 b8bd 76f7 b0bc
00000230: 4a39 c83d 4eab c5bc 8560 1f3e 0ff8 07bc
00000240: c777 fabd e76a 1e3e aa0f 2e3c 1b9a 83bd
00000250: b5c3 003e f6f3 953d aaa7 ae3d b06a 733d
00000260: 5a56 db3b 74aa 64bc eb0c ac3c 092d 48be
00000270: 88e0 ff3d 079b b13c cea1 94bb ff9b 983d
00000280: a18d 51be a801 01be e938 59bd 4148 ccbb
00000290: 7cee 0dbd 2b0e 913c ab50 a73d d34e e43c
000002a0: c5fa 923d 2b9f 72bd c8cc 4ebd 64c6 07bc
000002b0: 2686 013e 5c29 a5bd 8676 403d 3a77 0a3e
000002c0: 114a 4e3d 6b35 853d 469a f3bc 76f2 253d
000002d0: 8e8a 4abe 00c5 973d 975e 913d 6ec5 bbbc
000002e0: 37e9 70bd 1056 e53d 98de 5ebd 3945 033e
000002f0: eaea 96bd 72e1 033e ad07 21bc d111 423d
00000300: 544f ef3d 4eb9 863d 5daf d13d 94a7 8c3d
00000310: 1818 8a3b 6f41 ae3d dfc0 d33b 2a3c cd3c
00000320: 05d2 053e 9ba3 94bd 657f 223e 045c 1c3c
00000330: faef 7cbc 24af a63d e7ae 8e3d 6d09 f93d
00000340: a0de 193e fe15 12bd b886 fc3d 16af b03d
00000350: 7a88 753c 7928 cebd b416 1a3e b83f 663c
00000360: 39e3 0d3e 17c0 033e 1448 0e3e a4a1 113e
00000370: 6e93 a0bd d283 9bbd ba7f f7bc 4070 213d
00000380: fc86 e53d 4cb9 5b3d b704 a0bd a9bd 51bd
00000390: 228a bb3d f1c9 c9bc d77d f73d 8429 5f3c
000003a0: a79d 4cbd 4339 1a3e b568 ef3a 6f7d fe3c
000003b0: 76f0 1b3d 18d3 fabd b602 ea3b 94d0 b33c
000003c0: db14 923c 7069 8fbd 7939 733d 617b 78bd
000003d0: 5bc6 d43c af9d 6a3d a5a6 223d 55f9 73bc
000003e0: 7f99 103e bcf0 fe3d f9ca d2b9 a4ae 3b3e
000003f0: 98a5 833b 990d 963c 3542 503d 07ca fbbc

fc2.bias f4 [64]
0.14436729 0.0055090445 0.05776625 -0.051639695 -0.093098305 0.10668366 -0.00691383 -0.025719795
-0.032435082 0.046079252 0.064811446 -0.001176751 -0.0006280818 -0.008594978 -0.10293343 0.0588258
-0.09517393 0.04572484 -0.054129113 0.0061648483 0.056430563 -0.007986566 -0.013439927 0.07030436
0.016692298 0.08551434 0.08287128 -0.0027341626 -0.01193075 0.11084254 0.009415433 0.003940923
0.03408689 -0.07488215 0.07927516 -0.06571596 0.030550754 0.023782238 0.08943498 -0.047926296
0.0709852 0.15269554 -0.07429728 0.011580888 0.043888498 -0.06931795 -0.023417609 0.14165823
-0.05292198 -0.01016412 0.07765435 -0.08899928 0.11189597 0.073439136 0.054307483 0.045478728
0.010141458 -0.06335569 0.10018322 0.021564513 0.028142437 0.10577134 0.0014526227 -0.025025014
00000000: 05d5 133e 3785 b43b 4e9c 6c3d 2584 53bd
00000010: 53aa bebd f67c da3d 698d e2bb 52b2 d2bc
00000020: a6da 04bd 99bd 3c3d ddbb 843d 363d 9aba
00000030: dba5 24ba f3d1 0cbc c3ce d2bd 52f3 703d
00000040: 8dea c2bd f849 3b3d 7db6 5dbd 7f02 ca3b
00000050: bc23 673d 16da 02bc 2433 5cbc bbfb 8f3d
00000060: 49be 883c 2422 af3d 6bb8 a93d a32f 33bb
00000070: 3179 43bc 6a01 e33d 3043 1a3c dc22 813b
00000080: b29e 0b3d d05b 99bd 045b a23d 1796 86bd
00000090: 9345 fa3c f8d2 c23c b029 b73d 5d4e 44bd
000000a0: b060 913d 385c 1c3e 2c29 98bd c4bd 3d3c
000000b0: 6dc4 333d 92f6 8dbd 49d6 bfbc db0e 113e
000000c0: b8c4 58bd 6987 26bc 3e09 9f3d 4145 b6bd
000000d0: b729 e53d 4267 963d 8671 5e3d e747 3a3d
000000e0: 5c28 263c a1c0 81bd dc2c cd3d 10a8 b03c
000000f0: f88a e63c a59e d83d ee65 be3a 4201 cdbc

fc3.weight f4 [32, 64]
0.037720066 -0.081091285 0.043482672 0.13803433 0.13182452 -0.024507836 0.029132383 0.06235282
0.07934057 -0.008490444 -0.09625102 0.066892765 -0.1476982 0.05597064 0.020570489 0.028968941
0.015623663 -0.011015489 -0.091103144 -0.18633482 0.16408896 0.11882251 -0.07504857 -0.1171044
-0.08995664 -0.10447969 0.15586905 0.08784206 0.06048432 0.12717454 -0.05809867 0.19892597
-0.054740217 0.015999809 0.008997243 -0.13194552 0.04588042 -0.0057293912 0.069445364 0.1337301
-0.12323368 0.07933115 -0.1657113 -0.13737002 0.15357094 -0.09357007 -0.017993182 -0.023462955
-0.100229606 0.009906253 0.04707543 0.0252512 0.18739672 0.086573295 0.13584706 -0.05417857
0.19332677 -0.0052572857 0.13502665 0.068553135 0.09047325 0.08306661 -0.059552316 -0.007150413
-0.041223988 -0.028413383 0.05719255 0.10327415 0.027806995 0.002855107 0.0066206455 0.035988696
-0.10167322 -0.057840303 0.011750743 0.0063325763 -0.051528655 0.04191187 -0.113773935 -0.036231603
-0.11122592 -0.109217346 -0.10832108 0.11875404 -0.060147747 0.04132583 -0.04947456 0.044995323
-0.0031952763 0.009945018 -0.01107311 0.014747495 -0.009318302 -0.013768814 -0.046768397 -0.038360182
0.08000235 -0.050523326 -0.1249025 -0.00305595 -0.07166274 -0.002273932 -0.13140544 0.04148568
0.03998768 0.0023534095 -0.04666405 -0.046181396 0.032421656 0.040583372 0.10076904 -0.063271694
-0.0401908 -0.08424208 0.04642255 -0.06287134 0.060782976 -0.07742805 -0.08585767 -0.1232475
0.051032446 -0.05292408 -0.0688004 -0.112745896 0.100161225 0.03095236 0.04179248 0.0037693828
-0.13571368 0.04009537 0.106477946 0.008388011 -0.03403941 0.01959206 0.034886952 0.15213738
-0.0031215819 0.12590227 0.079049885 -0.095869504 -0.20848493 0.041020606 0.11413406 0.10520983
0.044993814 -0.10509854 -0.13260588 -0.20245995 0.23043616 0.04607433 -0.123787336 0.12562284
0.054182895 0.17196281 -0.05609539 -0.10422699 0.05675846 0.15321405 -0.066787206 0.10138909
0.056950018 -0.0059446543 0.039123394 -0.027944641 -0.04335979 0.12523699 -0.017114567 0.05887143
-0.07796009 0.119032376 -0.14581037 0.023288501 0.19586633 0.116825014 -0.02123617 -0.12318646
-0.084247336 0.13653266 -0.0762251 -0.055302486 0.26403373 -0.0071255104 -0.027069474 -0.08283468
0.1260992 0.07218615 0.065583296 0.1351842 -0.024258947 0.0924082 -0.04391612 0.015495519
-0.0074029136 0.16519442 0.19716933 -0.14404958 0.07744948 -0.06365922 -0.07931715 0.1923665
0.06424087 -0.00025711712 -0.12771541 -0.11477375 0.06447418 -0.07190459 0.03755749 0.11953783
0.009187816 -0.043906663 0.03850866 0.13639635 -0.053111073 -0.19369902 0.21198978 -0.010260184
0.15714043 -0.047845803 0.1269984 -0.033134956 -0.00018741118 -0.20785506 -0.11791538 -0.038581364
-0.08642412 0.02656065 -0.081594735 0.18096884 0.015445152 -0.14174542 -0.14071833 -0.0130042415
-0.09309036 -0.14343786 -0.09547155 0.013207252 -0.09546787 0.09503682 -0.07994836 0.0346257
0.02781328 -0.09156407 0.14732687 0.0646574 -0.06221867 -0.031195356 0.12159306 -0.06342731
0.07982712 -0.026623683 -0.009274395 -0.0047688535 0.009625377 0.029607732 0.06291006 -0.012106139
00000000: 5b80 1a3d 3013 a6bd e31a 323d df58 0d3e
00000010: 02fd 063e a8c4 c8bc 09a7 ee3c ac65 7f3d
00000020: 4f7d a23d 811b 0bbc 411f c5bd 13ff 883d
00000030: 323e 17be 7841 653d 7183 a83c 4650 ed3c
00000040: 64fa 7f3c 4f7a 34bc 4994 babd 8ece 3ebe
00000050: f006 283e 3759 f33d 11b3 99bd 6fd4 efbd
00000060: 303b b8bd 73f9 d5bd 239c 1f3e 8ae6 b33d
00000070: 68be 773d 0b3a 023e dff8 6dbd 40b3 4b3e
00000080: 4737 60bd 0812 833c 2c69 133c ba1c 07be
00000090: 1bed 3b3d 9ebd bbbb 5f39 8e3d 8bf0 083e
000000a0: f161 fcbd 5f78 a23d 39b0 29be baaa 0cbe
000000b0: b341 1d3e aaa1 bfbd 7066 93bc 6235 c0bc
000000c0: 2e45 cdbd d64d 223c 2bd2 403d 9bdb ce3c
000000d0: ede4 3f3e 574d b13d 7e1b 0b3e 59ea 5dbd
000000e0: 74f7 453e 4f45 acbb 6d44 0a3e 9665 8c3d
000000f0: 0a4a b93d d41e aa3d 21ed 73bd 034e eabb
00000100: 7cda 28bd 2fc3 e8bc bc42 6a3d 6681 d33d
00000110: 7fcb e33c bf1c 3b3b 00f2 d83b e268 133d
00000120: 0d3a d0bd f4e9 6cbd 3086 403c 8081 cf3b
00000130: b60f 53bd c8ab 2b3d 4f02 e9bd 9767 14bd
00000140: 6aca e3bd 58ad dfbd 71d7 ddbd 5135 f33d
00000150: 7c5d 76bd 4645 293d d6a5 4abd 044d 383d
00000160: d767 51bb 6ef0 223c fd6b 35bc 7a9f 713c
00000170: cbab 18bc 9796 61bc 3890 3fbd 911f 1dbd
00000180: 46d8 a33d 8cf1 4ebd e2cc ffbd 5546 48bb
00000190: eac3 92bd 4006 15bb 268f 06be e3ec 293d
000001a0: 1fca 233d a93b 1a3b ce22 3fbd b428 3dbd
000001b0: 92cc 043d c03a 263d 0060 ce3d 9794 81bd
000001c0: 1c9f 24bd 1d87 acbd 9225 3e3d b0c2 80bd
000001d0: 92f7 783d 9992 9ebd 25d6 afbd 2f69 fcbd
000001e0: 6607 513d ecc6 58bd 39e7 8cbd 52e7 e6bd
000001f0: 5421 cd3d ce8f fd3c 972e 2b3d c007 773b
00000200: 87f8 0abe 0b3b 243d 1c11 da3d de6d 093c
00000210: e96c 0bbd 877f a03c 9fe5 0e3d e7c9 1b3e
00000220: 7493 4cbb 86ec 003e e8e4 a13d 3b57 c4bd
00000230: 137d 55be 3905 283d 1ebf e93d 4078 d73d
00000240: 6f4b 383d e73d d7bd d6c9 07be a951 4fbe
00000250: 75f7 6b3e 70b8 3c3d 3784 fdbd 46a3 003e
00000260: e2ee 5d3d 0517 303e 48c4 65bd f674 d5bd
00000270: 8f7b 683d 25e4 1c3e bbc7 88bd 15a5 cf3d
00000280: 6c44 693d 60cb c2bb da3f 203d 29ec e4bc
00000290: 099a 31bd 203e 003e d933 8cbc 2b23 713d
000002a0: 8aa9 9fbd 3fc7 f33d 504f 15be 87c7 be3c
000002b0: 2f91 483e f441 ef3d 7af7 adbc 2f49 fcbd
000002c0: de89 acbd 38cf 0b3e e81b 9cbd dc84 62bd
000002d0: 6e2f 873e 1d7d e9bb cdc0 ddbc 3ba5 a9bd
000002e0: 2620 013e 55d6 933d 8950 863d ba6d 0a3e
000002f0: b3ba c6bc 8340 bd3d 64e1 33bd ebe0 7d3c
00000300: 2494 f2bb ba28 293e c2e6 493e bc81 13be
00000310: d59d 9e3d c45f 82bd 0871 a2bd b9fb 443e
00000320: b890 833d adcd 86b9 d4c7 02be 800e ebbd
00000330: 0a0b 843d b742 93bd e2d5 193d 40d0 f43d
00000340: 7e88 163c 79d7 33bd 42bb 1d3d 7cab 0b3e
00000350: ff8a 59bd 0959 46be d913 593e 551a 28bc
00000360: 6ce9 203e f6f9 43bd de0b 023e 85b8 07bd
00000370: ce83 44b9 f5d7 54be 9e7d f1bd 7e07 1ebd
00000380: 21ff b0bd b895 d93c 241b a7bd e54f 393e
00000390: aa0d 7d3c b625 11be 7718 10be be0f 55bc
000003a0: 29a6 bebd 60e1 12be 9786 c3bd 3b63 583c
000003b0: a984 c3bd aaa2 c23d f7bb a3bd aed3 0d3d
000003c0: add8 e33c f185 bbbd dbdc 163e 196b 843d
000003d0: 01d9 7ebd 678d ffbc c805 f93d 2de6 81bd
000003e0: 677c a33d e919 dabc a2f3 17bc 0b44 9cbb
000003f0: c2b3 1d3c ea8b f23c fdd6 803d d458 46bc

fc3.bias f4 [32]
-0.015569491 -0.08583755 0.058836397 0.038777523 0.10243048 -0.03840663 -0.019621927 -0.039925765
-0.004416539 0.027261773 0.16225277 -0.050535526 0.093818136 0.17718135 0.06985585 -0.08208971
0.0587701 -0.08943046 -0.081907995 -0.040328212 0.067119986 0.10266945 -0.06249091 0.061393917
0.094759256 -0.0463799 -0.047380038 -0.025153346 0.09074835 0.06190147 0.031903654 -0.00028925412
00000000: 2e17 7fbc 99cb afbd 6ffe 703d 2ed5 1e3d
00000010: 12c7 d13d 4550 1dbd 2abe a0bc 3389 23bd
00000020: 9db8 90bb 1554 df3c 9725 263e 57fe 4ebd
00000030: b923 c03d 076f 353e 9510 8f3d a61e a8bd
00000040: ebb8 703d 5127 b7bd 61bf a7bd 322f 25bd
00000050: 3476 893d 5c44 d23d 78f6 7fbd 3078 7b3d
00000060: 2411 c23d daf8 3dbd 9211 42bd 640e cebc
00000070: 45da b93d 658c 7d3d 68ad 023d 08a7 97b9

fc4.weight f4 [10, 32]
-0.16710158 0.034255233 -0.22961909 0.1435687 -0.18874973 -0.014490168 0.17449741 -0.022393884
-0.22935013 -0.062560536 -0.027460918 0.047505528 -0.29850903 -0.08501755 0.004985704 0.11695321
-0.1325186 -0.20499834 -0.13145635 0.02466693 -0.20162806 -0.1912792 0.17534462 -0.123481944
-0.21296106 -0.16271715 -0.036251646 0.21263157 0.13748509 0.065991685 0.24765784 -0.22131668
0.18888679 -0.12763262 0.19192179 -0.12366748 -0.08309825 0.053340275 -0.07604918 0.11912877
-0.05510883 0.016162902 -0.06699035 -0.19897641 -0.22407101 0.25336573 -0.009496312 -0.020777151
-0.10228503 -0.0031297824 0.0072775553 -0.114690594 0.2507453 0.15813655 0.039257515 0.11406621
-0.22863866 -0.14662981 0.064682096 -0.09274498 -0.21477315 0.118106 -0.019437835 -0.17115852
-0.26767614 -0.06257972 -0.2264337 -0.040175788 0.096078984 -0.07501298 0.03397821 0.06868661
0.053862568 0.17090207 -0.007586885 -0.12997074 -0.097271614 0.15367712 0.10896712 0.010485351
0.044488624 -0.05317439 0.01806947 0.21509564 0.15424964 0.062743366 0.057421952 0.1388047
0.07391954 0.08818472 -0.12859878 0.11403077 -0.21366107 -0.12647223 -0.25215152 -0.1541754
-0.12327089 -0.16119304 -0.11748327 0.14025275 0.021089707 -0.07089725 -0.051414862 0.0034343302
0.000129578 0.11611054 -0.2265939 -0.11673418 0.070223875 0.16337252 0.17275606 -0.050291047
0.08003599 -0.0073727015 -0.09791276 -0.11892515 -0.16647884 -0.1734772 0.20929685 0.12844135
0.10904849 0.113216974 -0.08035673 0.009074139 -0.24713726 0.148856 0.1007594 0.23600133
0.15199144 -0.09097724 -0.07354017 -0.26581955 0.27669585 0.1236763 -0.225151 -0.19590496
0.071024954 0.0022527606 0.093333155 -0.032839883 -0.021276642 -0.02022977 0.08671101 0.13118114
-0.20722853 0.19484909 -0.11449035 -0.142774 -0.25816885 0.0857076 -0.007010715 -0.017773781
0.12356523 -0.26904157 -5.2657255e-05 0.20711076 -0.13506517 0.09736146 0.055455666 -0.18699609
0.03762931 0.06561868 0.04263438 0.17215466 -0.25432682 -0.11152817 -0.058583062 -0.20578326
0.12109621 -0.037276696 0.018923568 0.06398866 -0.005319709 0.1474462 0.18450448 -0.037768587
0.19814967 -0.16033563 -0.10222249 -0.115458034 -0.05410883 -0.1301931 0.046454754 -0.17844297
-0.18499975 0.18155985 0.00103272 0.08551128 0.07756845 -0.14535476 0.10775317 0.0886602
0.10080101 0.11264715 0.040208135 -0.12705229 0.08907562 0.10330866 -0.17922923 -0.25675535
-0.16193451 0.20262976 0.19243854 -0.09401438 0.044952035 0.13271174 -0.25523588 0.035190552
0.08694066 -0.27220476 -0.14626288 0.049913444 -0.011197942 0.027160095 -0.13198783 -0.0073813186
0.19758399 0.015895808 0.14917187 -0.17590027 0.1193019 -0.03884726 0.15981211 -0.26185918
0.13154699 0.11996808 0.056924712 -0.22118615 0.009822051 0.058301367 -0.0008295273 0.13914493
0.23058546 -0.2526166 -0.24800833 0.018394098 0.024774235 -0.022567311 0.24112886 -0.11696753
-0.122423284 0.009321606 -0.08413504 -0.18082416 0.018103063 -0.107207425 -0.039204434 -0.08928859
-0.023080608 0.14802545 0.24187675 -0.17611001 0.15409523 0.13440867 -0.2412297 0.03368577
00000000: ad1c 2bbe 374f 0c3d 4421 6bbe ac03 133e
00000010: 9c47 41be 2b68 6dbc 73af 323e 6173 b7bc
00000020: c3da 6abe bd1f 80bd b8f5 e0bc 2895 423d
00000030: 2dd6 98be ae1d aebd 1e5f a33b 2a85 ef3d
00000040: f5b2 07be 16eb 51be 7e9c 06be 4d12 ca3c
00000050: 9677 4ebe b2de 43be 8a8d 333e 1ae4 fcbd
00000060: 7712 5abe 539f 26be 9b7c 14bd 17bc 593e
00000070: e4c8 0c3e a626 873d 049a 7d3e d7a0 62be
00000080: 8a6b 413e 20b2 02be 2587 443e 6045 fdbd
00000090: 6a2f aabd 557b 5a3d acbf 9bbd c9f9 f33d
000000a0: ccb9 61bd 1068 843c 3d32 89bd 79c0 4bbe
000000b0: df72 65be 27b9 813e 6b96 1bbc d834 aabc
000000c0: d07a d1bd 091d 4dbb 8f78 ee3b e7e2 eabd
000000d0: b061 803e 8cee 213e 7dcc 203d 8c9b e93d
000000e0: 4120 6abe 2026 16be 0c78 843d 14f1 bdbd
000000f0: 7eed 5bbe 8fe1 f13d 183c 9fbc 2e44 2fbe
00000100: d90c 89be cc29 80bd 3cde 67be 5e8f 24bd
00000110: 0fc5 c43d 68a0 99bd bc2c 0b3d 91ab 8c3d
00000120: ff9e 5c3d f400 2f3e 679b f8bb 0d17 05be
00000130: 5736 c7bd 895d 1d3e 272a df3d c0ca 2b3c
00000140: b439 363d 64cd 59bd 6d06 943c 0842 5c3e
00000150: 9ef3 1d3e 987f 803d 4833 6b3d d222 0e3e
00000160: 2163 973d 319a b43d 66af 03be f788 e93d
00000170: f8c9 5abe f081 01be 011a 81be 28e0 1dbe
00000180: 7375 fcbd ca0f 25be 129b f0bd 6b9e 0f3e
00000190: 52c4 ac3c 9432 91bd 6498 52bd 8012 613b
000001a0: 54df 0739 5dcb ed3d 3b08 68be 5412 efbd
000001b0: 89d1 8f3d 204b 273e f7e6 303e fcfd 4dbd
000001c0: e9e9 a33d b496 f1bb 7c86 c8bd 078f f3bd
000001d0: 6e79 2abe 02a4 31be ea51 563e 2186 033e
000001e0: d154 df3d 4dde e73d 1292 a4bd b3ab 143c
000001f0: 8d11 7dbe b56d 183e f25a ce3d 55aa 713e
00000200: a5a3 1b3e 4652 babd 3b9c 96bd 8019 88be
00000210: 14ab 8d3e 004a fd3d fc8d 66be 4f9b 48be
00000220: 8875 913d 0da3 133b 7425 bf3d 1d83 06bd
00000230: 5a4c aebc e7b8 a5bc 8b95 b13d 5954 063e
00000240: b733 54be 8586 473e eb79 eabd 5933 12be
00000250: b52e 84be 7787 af3d 24ba e5bb 529a 91bc
00000260: c40f fd3d d1bf 89be 4cdc 5cb8 d814 543e
00000270: 864e 0abe 7265 c73d 7b25 633d e77b 3fbe
00000280: 3121 1a3d 1663 863d 63a1 2e3d 5049 303e
00000290: 2037 82be e268 e4bd cbf4 6fbd d9b8 52be
000002a0: 4a01 f83d 73af 18bd 9905 9b3c 7d0c 833d
000002b0: f450 aebb 23fc 163e beee 3c3e 3cb3 1abd
000002c0: bfe7 4a3e 062f 24be 065a d1bd 4375 ecbd
000002d0: 38a1 5dbd 5751 05be 5747 3e3d c1b9 36be
000002e0: 9370 3dbe d3ea 393e 555c 873a 8a20 af3d
000002f0: 35dc 9e3d e1d7 14be b2ad dc3d 7b93 b53d
00000300: c370 ce3d 8db3 e63d 49b1 243d ff19 02be
00000310: 476d b63d 7e93 d33d de87 37be 7075 83be
00000320: 29d2 25be 2d7e 4f3e 9c0e 453e 9c8a c0bd
00000330: a01f 383d 96e5 073e 47ae 82be f823 103d
00000340: f20d b23d 6c5e 8bbe f0c5 15be 0a72 4c3d
00000350: 9377 37bc d97e de3c d127 07be fdde f1bb
00000360: 7553 4a3e ed37 823c 83c0 183e 331f 34be
00000370: 8e54 f43d 4e1e 1fbd c9a5 233e 6812 86be
00000380: 41b4 063e d3b1 f53d e329 693d 9f7e 62be
00000390: abec 203c 6acd 6e3d a274 59ba 027c 0e3e
000003a0: 981e 6c3e f756 81be e5f5 7dbe 38af 963c
000003b0: 56f3 ca3c 15df b8bc 7cea 763e ac8c efbd
000003c0: 0fb9 fabd a6b9 183c fe4e acbd f829 39be
000003d0: e04c 943c 918f dbbd d494 20bd f0dc b6bd
000003e0: 8b13 bdbc fc93 173e 8aae 773e 2f56 34be
000003f0: 24cb 1d3e 6da2 093e eb04 77be 17fa 093d

fc4.bias f4 [10]
-0.051869016 0.19532561 -0.05245867 -0.13420653 -0.0024144165 0.09209726 -0.11123292 -0.060627
-0.111835815 0.061463203
00000000: 9b74 54bd 7003 483e e7de 56bd 706d 09be
00000010: 303b 1ebb 7d9d bc3d 16ce e3bd 0454 78bd
00000020: 2d0a e5bd d7c0 7b3d
