models/checkpoint3.pth (torch, 446799 bytes, 8 tensors)

fc1.weight f4 [128, 784]
000000 1c 1c 11 3d 38 10 ff 3c 78 a5 f8 bc a1 0d c9 3c
       0.035427198 0.031135663 -0.03035234 0.024542632
000010 9c 8d f5 3b 2a b2 21 bc 3a a2 bb bc da bf 9e bc
       0.007493688 -0.009869138 -0.022904504 -0.019378591
000020 25 c5 ab bc 42 83 0a bd 3e a2 e8 3c ca 1a 13 3c
       -0.02096803 -0.033816583 0.028397676 0.008978555
000030 01 c7 d9 bc 7a b7 ef bc 8c bb d4 3c 37 9b 24 3b
       -0.02658415 -0.029262293 0.025968336 0.002511693
000040 06 ab df 3c 5c 23 aa bc 92 fd 47 3c 56 17 b6 bc
       0.02730323 -0.020768814 0.012206452 -0.022227924
000050 17 5a 71 3c 25 14 53 bc 59 0b a1 3c ce cb 75 bc
       0.014730952 -0.012883221 0.019658731 -0.015002204
000060 60 9c 1c bc bc 36 bb 3c ce 36 62 bc 17 b1 05 bd
       -0.009558767 0.022853248 -0.013807012 -0.03263959
000070 a3 4e eb 3c d3 00 c2 bc 17 90 41 bc 01 17 b6 3c
       0.02872402 -0.023682034 -0.011814139 0.022227766
000080 6a 71 d1 bc de 54 b6 bc ae e9 90 bb 95 5f be bc
       -0.025566775 -0.022257265 -0.004422388 -0.023238936
000090 45 9f 25 3c 5c a3 2c bc 9e 07 93 bc aa 96 be 3c
       0.010108774 -0.010536995 -0.017947968 0.023265202
0000a0 da dc b3 3a 4a b4 97 3c 66 14 90 b9 ef 49 e0 bb
       0.0013722435 0.018518586 -0.00027481018 -0.006844751
0000b0 af b7 a8 3c ca e8 64 3b ed b9 56 3a fa e4 2b 3d
       0.0205954 0.0034928792 0.0008191157 0.041966416
0000c0 b4 53 18 3d eb 37 04 bc 14 f6 47 bc a5 cc a9 3b
       0.0371892 -0.0080699725 -0.012204666 0.005181866
0000d0 45 93 df bc ce af 1b 3c d3 21 d4 bb 65 b4 5a bc
       -0.027291903 0.009502364 -0.0064737587 -0.0133486735
0000e0 e5 c0 c9 bb 93 e4 20 3c e5 15 8b 3c d3 12 41 3c
       -0.006157028 0.009820121 0.016978214 0.011784273
0000f0 d3 bb a6 bb f6 65 a8 bc 06 66 51 3c c0 03 9f bc
       -0.0050883084 -0.020556431 0.012780672 -0.019410968
000100 0c 10 54 3c e0 3d 6b bc b7 61 59 3c 51 48 29 3d
       0.012943279 -0.014358014 0.013267926 0.041328732
000110 5f 43 a4 3b 87 de e3 3c 0a 6a 7d ba 79 0d 83 3d
       0.005012914 0.02781607 -0.0009666985 0.06399054
000120 36 64 1f 3d 6e ad 0e 3d bd e2 32 3c 2e 23 db 39
       0.038913928 0.034833364 0.010918316 0.00041797146
000130 86 66 38 bb 43 ab 54 3c 11 d7 69 3c af ae eb bc
       -0.002813728 0.012980285 0.014272467 -0.028769819
000140 77 f8 0e bc 25 d5 1c bb 13 31 cf bb 01 e6 6c bb
       -0.008726231 -0.0023930755 -0.006322989 -0.0036147835
000150 43 e9 99 3c dc b5 82 3a 65 9f 0f bc d3 45 ff 3c
       0.018787986 0.0009972411 -0.00876603 0.031161224
000160 fc 7f 34 3a 8f ee fa 3c 24 e3 0f bd bc 9b 8b 3c
       0.0006885526 0.030631332 -0.035128728 0.017042033
000170 88 0e e9 bb 03 72 0e 3d d4 18 7b 3c 32 4f 52 3d
       -0.007112328 0.0347767 0.015325744 0.051345058
000180 0c 62 0d 3d d1 19 57 3d 8e 4d 0d 3d ad 76 c6 3c
       0.034517333 0.052514855 0.03449779 0.02422651
000190 78 56 ac 3c 86 d8 db 3c 67 36 41 3d ef 2b 98 ba
       0.021037325 0.026836645 0.047171023 -0.0011609773
0001a0 65 00 33 bd 63 a1 23 bd 9e 83 7a bd 98 ca 9c 3c
       -0.043701548 -0.039948832 -0.061160676 0.019139573
0001b0 e0 58 b1 3b ae 36 de bc 48 8e 4e bc 8e 96 80 3c
       0.005412206 -0.027125683 -0.012607165 0.01569679
0001c0 e3 f2 e3 3c 0a c2 c6 3b da 3e 0d bd 3b b2 af bc
       0.027825778 0.0060656117 -0.034483768 -0.021447292
0001d0 23 6b 11 3d 92 10 93 3b 8a e2 14 3d de 64 5a 3d
       0.035502564 0.0044880593 0.036348857 0.05331885
0001e0 ee de 80 3c c8 3f 5f 3d f1 d8 2f 3d c5 50 c8 3c
       0.015731301 0.054504186 0.0429315 0.024452576
0001f0 fb 5b 4d 3d ed 17 1a 3d e9 dc 8d 3d 0d a1 b8 3c
       0.050136548 0.037620474 0.06926901 0.022537732
000200 b8 6d e1 3b 66 78 89 3b 01 f1 62 3d 9d 56 a2 bb
       0.0068795346 0.004195261 0.05540562 -0.0049541728
000210 29 fa ad bb a5 85 19 bd 7b c7 45 bd 0d 0f 82 bd
       -0.0053093624 -0.03748097 -0.048285943 -0.06350527
000220 79 b3 8a bd 29 7f 9f 3c 4c ff a3 3b 97 a2 36 bc
       -0.06772513 0.019469814 0.005004799 -0.011147163
000230 ac ca c7 3c 5e 74 8e bc 7c 8d f4 3c 4d 3d dc b9
       0.024388634 -0.017389473 0.029852621 -0.00042007343
000240 79 37 51 3c 6d 72 e3 3c bb 47 b9 3c f6 13 50 3d
       0.012769573 0.027764523 0.022617212 0.050800286
000250 03 71 37 3c 5d 1b 95 3c 40 4c 96 3c 17 c0 4b 3d
       0.011196378 0.018201524 0.018346906 0.049743738
000260 3c 67 f3 3c c0 2d 1e 3d b7 70 97 3c b8 2d 09 3c
       0.029712312 0.03861785 0.018486364 0.008372717
000270 8b 9d 49 3c c7 96 87 3c b8 3e 26 bc 33 ff 9d bc
       0.012305628 0.016551388 -0.010146789 -0.019286728
000280 fe 9b 8b bc b6 09 2c bd 98 cc f3 bc fc ee ae bd
       -0.017042156 -0.04200145 -0.029760644 -0.085416764
000290 34 3e a2 bd 9f e3 7e bc bd ff 46 bc bc 19 e2 3c
       -0.079220206 -0.015557199 -0.012145934 0.027600162
0002a0 d8 e4 0f bd 98 a7 6b bc 8c bd 12 bd 57 65 3b bd
       -0.03513035 -0.014383219 -0.035825297 -0.045750942
0002b0 a3 f3 0d bc 02 cf 1f 3c 88 a1 3f 3d a7 b0 18 3d
       -0.008664045 0.009753944 0.046784908 0.037277844
0002c0 20 c1 36 3c d5 c5 a0 3c ff aa 7f 3c 78 d1 1d 3a
       0.011154443 0.019625584 0.0156047335 0.0006020288
0002d0 65 30 79 3d ab 90 71 3d d2 6a 81 bc fb bf d3 3c
       0.06083717 0.058975857 -0.015798006 0.02584838
0002e0 bc 42 cd 3c 68 c5 86 bc a3 f2 c6 bb 3b 02 ca bc
       0.025056235 -0.016451553 -0.006071405 -0.024659267
0002f0 d5 7d 18 bd 2f aa 88 bc ea f6 59 bd 3c a8 a6 bd
       -0.037229378 -0.016682712 -0.05321399 -0.08137557
000300 ce 57 b6 bd 8b ad 9e 3c 32 6f 61 bc fa b7 01 3d
       -0.08903466 0.019369861 -0.013759421 0.031669594
000310 f8 63 fb bb a3 68 b6 3c 4c 14 2c 3d dc d2 06 3c
       -0.0076718293 0.022266692 0.042011544 0.008228984
000320 b8 ee 9e 3c 26 35 66 3d db 38 ff 3c 8b 87 a0 ba
       0.01940094 0.05620303 0.03115504 -0.0012247426
000330 7c e5 e1 3b 36 8c fb 3c 7b f5 3a 3d 1d a3 c4 3c
       0.0068938117 0.030706506 0.045644265 0.02400356
000340 5f 7b 9a bc 48 6d e4 3b 41 e5 0a 3d 29 04 70 3c
       -0.018857656 0.006971035 0.03391004 0.014649429
000350 de b6 df 3c 45 9e bc ba 88 a5 b9 ba e0 73 e6 3c
       0.027308878 -0.001439043 -0.0014163712 0.028131425
000360 fb ae 89 3c 02 7b b0 3b 7b de 6e bd 42 3c b2 bc
       0.01680707 0.0053857574 -0.058317643 -0.021757249
000370 15 f5 74 bd 71 8a cc bc 8c 95 2a 3d 2e 28 03 bd
       -0.05980404 -0.024968358 0.041646525 -0.03202074
000380 81 e2 e4 bb 3a 5c 7d bc e5 20 dc bb 67 a2 4a bc
       -0.006985009 -0.015463883 -0.0067177885 -0.012367821
000390 b9 13 bf 3c 93 d2 68 3d b3 c4 81 3b 09 a0 25 3d
       0.023324834 0.056841444 0.003960216 0.040435825
0003a0 97 bc 16 bb ab 09 19 3c 09 00 31 3c b7 93 43 bc
       -0.0023000592 0.009340684 0.010803231 -0.011937073
0003b0 f9 6d f8 3c 78 2d 0c bc 25 ac 68 3b 82 96 72 bc
       0.030325877 -0.0085557625 0.0035502997 -0.014806392
0003c0 0c 10 92 bb d9 b8 82 3c d0 fb aa 3c a6 29 0c 3d
       -0.0044574793 0.015957283 0.020872027 0.034219407
0003d0 bf 87 c9 3c 8b ab fb bc 6e 42 e6 bb 08 9d 6a 3c
       0.024600862 -0.030721446 -0.007026962 0.014319666
0003e0 40 88 26 bd 5b af 0b bd ee 24 72 3c 1a 38 10 bd
       -0.040657282 -0.03410278 0.014779313 -0.035209753
0003f0 c4 f3 ff 3b d4 43 f0 3c 4d ad 89 bb bc b8 08 3c
       0.0078110415 0.029329218 -0.0042015673 0.008344825

fc1.bias f4 [128]
000000 af d4 37 bc 42 b4 aa 3c 5d fe df bc ec ae 94 3d
       -0.011220141 0.020837907 -0.02734297 0.07259926
000010 05 bf 3d bc bd 47 0a 3d 7c eb 68 3d 2a b6 33 3c
       -0.011581187 0.03375982 0.0568652 0.010968724
000020 4c 6c 80 3d eb 0b 82 3d 79 49 53 3d 44 44 ef 3c
       0.06270656 0.063499294 0.05158374 0.029207356
000030 51 f0 c6 3c f5 3f 73 3c 19 88 94 3c 20 d2 38 3d
       0.024284514 0.0148467915 0.018131303 0.045122266
000040 b2 71 f2 3c 36 d7 7b bc 46 50 12 3c d4 80 b6 3b
       0.02959523 -0.0153711345 0.0089302715 0.0055695567
000050 de 91 0c 3c 90 42 20 3d 56 54 95 3c c6 7a 34 3d
       0.008579699 0.03912598 0.018228691 0.0440624
000060 e3 32 fc bb af 93 89 3d 07 0c 44 3d 42 19 7a 3c
       -0.007696496 0.067176215 0.047863033 0.015264811
000070 94 fc 15 3d 73 c7 1c 3d 98 c4 0e 3d b1 33 93 3d
       0.03661783 0.038276147 0.034855455 0.07187594
000080 73 b0 e3 3c 6e da db 3c fb f8 ca bc bc eb 7f bc
       0.027794098 0.026837554 -0.024776926 -0.015620168
000090 5c 81 81 3d 12 35 70 3d 3e 3f 61 3d 9d 93 8d b8
       0.063235015 0.05864436 0.054991953 -6.750899e-05
0000a0 06 11 23 bc 6d 43 51 3d 3b 26 0c 3d 33 2e 1b 3d
       -0.009952789 0.051089693 0.034216147 0.037885856
0000b0 4d fc 00 3d 04 f6 ad 3c ee 7f 52 3c f8 6f 11 3d
       0.031490613 0.021235473 0.012847884 0.035507172
0000c0 e2 ad a9 3b 07 aa a2 3c 76 ff 2a 3d 3b 6b 11 3c
       0.005178199 0.019856466 0.041747533 0.008875663
0000d0 d0 47 31 3d 9c 4e 6b 3d 33 37 38 3d 89 3a 90 bc
       0.043281376 0.057448015 0.044974517 -0.017606037
0000e0 b2 d1 0e 39 05 bb 84 3d 85 4b 0c 3c 3b cd 80 3b
       0.00013620293 0.06480984 0.008562927 0.0039307154
0000f0 da 1d 4a 3d 7c 09 1a 3d 14 ec e2 3c 53 57 71 3d
       0.049344875 0.0376067 0.027700461 0.05892117
000100 ca 3c 06 3d e5 60 d7 3b 52 15 01 3d 56 45 63 3d
       0.032772817 0.00657283 0.031514473 0.055486046
000110 0d 98 23 3c 5c 2e 51 3c 9a fd d5 3c 3a 7b 53 3d
       0.009984982 0.012767401 0.026121903 0.05163119
000120 cd 36 45 3c ec 62 22 3d 5a 70 6e 3d 56 b4 94 3d
       0.012036991 0.03964512 0.058212616 0.07260959
000130 0c 24 3b 3d 99 9f 49 3d 32 30 c8 3c 9a df 1b 3d
       0.045688674 0.04922447 0.024437044 0.03805504
000140 4b ea 1d 3d 4d c6 67 3d 08 87 d9 3c 69 b6 3e 3d
       0.038553517 0.0565856 0.026553646 0.04656068
000150 62 17 49 3c e4 b2 95 3d 45 69 85 3c 3a 98 00 bc
       0.012273641 0.07309511 0.016285548 -0.007848794
000160 91 16 e4 3c 06 e0 9a 3c 1f 28 0d 3d 7e d8 48 3d
       0.027842792 0.01890565 0.03446209 0.049034588
000170 70 99 f9 3c c2 41 25 3d 9f 88 f8 3c 50 e5 6a 3c
       0.030468673 0.040345915 0.030338584 0.014336899
000180 f6 ce ee 3c 8e fc 9b 3d b6 5f 82 3d df b4 cc 3c
       0.029151421 0.0761653 0.06365912 0.02498859
000190 77 2b 47 bb 78 b2 d9 3c d2 5e 28 3c e0 b9 0f 3d
       -0.0030390897 0.026574358 0.010276513 0.035089374
0001a0 f8 35 66 3d 08 15 21 3c 3e db fb bb c1 d5 08 3c
       0.056203812 0.009831674 -0.007686048 0.008351744
0001b0 41 1f a0 bc 5f 5b 07 3d 31 c9 50 3d 81 f1 d9 bc
       -0.019546153 0.033046123 0.05097312 -0.026604416
0001c0 e1 5f 8c 3c d7 ce a8 3c c5 c9 b6 3b de ae 11 bc
       0.017135562 0.020606441 0.005578252 -0.008891789
0001d0 7c 0c 32 3c 94 15 3a bc d0 eb 0e 3d 39 0a 57 3d
       0.010867234 -0.011357684 0.034892857 0.052499983
0001e0 40 4b e4 3b fd 53 26 3d a5 c5 95 3b 52 4a 7a 3b
       0.0069669783 0.04060744 0.00457068 0.003819127
0001f0 de b4 a3 3c 16 01 74 3c f0 3b 32 3d 6c 51 00 bd
       0.019983705 0.014892837 0.043514192 -0.03132765

fc2.weight f4 [64, 128]
000000 f2 11 c2 bc 96 ab ee 3d f8 75 1d bd d7 6e e1 3d
       -0.023690198 0.11653821 -0.038442582 0.11007469
000010 d8 69 fb 3d f5 c8 c7 3d 15 e9 67 bc 07 c3 a4 bd
       0.122760475 0.097551264 -0.014154692 -0.08045011
000020 c8 c9 69 bd 5e b0 ca 3d 3f 16 ba bd 56 a6 12 3e
       -0.0570772 0.098969206 -0.09086274 0.14321265
000030 9f 71 ad 3c 26 4d eb 3d 3a 23 a5 bd 11 84 e1 3d
       0.021172343 0.11489324 -0.080633596 0.11011518
000040 c5 49 ee bc 2b 4f 69 bd e0 62 59 3c 78 ba 9a 3d
       -0.02908791 -0.056960266 0.013268203 0.07555097
000050 99 a7 6e bd fc 7a 84 bd aa 4a db bc 27 98 99 3b
       -0.058265302 -0.0646877 -0.026769001 0.0046873274
000060 71 22 dd 3d 90 32 09 3e 49 55 c2 bd ee 5e 2a bd
       0.10797585 0.13398194 -0.09488923 -0.04159444
000070 99 30 22 bd 27 1d b3 3d 5a 27 28 bb a3 b0 a8 3c
       -0.039597128 0.08745795 -0.002565822 0.02059204
000080 12 ba ab bd e1 e5 97 3b b2 dc a0 bd 38 4c 23 bc
       -0.083850995 0.004635558 -0.07854594 -0.009966902
000090 c2 37 8e 3d 2a de a1 3d 1e 25 09 3e ab 3d 06 bd
       0.06944229 0.079037026 0.13393065 -0.032773655
0000a0 fe 75 ec 3d 57 19 92 bd 6b 33 cb 3d e2 1f 15 bd
       0.11545943 -0.071337394 0.099219166 -0.03640736
0000b0 e4 fb 43 bc b4 69 8d bd fb 64 a5 bc be a8 e5 3d
       -0.011961911 -0.06904927 -0.020189753 0.11213826
0000c0 0a c8 33 3d c3 99 47 bd bd 68 e3 3c 54 20 79 bd
       0.043891944 -0.048730623 0.027759904 -0.060821846
0000d0 32 f1 1a bc e0 dc 0b 3e af 0b a0 3d 6e c0 d0 3d
       -0.0094569195 0.13658476 0.078147285 0.10192953
0000e0 81 26 41 bb 5e 7a 04 be 7f 4d 94 3d f8 20 9e 3d
       -0.0029472413 -0.12937304 0.07241344 0.07721132
0000f0 55 a8 c4 bd f5 2b 71 3d 80 e2 48 3d d5 ef 43 3c
       -0.09602419 0.05887981 0.049044132 0.011959036
000100 20 70 e2 3d 60 f5 07 be 44 c3 01 3d b1 d4 90 bd
       0.110565424 -0.13277197 0.03168036 -0.07071818
000110 e6 e1 f7 3d e0 47 f8 3d 56 10 96 3d b6 bd 03 3d
       0.121036336 0.12123084 0.073273346 0.032163344
000120 a4 31 0a bd f0 5d 15 bd 83 d0 ab 3d f6 dd a5 3d
       -0.033738747 -0.03646654 0.0838938 0.08098976
000130 eb 53 67 3c 46 2d 0a bd 7e 57 01 be e9 f5 a0 3d
       0.014119129 -0.033734582 -0.12631032 0.07859404
000140 18 b8 d4 bc 86 9c 8e bd f9 e6 89 bd 61 54 39 bd
       -0.025966689 -0.06963448 -0.06733508 -0.045246486
000150 35 31 41 bd 5b 16 92 bd bd fa ce 3d c8 64 21 3d
       -0.047166068 -0.0713317 0.10106418 0.039402753
000160 2c 37 00 3e 02 2b a7 bd 06 c0 8f 3d 7a bd 1c 3d
       0.12521046 -0.081625 0.070190474 0.038266636
000170 96 4e df bd f3 e2 18 3d ea 7e b4 bd d1 bf 24 3d
       -0.10903661 0.03732581 -0.088132694 0.040221993
000180 ca 26 9b 3c ec 12 a6 3d bb 37 01 3e 05 e9 3e 3c
       0.018939395 0.08109078 0.12618916 0.011652236
000190 c1 59 95 3d 53 00 a5 bd 65 0a 96 3d 59 1e 55 3d
       0.0729251 -0.080567025 0.07326201 0.052030895
0001a0 d5 d0 05 3e 4e 51 31 3c ec c0 fc bd 01 ed 9d bd
       0.13067944 0.010822607 -0.123414844 -0.077112205
0001b0 91 25 41 bd c9 a0 ad bd 58 d5 f9 3d 77 1e 69 3c
       -0.047154967 -0.08477933 0.12198895 0.014228455
0001c0 ea 51 ec bd c3 f1 5f bd ba 61 08 3d 0e 7b 12 3e
       -0.11539061 -0.05467392 0.033296324 0.14304754
0001d0 c7 ac 11 bd 8c a2 c4 bc be 48 af 3d d6 0e aa bc
       -0.035565164 -0.02400329 0.08558796 -0.020759027
0001e0 26 ba b6 3d f7 d1 32 3d cc a1 a5 bd 54 6f 91 bc
       0.08922224 0.04365727 -0.08087501 -0.01775328
0001f0 9b c0 d3 3d 3b e5 d1 3c c5 0f bb 3c ff e8 3f bd
       0.10339471 0.025622 0.022834668 -0.04685306
000200 df f8 96 3d 08 cc 5c 3d 35 9a 8b 3d aa 51 43 3d
       0.07371687 0.053905517 0.06816522 0.047685303
000210 10 14 09 bd 04 b6 cc bb 79 b5 89 bd e9 38 47 3d
       -0.0334664 -0.006247284 -0.06724066 0.048638258
000220 6c 5f a5 3d 13 0e ac 3d 13 eb b0 3d ba 90 dc bd
       0.08074841 0.08401122 0.08638587 -0.10769792
000230 9b 77 c0 3d 6c 2e c9 bb cd 61 67 3d de ec fa 3d
       0.09397813 -0.006139567 0.056489754 0.1225221
000240 73 24 44 bd a4 d6 c7 3d 41 32 1f bd 31 3e 06 bb
       -0.047886323 0.09757736 -0.038866285 -0.0020483846
000250 9e 15 c1 bc bb f2 ae 3c f4 91 93 3d e3 80 9f 3d
       -0.023569878 0.021355977 0.07205573 0.07788255
000260 f4 99 eb 3d 14 72 bf bc f3 67 0f bd 6f 47 92 3d
       0.115039736 -0.023369826 -0.035011243 0.07142531
000270 53 21 d0 3d 3f 45 ad 3d de 95 6d bd 98 2e 53 bd
       0.10162606 0.08460473 -0.058004253 -0.051558107
000280 84 ac 54 3c 02 2e bc bc b7 73 1c bd 87 e7 21 bd
       0.012980584 -0.022971157 -0.03819629 -0.039527442
000290 20 98 df 3d 28 b9 bb 3c cc 3e ce 3d 1b 4b 79 3c
       0.109176874 0.022915438 0.10070571 0.01521566
0002a0 94 01 7d 3d 3e 08 83 3d a3 1b 2a 3d 3b 38 e1 3d
       0.061769083 0.063980564 0.041530263 0.10997053
0002b0 fd e8 fd 3d af 23 73 bd 3e b1 c2 3d 63 bc 4e bd
       0.123979546 -0.059360202 0.095064625 -0.05047263
0002c0 83 03 9e 3d 47 cc 26 bd 9f d7 9f 3d 79 ce 11 bd
       0.077155136 -0.040722158 0.07804798 -0.0355973
0002d0 62 ea 4e 3c 0d 1e 88 bd 2f 88 01 3e eb 66 9e 3d
       0.012629123 -0.06646357 0.12649606 0.07734474
0002e0 a1 21 95 3d 68 9c ad 3c 3c a7 f2 3c 0f d4 a6 3d
       0.07281805 0.021192744 0.02962076 0.08145916
0002f0 39 a3 c5 3c a5 b7 e3 bc e7 a7 05 3e f4 96 ae 3c
       0.024125682 -0.02779753 0.13052331 0.021312214
000300 d2 64 af 3d 40 c3 72 bc 5d 18 15 3d c5 6f 27 3d
       0.08564152 -0.014817059 0.036400188 0.040878076
000310 13 02 da 3d da 6e ef bc e6 ea b7 3c da 26 d6 3d
       0.10644927 -0.029227663 0.022450875 0.10456629
000320 fe 0c c1 3d dc 3d ba 3d 40 6e 27 3d ea 44 26 3c
       0.09426306 0.0909383 0.040876627 0.010148266
000330 72 ed c4 3d f5 be fc bc a3 2a 07 3d 65 ad 70 3d
       0.096156016 -0.030852774 0.032999646 0.058759112
000340 c2 86 99 3c bb 18 3a bd 10 b9 d7 3c 53 97 5f 3d
       0.018741015 -0.04543374 0.026333362 0.054587673
000350 5a 11 03 be c1 76 9c 3d 48 17 d6 3c 78 53 f7 3d
       -0.12799588 0.07639838 0.026134148 0.12076467
000360 a4 bd 30 bd f5 cf 91 3d 4a ef 96 3d 3d e7 a3 3d
       -0.043149605 0.07119743 0.073698595 0.080030896
000370 33 3b 9c bd 37 e2 00 bc 17 19 a3 3d 1a 1c 74 3d
       -0.07628479 -0.007866434 0.0796377 0.059597112
000380 b4 28 bf bc 58 c6 b6 bb 60 62 11 3d 47 e0 51 3d
       -0.023334838 -0.0055778436 0.03549421 0.05123928
000390 bb 3a e4 3d 2d 37 f2 3d d3 90 62 3c 25 f0 cb 3d
       0.111440144 0.1182693 0.013828474 0.09957913
0003a0 8d c4 3c 3d c0 83 59 bd 8c 35 f1 3b 0a c4 d7 3d
       0.046085883 -0.053104162 0.0073611196 0.10535438
0003b0 59 44 c7 bc 79 ea e1 3d 3c c3 cd 3d 33 7a 92 3c
       -0.024324583 0.1103105 0.100470036 0.017880535
0003c0 ac 5c fc 3c 44 af a2 bd 0f 40 fb 3c 5b b6 e0 3d
       0.030805908 -0.079435855 0.030670194 0.109722815
0003d0 89 e4 e6 ba f1 7c 85 3d 60 44 7e bc 2f 62 a5 bd
       -0.0017615716 0.06517971 -0.015519232 -0.08075368
0003e0 90 09 3e bd 1c 6e eb 3d a0 0d d1 3a f8 c5 d0 3d
       -0.04639584 0.11495611 0.0015949495 0.101940095
0003f0 89 9d 8f 3d 12 03 6e 3d 18 f2 74 3d fa 90 0f 3e
       0.07012469 0.058108397 0.05980119 0.14020148

fc2.bias f4 [64]
000000 8a dd 1d bd 63 9f 02 bd c4 27 08 3c fb 57 80 3d
       -0.038541354 -0.031890284 0.008310262 0.06266781
000010 e3 c7 5e bd 67 03 66 bd 49 d8 30 3d 5e 3a fe 3d
       -0.054389846 -0.05615559 0.043175016 0.124134764
000020 10 35 d5 bb 59 40 bf bc 4f 8b ad 3d f5 eb 17 bd
       -0.0065065697 -0.023346113 0.08473837 -0.03709026
000030 61 48 b3 3d b8 14 ef bc 73 51 6a 3d f8 df ae 3d
       0.087540396 -0.029184684 0.057206582 0.085388124
000040 98 0f 7c 3d fd af 81 bc 64 19 70 bd 08 ee d4 3b
       0.06153831 -0.015830988 -0.058617964 0.006498102
000050 48 6f 63 3b 59 39 45 bc 72 cf 5a 3b a6 5a 4a bd
       0.003470378 -0.0120375985 0.0033387807 -0.049402855
000060 47 21 5a bd aa c5 76 bd d8 97 a7 3d 33 0a 99 3c
       -0.053254392 -0.0602471 0.08183259 0.018681621
000070 64 04 e3 bc 2b 93 3a bd eb 50 92 bc b6 2f a2 bb
       -0.027712055 -0.045550507 -0.01786085 -0.0049495352
000080 21 81 df 3d 4b 00 80 3d c2 c9 79 bd bb ca d9 3c
       0.10913301 0.06250056 -0.060983427 0.026585927
000090 94 4d 4e 3d f9 77 61 bd 4e bc f1 3d e8 08 32 bd
       0.050366953 -0.055046055 0.118034944 -0.043465525
0000a0 8b 2f 81 bd 2d e1 8f bd e4 d6 3f 3d 48 c2 94 bd
       -0.06307896 -0.07025371 0.046835795 -0.07263619
0000b0 59 7e 3e 3d 12 a2 8a bc 5c ed 4a 3d fa 62 99 3c
       0.046507213 -0.016922984 0.04954277 0.018723954
0000c0 b4 71 af bc 97 00 94 3c 8c 03 95 bc 16 0d 4c 3d
       -0.021416523 0.018066688 -0.018190168 0.049817167
0000d0 98 41 13 3d 41 fb 11 3c 51 c6 f0 ba ad 19 a9 bc
       0.035951227 0.008910001 -0.001836965 -0.020642126
0000e0 96 2c 87 3d 94 bf dd 3c a8 9a 0d bd c3 27 7b 3d
       0.06600301 0.02706889 -0.03457132 0.061317217
0000f0 bc 56 8e bd 73 9c e9 bc 69 b0 f9 3c d0 dd 71 3d
       -0.06950137 -0.028516984 0.030479627 0.059049428

fc3.weight f4 [32, 64]
000000 e9 97 bc 3d 04 5c df 3d a5 e0 08 3e 78 fc bf bc
       0.09208662 0.109062225 0.13366945 -0.023435816
000010 fd e2 8a bc 0b 83 92 bd f9 8f 8c bc ba 16 2f 3d
       -0.01695394 -0.07153901 -0.017158495 0.042746283
000020 7d df 53 bd 94 34 67 3a 80 1d 17 3d 19 e8 dc 3d
       -0.051726807 0.00088197854 0.036893368 0.107864566
000030 4d 5e 88 3d ab 8a 53 bd 1f 58 05 3d 99 a8 a4 3d
       0.066586114 -0.051645916 0.032554742 0.0803997
000040 e9 f4 15 be 13 1b aa 3d 7c 0d 12 bd 46 da e9 bd
       -0.14644207 0.08305945 -0.03565739 -0.114185855
000050 7d 97 ba bd 65 78 fd 3d 53 df 00 be 04 c3 47 3a
       -0.09110925 0.12376479 -0.12585191 0.0007620307
000060 11 b9 91 3c 83 ce 40 3e 03 09 19 3e 60 19 4c ba
       0.017788442 0.18828778 0.14944844 -0.00077857636
000070 94 fc 8a 3c d2 f3 0b be d2 82 b2 3d 11 16 03 be
       0.016966142 -0.13667229 0.08716358 -0.12801386
000080 38 7a 73 bc fe 76 71 39 7f 16 82 bd 61 5c 8c bd
       -0.014860682 0.00023027879 -0.06351947 -0.068535574
000090 86 16 11 3d 79 b9 3f bd 87 03 42 bd 7a 6c 14 be
       0.03542187 -0.04680774 -0.047366645 -0.14494506
0000a0 87 5b d2 bc ff af 97 3c 99 c0 35 3e 6b 6b d4 bd
       -0.02567841 0.018516539 0.17749251 -0.10372051
0000b0 8e 05 da bc 61 dc f4 3c b1 6f 48 3c 56 ea a5 3d
       -0.026613977 0.029890241 0.012233661 0.08101337
0000c0 42 b8 12 3e 99 b3 fd 3d a7 ec 4d 3c d4 5b c7 bd
       0.14328101 0.12387771 0.012568629 -0.09734312
0000d0 77 1f e3 bc 22 f9 84 3d b3 8e 9d 3c 01 05 56 bd
       -0.027724965 0.06492831 0.019233083 -0.052250866
0000e0 2c b2 10 3d b2 91 be bd 5a d5 03 3e 76 29 04 3e
       0.035326168 -0.09305133 0.12874356 0.12906441
0000f0 4f 6c b5 3d cb 57 d8 3d 17 23 23 bd c5 cd ac 3d
       0.08858549 0.1056362 -0.039828386 0.08437685
000100 1d af de bd f7 04 af bd b9 94 01 bd f4 1e 70 bd
       -0.10873244 -0.08545869 -0.031635974 -0.05862327
000110 06 4d 5c bd 15 42 17 3e ea 6c 69 ba 80 5f cc bc
       -0.053784393 0.14771302 -0.0008904474 -0.024947882
000120 5e 49 4c bd c4 b4 05 3d 4f 49 2c 3e 67 70 27 3e
       -0.049874656 0.032643095 0.1682484 0.16351472
000130 89 9a 0a 3e d9 db b6 3d 36 06 fe 3c cd 2c 19 bd
       0.13535513 0.08928651 0.031008821 -0.03739624
000140 49 6e f1 bd 85 7d 04 3c bb cf 92 3d 7b 39 54 3c
       -0.11788613 0.008086567 0.07168528 0.012953158
000150 da f2 24 3c fe 2c aa bd 6a 40 9a bd 24 9f 98 bd
       0.010067666 -0.08309363 -0.07531817 -0.07452229
000160 33 64 0f bd a9 e2 be 3d b7 2a ba 3d 3e a3 51 3d
       -0.035007667 0.09320576 0.090901785 0.05118107
000170 03 38 ef 3d f0 f1 e3 3c e8 00 0f 3d 97 60 89 bc
       0.11680605 0.027825326 0.034912974 -0.01676969
000180 8c 58 bb 3c 3c ef 3f 3d 79 19 02 3e b9 73 8d 3b
       0.02286937 0.04685901 0.1270503 0.0043167737
000190 d8 17 00 3e c7 db 01 3e 0a 31 0e 3e 56 92 20 3e
       0.12509096 0.12681495 0.13885894 0.15680823
0001a0 e8 60 e7 bd 11 55 86 3d c6 71 5e 3d 29 13 cc 3d
       -0.1129778 0.06559194 0.05430772 0.09964592
0001b0 60 02 e9 bd 2e cb 23 be f2 3e 08 bd d3 a6 3a 3c
       -0.11377406 -0.15995476 -0.033263154 0.011392313
0001c0 65 77 17 be 06 77 47 3c dd cb 09 bd 13 4a a5 3b
       -0.14791639 0.0121743735 -0.033641685 0.0050442307
0001d0 b0 16 95 bc 2f 80 04 3e 58 3d 9e bd 42 34 a8 3d
       -0.018199295 0.12939523 -0.07726544 0.082130924
0001e0 1f 07 96 3d e7 bb 3a 3d 16 30 2a 3c 86 8e 63 bd
       0.07325577 0.045589354 0.010387441 -0.055555843
0001f0 16 df be 3a ce 9b 01 bd 5a 31 0f 3d 0d ce 1f 3d
       0.0014562334 -0.031642728 0.034959175 0.039014865
000200 4c 7e c2 3d 7a 30 00 3e b7 8c a5 bd d3 3b 67 bd
       0.094967455 0.12518492 -0.0808348 -0.056453537
000210 38 f7 b7 bd 68 fe d4 bd 77 c9 ab bc 99 55 5a 3c
       -0.089827 -0.10400087 -0.02097009 0.013326072
000220 30 f5 81 bd a4 f3 d6 3d e4 27 c4 bd c1 78 95 bd
       -0.06345594 0.104956895 -0.09577921 -0.072984226
000230 50 25 a0 bd df 2a 11 bd 48 0d bc 3c 0e cd 96 3c
       -0.07819617 -0.035441276 0.022955552 0.018408325
000240 7c 55 3f bd 49 9e 8c bd 29 23 28 bd d2 c7 0e 3e
       -0.046712384 -0.06866128 -0.041049156 0.13943413
000250 05 40 c3 bd 62 a6 cf 3d 08 ee 3b bd 4c 79 1d 3e
       -0.09533695 0.10139157 -0.0458813 0.15378302
000260 fe 86 0f 3d 81 db 88 3d 05 e2 05 bd a5 87 cf 3d
       0.035040848 0.06682492 -0.032686252 0.10133294
000270 c6 07 fe bd 60 7b 5e bd c2 c6 26 bc e6 94 54 3b
       -0.124038264 -0.05431688 -0.0101792235 0.0032437383
000280 df 27 06 3e 79 e4 10 3e 82 44 7f bd 4a 1a c5 3c
       0.13101147 0.14149655 -0.062321194 0.024060387
000290 7b 30 d1 bd fa b7 24 3e 4d 31 0b bd 4d 23 38 3d
       -0.10214325 0.16085806 -0.033982564 0.04495554
0002a0 7b 8a 8a 3d 7e 31 d8 3d 35 84 13 3e d8 c8 f2 bb
       0.06764694 0.10556315 0.14405902 -0.0074091963
0002b0 eb e9 c6 bd 12 bc 0f 3e a4 60 4a 3d 48 57 86 3d
       -0.09712585 0.14036587 0.04940857 0.06559616
0002c0 7c 0e d8 bd ad 9c a7 3c 35 28 a3 3d 3e 55 96 3d
       -0.10549638 0.020460451 0.07966653 0.073404774
0002d0 07 46 22 3d 87 31 ea bd 78 cd 38 bd bc 8c d5 3b
       0.039617565 -0.11435228 -0.045117825 0.006517021
0002e0 b0 43 b9 3c f3 45 d9 bd 48 8c 21 3e 00 4e a1 3d
       0.022615284 -0.10609045 0.1577617 0.078762054
0002f0 40 33 9f bd ad 9e 49 3e 70 20 f4 3d 0b 7a 1c 3c
       -0.07773447 0.19689436 0.119202495 0.009550582
000300 3c 61 90 bc 6b 1f d5 3c a8 77 b7 3d 21 f8 81 3d
       -0.01762449 0.026015958 0.089583695 0.06346155
000310 c0 31 c3 bd d6 67 3a 3d 85 a5 b7 3d 61 4a e5 bd
       -0.095309734 0.045509182 0.08967117 -0.11195827
000320 14 cf 1b 3d 3e 3e 12 3b 6d 47 f4 3d 92 a5 8e bd
       0.038039282 0.0022314931 0.11927686 -0.06965174
000330 bd 02 2b 3e c9 39 1e 3e 28 43 b9 3d da b6 4c 3d
       0.16700263 0.15451731 0.09046012 0.04997907
000340 57 88 06 be 19 14 f5 3d 86 86 b2 3d 6f 0e 68 3d
       -0.13137947 0.11966724 0.087170646 0.05665439
000350 d8 03 dc bd 19 13 e2 bd 0b 3a 89 bc f8 f6 8d 3d
       -0.10742921 -0.11038799 -0.01675131 0.06931871
000360 9c b1 13 3d a3 fd 4e bd dd 99 b1 bc cf ce 08 3d
       0.036058053 -0.050534856 -0.021679813 0.033400353
000370 43 27 0a 3e 0f 19 a5 bb 68 63 1c bd ac f2 70 bc
       0.1349154 -0.0050383876 -0.03818074 -0.014706295
000380 8d a4 ad bc 03 3d 2d bd df de 14 3d ce 1b 21 3d
       -0.021196628 -0.042294513 0.03634536 0.039333157
000390 6c 64 6b 3d dc d5 f8 38 0b f2 a6 3d e1 3b 43 bd
       0.057468817 0.00011865396 0.08151635 -0.047664527
0003a0 60 94 23 be ed 3c 48 3d 78 cc da 3d d5 cd f8 3d
       -0.1597457 0.04888623 0.106835306 0.12148634
0003b0 a5 64 71 bd 61 b3 4e bd c5 81 ee 3c 78 53 8f ba
       -0.058933873 -0.050464038 0.029114613 -0.001093491
0003c0 8a b1 dd 3c 69 29 4a 3d a5 5e 07 3e ab 56 0d 3e
       0.027062196 0.049355898 0.13219698 0.13802592
0003d0 03 68 23 be 31 ae 64 3d bd 9d ad 3d 2c 84 c3 bb
       -0.15957646 0.055830184 0.08477352 -0.005966684
0003e0 a7 ef 01 3e df d3 06 3e 23 5c 59 bc f9 c3 a1 bd
       0.12689076 0.1316676 -0.013266596 -0.07898707
0003f0 f2 d7 24 3e 4f 95 c8 bd 38 b7 9e bd 82 33 a7 3d
       0.16098002 -0.09794103 -0.0774979 0.08164121

fc3.bias f4 [32]
000000 96 77 82 bd e7 c1 9b 3c 88 1b 14 3e 3e 5a db bc
       -0.063704655 0.019013358 0.14463627 -0.02677643
000010 43 01 88 bd bd 75 4c 3d c7 c9 f4 3d ef 28 48 3a
       -0.06640866 0.04991697 0.119525485 0.0007635494
000020 eb 11 a9 3d 37 7c 40 bd 2a 45 ce 3d 96 ff a2 bd
       0.08255371 -0.04699346 0.10071786 -0.079589054
000030 9d 57 e9 bd 9d b8 44 bd 71 09 34 3d c2 47 cb bc
       -0.11393664 -0.048027623 0.043954317 -0.02481449
000040 3d 02 15 3e 26 7f e4 3d 6d df f3 3d 94 93 c0 3d
       0.14551635 0.11157064 0.119078495 0.09403148
000050 ad 93 97 bd 52 2f 84 bd b7 83 cd 3d 5b fc 47 bd
       -0.07401214 -0.06454338 0.10034888 -0.04882465
000060 fe 74 36 bc c8 d6 b1 3c 8c dd f5 bd ea 5e e9 bd
       -0.011136292 0.021708861 -0.12005147 -0.113950565
000070 31 c0 bc 3c ac 50 72 3d 82 18 2c 3d 9b 74 98 bb
       0.023040863 0.059158966 0.04201556 -0.0046525723

fc4.weight f4 [10, 32]
000000 69 76 34 be 95 51 1b be b6 18 42 3d 7a 6d 34 bd
       -0.17623295 -0.1516784 0.047386847 -0.044049717
000010 6f 57 1b be 66 29 61 3e ff 96 36 3d eb c6 37 be
       -0.15170072 0.21988449 0.044577595 -0.17946975
000020 5a 05 66 3d 6a 67 cf bd 44 51 ee 3d 57 2b 27 be
       0.056157447 -0.101271465 0.11636594 -0.16325127
000030 92 f0 77 3d 8e 31 26 be 8c 0d 63 3d f8 46 cb 3c
       0.06053216 -0.16229841 0.05543284 0.024814114
000040 86 ad c6 bd c1 22 5e 3e d9 ad 15 3e 71 f6 a2 3d
       -0.09701066 0.21692945 0.14617099 0.07957161
000050 b6 cc 47 be 55 7e 25 be 5b 76 72 3d 3c e7 55 be
       -0.19511685 -0.16161473 0.059194904 -0.2088899
000060 6e 65 25 be a2 ec b6 3d 7a 5c 7a bd ce c7 30 3e
       -0.16151974 0.08931853 -0.06112335 0.1726372
000070 01 85 45 be ba 7b 24 be f7 c2 15 3e 32 0a cc 3d
       -0.19289018 -0.16062823 0.14625154 0.09962882
000080 c5 cb 2d be b2 a1 3d 3e 16 72 28 be fc 07 9c 3d
       -0.16972263 0.18518713 -0.1644977 0.076187104
000090 6d 87 78 bd 3d e0 d4 3d 08 e5 95 3d 6a cf 94 bd
       -0.060676027 0.103943326 0.07319075 -0.072661236
0000a0 95 f1 59 3e b2 45 9f bd 5f 58 13 be 40 05 aa 3c
       0.21283562 -0.07776965 -0.1438918 0.020754457
0000b0 78 a6 27 3d b0 5e 1e 3e d9 9a bb 3a fa 2f 84 bd
       0.04093024 0.15465808 0.0014313116 -0.06454463
0000c0 3a c7 62 3e 35 8a 9b 3d ac 81 16 be f7 43 2c 3e
       0.22146311 0.0759472 -0.14697903 0.16822802
0000d0 8a e9 c9 bd 32 8b 4b be e0 1c 43 be ae be 4c 3d
       -0.09858997 -0.19877318 -0.19053984 0.049986534
0000e0 89 42 7b be 03 ef 33 be 22 14 a9 bc 10 bf 15 3e
       -0.245371 -0.17571644 -0.020639483 0.14623666
0000f0 54 c4 75 3e 6c d0 02 be f6 ae a6 3d 84 c9 76 be
       0.24000674 -0.12774819 0.0813884 -0.2410031
000100 86 0c 20 3e b0 e1 17 3e 07 d0 02 be 26 89 43 3e
       0.15629777 0.14832187 -0.12774669 0.19095287
000110 90 93 f4 bd 2c 6a 9a 3b 01 62 1e 3e 2e b1 f5 bd
       -0.11942208 0.0047123637 0.15467073 -0.11996685
000120 8c 80 22 3e 5d c0 a5 bc 72 0d 42 be 18 98 09 be
       0.15869349 -0.020233328 -0.18950441 -0.13436925
000130 6e 4b 66 3e b0 25 58 3e d7 f9 98 3a df 72 2a 3e
       0.22489712 0.21108127 0.0011671138 0.16645382
000140 3d 21 4b be 4c 68 1e be b9 9f d1 bc a5 67 65 be
       -0.19836898 -0.15469474 -0.025588857 -0.22402819
000150 e4 c8 20 3e 0d 3d df 3d da 02 22 3d 04 9e 01 3d
       0.15701634 0.109003164 0.0395535 0.031644836
000160 ab 8b 74 3d 31 41 1d 3e 75 cb 30 be 55 61 79 bd
       0.05970351 0.153569 -0.17265113 -0.06088384
000170 20 b6 7d 3d 3e d3 65 be d1 7f f7 bd 88 40 9f 3d
       0.061941266 -0.22443864 -0.12084926 0.0777598
000180 be 9f 29 3e 14 a0 b3 3d 19 f8 da bd ad 14 40 3e
       0.16564843 0.08770767 -0.10691852 0.18757887
000190 e6 3e ef 3d ef 26 96 3d e7 45 37 be 76 55 c2 3d
       0.11681919 0.07331645 -0.1789776 0.09488957
0001a0 88 31 4f 3e f9 d4 83 3b 8e 0a 2d be cf 38 29 be
       0.20233738 0.004023191 -0.16898558 -0.16525577
0001b0 5b 28 38 be 6c 99 b3 bd 83 bd 2c bd 8d e4 a1 bb
       -0.17984144 -0.08769497 -0.04217292 -0.0049405755
0001c0 05 b1 4c 3e 28 00 d0 bd 56 4f 93 bd a5 d4 59 3d
       0.19989403 -0.1015628 -0.071928665 0.05318131
0001d0 95 fc 6a 3d 83 49 5b be c1 bf 86 3d 6a 58 92 3d
       0.057369787 -0.21414761 0.06579543 0.0714577
0001e0 79 81 83 bd 01 d1 b1 bd ff 95 f3 bd 83 87 3b 3c
       -0.06421179 -0.086824425 -0.11893844 0.011445883
0001f0 1c 79 06 be 8a 2b 11 3e f0 20 ef 3d dd 10 30 3d
       -0.13132137 0.14176765 0.11676204 0.042984832
000200 89 7b 9f 3d 97 76 e9 3d bc a0 b6 3d df a3 2a be
       0.07787234 0.11399572 0.089173764 -0.16664074
000210 30 57 b8 bd 74 a8 9f bd d0 49 9e bc 41 7f 1a be
       -0.09001005 -0.07795802 -0.019322306 -0.15087606
000220 77 f9 f4 bd 2f 92 87 3d 0e 80 b7 3d 15 96 4a 3d
       -0.11961644 0.06619679 0.08959971 0.049459536
000230 e6 ea c8 3d 9c 3c 3b be 15 21 29 be 95 13 32 bd
       0.09810428 -0.1828484 -0.16516526 -0.043475706
000240 32 0b cc 3d 09 68 19 3e 25 6d b1 3d c7 50 31 be
       0.09963073 0.14981093 0.08663396 -0.1731597
000250 68 7f 15 be ff 85 47 3e d8 7e 1f 3e 62 15 42 be
       -0.14599383 0.19484709 0.15575731 -0.1895347
000260 07 27 91 bd 93 23 1e 3e 69 3b 51 3c 1b 12 1c be
       -0.07087522 0.15443258 0.012770512 -0.15241282
000270 b7 b7 ff 3a 11 82 46 3e d4 e7 58 bd 7d 30 1d be
       0.0019509707 0.19385554 -0.052955464 -0.15350528
000280 76 b4 9b 3d 9f 5c d3 bd 24 52 eb 3d 1f ad 0b be
       0.076027796 -0.103204004 0.114902765 -0.13640259
000290 96 bc cd 3d 3e 1f 5b be ff de e2 bd 82 58 1e bd
       0.100457355 -0.21398637 -0.110776894 -0.038658626
0002a0 f7 f9 e8 3d ef 60 ac 3d 60 d1 d6 bc b0 99 39 bb
       0.11375802 0.08416926 -0.026222885 -0.0028320365
0002b0 a0 13 91 3c 93 45 3d bd 6d 49 8a bc d5 e2 20 3e
       0.017709553 -0.04620893 -0.016880715 0.1571153
0002c0 d4 ac bc 3c d4 79 38 3e cb 55 36 bd fd 26 c7 3c
       0.02303163 0.18015224 -0.044515412 0.024310583
0002d0 86 df e3 bd ea 41 02 be df cd 22 be 3f 31 de 3d
       -0.11126618 -0.12720457 -0.15898846 0.10849237
0002e0 e0 fd e5 bd 40 e5 b6 bd b4 ea 85 bd b6 9e fd 3d
       -0.112300634 -0.08930445 -0.06538907 0.12383787
0002f0 bd d2 dd bd 05 4a e1 3d 14 c5 4a bd 21 2f c0 3d
       -0.10831211 0.11000446 -0.049504355 0.09383989
000300 7c 85 2e 3e e8 08 99 3d 14 e7 12 3e 69 48 f2 3d
       0.17043108 0.07472402 0.14345962 0.118302174
000310 1d 05 c2 bd 0d 1d 4d be aa ff 8c 3d 8c dd 7e be
       -0.094736315 -0.20030613 0.068847016 -0.24889201
000320 57 fa 65 bd 08 c4 10 be 65 46 21 3e 70 46 6d bd
       -0.056146946 -0.1413728 0.1574951 -0.057928503
000330 a9 81 39 be e2 06 b0 3c 2a e2 f4 3d aa 47 db bd
       -0.18115868 0.021487657 0.119572 -0.10707028
000340 ef ff a2 bb a7 04 fc bd 2a 53 e5 3d 07 55 59 be
       -0.0049743573 -0.12305575 0.11197503 -0.21223842
000350 67 9c d1 3d ae ac 95 3d fc 8e c4 bc a3 4f 24 be
       0.102349095 0.07308327 -0.023993962 -0.16046004
000360 e3 ff a2 3d 98 b1 5b 3c d9 b7 e2 3c c9 c0 0d 3d
       0.07958963 0.013409041 0.027675556 0.034607682
000370 3e ac 91 bc e7 6f 55 be 08 c2 f0 bd ee 54 34 3e
       -0.017782327 -0.20843469 -0.117557585 0.17610523
000380 9e 17 f4 bd f6 cc e6 bc 42 97 65 3b f4 03 e3 bc
       -0.11918567 -0.028173905 0.0035032784 -0.027711846
000390 82 b4 11 be b9 d1 92 3d 5d 99 01 3d 0e ab 30 3e
       -0.14229015 0.07168908 0.0316404 0.17252752
0003a0 1f c2 aa 3c 19 06 4a 3e 1a 3f d9 3d 8d b5 2b 3e
       0.020844517 0.19728889 0.10607739 0.16768475
0003b0 5c d6 01 3e ac fe 09 3e c8 b8 25 3e d4 9a fc bd
       0.12679428 0.13476056 0.1618377 -0.123342186
0003c0 87 9f 68 3e 0b 84 10 be a9 ce 07 be 14 66 d0 bd
       0.22717105 -0.1411287 -0.13262428 -0.1017572
0003d0 92 d6 2c 3d 14 f6 15 3e 95 4f ec bc 4e 09 46 bd
       0.042196818 0.14644653 -0.028846541 -0.048348717
0003e0 7e 4d 72 3d 5e 5d 1a 3c cb b1 00 3d 65 df 43 3d
       0.059155934 0.009421675 0.031419557 0.047820468
0003f0 2f ff 53 3e bf fe 76 3b 0d 69 68 3d 65 1c 81 bc
       0.20702814 0.0037688462 0.05674081 -0.01576061

fc4.bias f4 [10]
000000 9f 16 f2 bd f8 e5 00 be 3b d2 a4 bd d1 e9 9f 3c
       -0.11820721 -0.12587726 -0.08047911 0.019520672
000010 78 7d a1 3d 57 b2 e9 3d f6 34 9c bd 9f c8 fd 3d
       0.078852594 0.11410969 -0.07627289 0.12391781
000020 2d d7 de 3d aa d0 c6 bd
       0.10880885 -0.09707768
